atropos/trained_model/nhot/answer/not_add/9/best_acc.pt (torch, 18194 bytes, 5 tensors)

conv1.bias f4 [32]
0	0x3c74e40c	0.014946949
1	0xbab3abc1	-0.0013707803
2	0xbd051bab	-0.03249709
3	0xbcd69dea	-0.026198346
4	0x3a2650c5	0.0006344433
5	0x3d49edb0	0.049298942
6	0x3c50d90c	0.0127470605
7	0xbb2f6c2a	-0.0026767352
8	0xbc8a29d1	-0.016865643
9	0xbbbcf104	-0.005766036
10	0xbbdc413f	-0.006721645
11	0x3d283ff6	0.041076623
12	0xbc51fd70	-0.012816772
13	0x3c88b86c	0.016689502
14	0x3d83f868	0.06443864
15	0x3ca2e76d	0.019885743
16	0x3cbf9c7d	0.02339005
17	0xbb89380c	-0.0041875895
18	0xbb88d84f	-0.0041761766
19	0xbaa6208d	-0.0012674496
20	0x3d8cfb60	0.068838835
21	0x3c8ccf8a	0.017188806
22	0x3bebd826	0.0071973978
23	0x3c88b41b	0.016687443
24	0xbbf8a078	-0.0075874887
25	0x3bda45a5	0.0066611343
26	0xbca4c6b7	-0.020114286
27	0x3af703fa	0.001884579
28	0xbaf58428	-0.0018731402
29	0x3cc71feb	0.024307212
30	0x3c023810	0.007947937
31	0xba98afb9	-0.0011649049

conv1.lin.weight f4 [32, 83]
0	0xbe06e9f2	-0.1317518
1	0x3d9db836	0.07701151
2	0x3db61229	0.088901825
3	0x3ca94390	0.0206621
4	0x3ce297c0	0.02766025
5	0xbd9de9de	-0.07710622
6	0xbd2a6680	-0.041601658
7	0xbc8de6f2	-0.017322037
8	0x3d6cf3fc	0.05784987
9	0x3d503282	0.050829418
10	0xbe1e684b	-0.15469472
11	0x3da56ac3	0.08077004
12	0xbd8c2694	-0.06843296
13	0x3d8deb10	0.069296
14	0xbe68d40d	-0.22737141
15	0xbdb3b872	-0.087754145
16	0x3c3506ce	0.011048986
17	0x3d6bcf4e	0.057570748
18	0xbdbed360	-0.0931766
19	0x3e0342e2	0.12818483
20	0x3e0204d7	0.12697159
21	0x3ceb8c26	0.028753351
22	0x3e1d1338	0.15339363
23	0x3e66914a	0.22516361
24	0x3d969e4d	0.07354412
25	0xbd25cc8d	-0.040478278
26	0x3e5eac9f	0.21745537
27	0x3e8848d8	0.26618075
28	0xbe3dcc9d	-0.18535085
29	0xbca04678	-0.019564852
30	0x3c1df259	0.0096403
31	0xbcefd019	-0.029274033
32	0x3da7417d	0.08166788
33	0x3d6f8a90	0.058481753
34	0xbe3f145f	-0.18660115
35	0xbd5a20f8	-0.053254098
36	0x3ddf2e78	0.10897535
37	0xbe84fa65	-0.25972286
38	0xbd876508	-0.06611067
39	0x3e0b67db	0.13613836
40	0xbe11fde1	-0.14257003
41	0xbe33d685	-0.17562301
42	0xbcd45a92	-0.025922094
43	0xbe9c14f9	-0.3048475
44	0xbe7c1a91	-0.2461951
45	0xbd02ec1d	-0.031963456
46	0x3e152739	0.14565744
47	0xbbee8893	-0.0072794645
48	0xbe3ea1f7	-0.18616472
49	0x3df271fa	0.118381456
50	0x3d875e95	0.06609837
51	0x3db46bbf	0.088096134
52	0xbd6543a2	-0.055972703
53	0xbdc625d4	-0.09675184
54	0xbe5f7490	-0.21821809
55	0x3d4fee81	0.050764564
56	0xbe785a1b	-0.24253123
57	0x3e1881c3	0.1489325
58	0x3e3d46c7	0.1848403
59	0x3e27bb23	0.1637998
60	0x3e1094a2	0.14119199
61	0x3d6add75	0.057340104
62	0x3da82b37	0.082113676
63	0xbdd30ec6	-0.10305552
64	0xbe467733	-0.19381408
65	0x3d1a8731	0.037726585
66	0x3daae967	0.08345299
67	0xbe46380b	-0.19357316
68	0x3e2bbdf3	0.16771679
69	0x3e2d881b	0.16946451
70	0xbe054f0d	-0.13018437
71	0x3ce54b0e	0.02798989
72	0xbd2bc45b	-0.041935306
73	0xbcde861e	-0.027163561
74	0xbd16da74	-0.036829427
75	0xbdc9ce7c	-0.09853837
76	0xbdf919fb	-0.121631585
77	0x3d3f7f0a	0.046752013
78	0x3c9a68e0	0.018848836
79	0xbe63dc99	-0.2225212
80	0xbdc22708	-0.09480101
81	0xbe5c3542	-0.21504691
82	0xbd3d3825	-0.04619612
83	0x3c80bf79	0.015716301
84	0x3e0342ae	0.12818405
85	0x3e22bb31	0.1589172
86	0x3dd94980	0.10609722
87	0x3e6733a4	0.22578293
88	0xbe4fe93d	-0.20303817
89	0x3d699bae	0.057033233
90	0xbe102b06	-0.14078912
91	0x3e597f6f	0.21240018
92	0xbdc46112	-0.09588827
93	0x3e0431f5	0.12909682
94	0x3d25d2af	0.040484127
95	0xbe843771	-0.25823548
96	0xbdc057d0	-0.09391749
97	0xbcfd0ed8	-0.030890867
98	0xbd4ad055	-0.049515087
99	0x3d80b66f	0.062847964
100	0x3e29f4ca	0.16597286
101	0xbe4c1abc	-0.19932073
102	0xbe130603	-0.14357762
103	0xbdd5f597	-0.10447233
104	0x3db45a57	0.088062935
105	0x3cc9a5c8	0.024615183
106	0x3e5c0b75	0.21488746
107	0x3cc30221	0.023804726
108	0x3dff3fbe	0.1246333
109	0xbe0b9ca8	-0.13633978
110	0x3e1fa22a	0.15589204
111	0xbe0fe055	-0.1405042
112	0x3e075a3c	0.13218015
113	0x3e83629a	0.25661165
114	0x3ded8074	0.11596766
115	0x3ce009c8	0.027348414
116	0xbc4d800d	-0.012542737
117	0x3e4bc93c	0.19900984
118	0x3c8c2ab8	0.017110214
119	0x3ea67910	0.32514238
120	0xbdf70cc1	-0.120629795
121	0xbcfc412a	-0.030792791
122	0x3d3d2384	0.04617645
123	0x3e38285d	0.17984147
124	0x3e514845	0.20437725
125	0x3eab5ab0	0.33467627
126	0xbe497194	-0.19672233
127	0x3e018269	0.12647404
128	0xbccbaf15	-0.024863759
129	0x3de511b5	0.11185018
130	0x3df4c964	0.11952475
131	0x3e442cdc	0.19157737
132	0xbd0b0872	-0.0339436
133	0xbe896c86	-0.2684061
134	0xbe7c7836	-0.24655232
135	0xbe925573	-0.28580818
136	0x3c949187	0.0181358
137	0xbc6a8291	-0.014313356
138	0xbe1a00e2	-0.150394
139	0x3dc1ee77	0.09469312
140	0xbe3baa3a	-0.18326655
141	0xbddf3705	-0.10899166
142	0x3e2cc2c3	0.1687117
143	0x3da6f55d	0.08152268
144	0x3e1b7e20	0.15184832
145	0x3dc9a3fe	0.09845732
146	0x3dc27c47	0.0949636
147	0x3e1d3753	0.15353136
148	0xbe47425f	-0.19458912
149	0x3e5bb152	0.21454361
150	0x3e1de430	0.15419078
151	0x3d3d9e01	0.046293262
152	0xbe725427	-0.23664914
153	0xbc9ef2f0	-0.019402951
154	0x3e318ebd	0.17339607
155	0xbdf869d0	-0.12129557
156	0xbda3e0fa	-0.08001895
157	0xbe25a541	-0.1617632
158	0xbe347f3a	-0.17626658
159	0x3c431a23	0.011908087
160	0xbc7b154b	-0.015324901
161	0xbde7561b	-0.1129572
162	0xbc22563c	-0.009908255
163	0xbdff9f16	-0.12481515
164	0x3d85eb15	0.06538979
165	0xbe4376e7	-0.19088326
166	0x3d85acbf	0.06527089
167	0xbda926de	-0.082593665
168	0x3b361810	0.0027785338
169	0x3c9f1d49	0.019423144
170	0xbe3922ca	-0.18079677
171	0x3e333fc3	0.17504792
172	0xbd310b41	-0.043223623
173	0x3e4c16f7	0.19930635
174	0x3db83dcd	0.089961626
175	0xbb9ec189	-0.0048448485
176	0x3dcb1e91	0.099179395
177	0xbc0ad61d	-0.0084739
178	0xbc24e18f	-0.010063543
179	0x3dc45b40	0.09587717
180	0x3dffa00e	0.124817
181	0xbe056a30	-0.13028789
182	0x3d3ab47b	0.045582276
183	0x3ea1e887	0.31622717
184	0x3dfc6928	0.123247445
185	0xbab298b8	-0.0013625836
186	0x3d856c94	0.0651485
187	0xbd4ad634	-0.049520686
188	0xbe95d2d6	-0.29262418
189	0x3c2d1858	0.010564886
190	0xbdd40842	-0.103531376
191	0xbde36e5c	-0.11105034
192	0xbe6e76b7	-0.23287474
193	0xbbad4490	-0.0052877143
194	0xbd846be0	-0.06465888
195	0xbe2eee00	-0.17082977
196	0x3cfe1f27	0.031020714
197	0xbe4fb389	-0.20283331
198	0xbeaf502f	-0.34240863
199	0xbe4c4745	-0.19949062
200	0xbd3da6a5	-0.046301503
201	0xbe1eb0d8	-0.15497148
202	0xbe5175e1	-0.20455123
203	0xbe83def7	-0.25756046
204	0xbe4f380c	-0.20236224
205	0x3e011e3b	0.12609188
206	0xbcb70de2	-0.022345487
207	0xbd7bad5f	-0.061444636
208	0x3b633f9d	0.0034675368
209	0x3df3cbb6	0.11904089
210	0xbd2ab74f	-0.041678723
211	0x3d82a711	0.06379522
212	0xbdeff08a	-0.11715801
213	0x3c05acdf	0.008158891
214	0x3dd2087c	0.102555245
215	0x3db0737a	0.086157754
216	0x3eb0600d	0.3444828
217	0x3df6ed18	0.12056941
218	0x3bdadce5	0.0066791647
219	0x3e86b492	0.2630964
220	0xbcd79c7c	-0.026319735
221	0x3e8e7d67	0.2783005
222	0xbd2b52cc	-0.041827008
223	0x3e54c5f0	0.20778632
224	0x3d66ee5b	0.056379657
225	0x3d47944f	0.048725422
226	0xbe25ffbb	-0.16210835
227	0xbd94c488	-0.07264048
228	0xbdeabf40	-0.11462259
229	0xbe4defa6	-0.2011095
230	0xbe1c265d	-0.1524901
231	0xbe1b642b	-0.1517493
232	0x3d93a5f7	0.0720939
233	0x3e8f852d	0.28031293
234	0xbd0d53fc	-0.034503922
235	0x3da57fb0	0.08080995
236	0xbd935210	-0.071933866
237	0x3d576979	0.05259082
238	0x3e86f9d9	0.26362494
239	0xbdb29815	-0.087204136
240	0x3dab9992	0.083789006
241	0xbe149de4	-0.14513355
242	0xbdeb929c	-0.11502573
243	0x3db1c396	0.08679883
244	0xbe31e63d	-0.17372985
245	0x3df7c1f1	0.12097538
246	0xbe0ed871	-0.13949753
247	0xbe06bb20	-0.1315732
248	0x3e896f39	0.2684267
249	0xbe6cd664	-0.23128659
250	0x3e102baa	0.14079157
251	0x3ceb8aa6	0.028752636
252	0x3d464d46	0.048413537
253	0x3e158950	0.14603162
254	0x3e53930c	0.20661563
255	0xbe2da1be	-0.16956231

conv_out.bias f4 [32]
0	0xbcdbef28	-0.026847437
1	0xbcd1a74c	-0.025592469
2	0xbce8339c	-0.028344922
3	0xbcc70b2d	-0.024297321
4	0xbcf480c6	-0.02984656
5	0x3b69680a	0.003561499
6	0x3ce09473	0.027414536
7	0x3cd7515f	0.026283918
8	0xbce0a1cf	-0.027420906
9	0xbcb8c13f	-0.022553084
10	0x3ce5ea03	0.028065687
11	0x3cb3b549	0.02193703
12	0xbce96299	-0.028489398
13	0xbd10d6df	-0.035361167
14	0x3cfeebaf	0.031118242
15	0x3cdedc4b	0.027204653
16	0x3cf622c3	0.030045873
17	0x3ce92550	0.028460175
18	0xbcc7ba99	-0.024380969
19	0xbcdff81a	-0.027339984
20	0x3cd9f193	0.02660445
21	0xbce67b48	-0.028134957
22	0x3cccd7b7	0.025005205
23	0x3cf9b01f	0.030479489
24	0x3ce975cc	0.028498553
25	0x3d6ba9d8	0.057535022
26	0xbce2ade1	-0.027670803
27	0x3ced3338	0.028955087
28	0xbce9591c	-0.028484873
29	0x3cfe01f2	0.031006787
30	0x3ce9d1f0	0.028542489
31	0x3cb90fba	0.022590507

conv_out.lin.weight f4 [32, 32]
0	0xbe82d5fb	-0.2555388
1	0x3e403a1e	0.1877217
2	0x3e9c06ce	0.30473942
3	0x3df46b0e	0.119344816
4	0x3dae39d8	0.085071266
5	0xbe96f029	-0.29480103
6	0x3e3ed695	0.18636544
7	0xbc7368c1	-0.014856518
8	0x3e601c03	0.21885686
9	0xbd3ee7ef	-0.046607908
10	0xbe1af61b	-0.15132944
11	0xbe9a8a90	-0.3018384
12	0xbe0e223c	-0.13880247
13	0xbea9fe8c	-0.33202016
14	0xbb8b019c	-0.004242135
15	0x3d42c5fd	0.047552098
16	0xbc59d080	-0.013294339
17	0xbe34e074	-0.17663747
18	0xbe06e04a	-0.13171497
19	0xbe7c2b8e	-0.2462599
20	0x3e5e14eb	0.21687667
21	0x3eb5b866	0.35492247
22	0xbe398d37	-0.18120275
23	0xbd92e8df	-0.07173323
24	0xbe1ceaa4	-0.15323883
25	0xbe43b6ff	-0.19112776
26	0x3e960c1b	0.2930611
27	0xbe61ed61	-0.22063209
28	0x3cfb8b74	0.030706145
29	0x3e9f6af1	0.31136277
30	0xbde81a79	-0.11333174
31	0x3e71dc9d	0.23619314
32	0xbe938b67	-0.28817293
33	0xbe80284d	-0.25030747
34	0xbc19f202	-0.009396078
35	0x3d46e82f	0.04856127
36	0x3e2c3008	0.16815197
37	0xbdd7b86b	-0.10533222
38	0x3d3b712f	0.045762237
39	0xbe18b4ef	-0.1491277
40	0x3e1772bc	0.14789861
41	0x3e4689f3	0.19388561
42	0xbe001478	-0.12507808
43	0xbce95b0f	-0.028485803
44	0x3ca4f606	0.020136844
45	0xbb4c9df3	-0.0031222075
46	0xbe147dfd	-0.14501186
47	0xbda2faa4	-0.07957962
48	0x3e0288fb	0.12747566
49	0xbdecf579	-0.11570258
50	0x3d531117	0.05152997
51	0xbe3aa605	-0.18227394
52	0x3b9fbe4a	0.004874979
53	0x3e8483d3	0.25881824
54	0x3e8a0630	0.26957846
55	0xbd9accb4	-0.07558575
56	0xbe5ddefc	-0.21667093
57	0x3e8d4912	0.2759481
58	0xbd2897ba	-0.041160323
59	0xbe2b5f27	-0.16735516
60	0xbe847ab8	-0.25874877
61	0x3db42654	0.08796373
62	0xbea37082	-0.31921774
63	0xbd40df1b	-0.04708777
64	0xbe7d14f6	-0.24715027
65	0xbe804fbb	-0.2506083
66	0x3df7b2b2	0.1209463
67	0x3c0fa640	0.008767664
68	0x3e97b2f6	0.29628724
69	0xbe68c003	-0.22729497
70	0x3e883d0c	0.26609075
71	0x3dd3ae0f	0.103359334
72	0x3d00889f	0.031380292
73	0xbdfd7197	-0.12375181
74	0x3eb0f49f	0.3456163
75	0xbd46fb8c	-0.048579738
76	0x3e388058	0.1801771
77	0x3e26ed88	0.16301548
78	0x3db997c3	0.090621494
79	0x3e3dab3b	0.1852235
80	0xbcde5704	-0.027141102
81	0xbe958b98	-0.29208064
82	0xbe3b09df	-0.18265484
83	0x3e6e04ff	0.23244093
84	0xbeb810ef	-0.3595042
85	0x3eb243e8	0.34817433
86	0xbdb68f7b	-0.089140855
87	0xbe16a9c8	-0.14713204
88	0x3e5db0ad	0.21649428
89	0xbd7a671c	-0.06113349
90	0xbd81560b	-0.063152395
91	0x3e1e57d7	0.15463196
92	0x3df85a1c	0.12126562
93	0x3eaf0f7f	0.3419151
94	0x3d4c2310	0.049838126
95	0xbe1372a1	-0.14399196
96	0xbd869556	-0.06571452
97	0x3dd02687	0.101635985
98	0xbc7979e5	-0.015226816
99	0x3e9dcb16	0.30819005
100	0x3e084990	0.13309312
101	0xbec6b50c	-0.38810003
102	0x3e910a05	0.28327957
103	0x3d75b7a1	0.059989575
104	0xbd8d0895	-0.068864025
105	0x3e159259	0.14606608
106	0x3da6dff3	0.08148184
107	0x3e12ce0e	0.14336416
108	0xb7bf5fc7	-2.2813574e-05
109	0xbea39a10	-0.31953478
110	0xbe1ed631	-0.15511395
111	0xbe2623ba	-0.16224566
112	0x3e40e562	0.18837503
113	0x3dcd909c	0.10037348
114	0xbc370fc1	-0.01117319
115	0xbe42eb88	-0.1903516
116	0xbe53374f	-0.20626567
117	0x3ccf0edd	0.025275642
118	0xbe841179	-0.2579458
119	0xbe3aaa7f	-0.18229102
120	0xbdbcb911	-0.09214986
121	0xbe546c9c	-0.20744556
122	0xbe7f6072	-0.24939135
123	0x3d8156b0	0.063153625
124	0x3de0269f	0.109448664
125	0xbe7236ab	-0.23653667
126	0xbe6a1833	-0.22860794
127	0x3e739086	0.237856
128	0xbb2bc11d	-0.0026207634
129	0xbe32c81e	-0.17459151
130	0xbd85a2c8	-0.06525189
131	0x3d91b63f	0.07114839
132	0xbd52a27a	-0.05142448
133	0xbd1f4e1d	-0.038892854
134	0xbdea6e92	-0.11446871
135	0x3e3c668b	0.18398492
136	0x3e99c6b9	0.30034426
137	0x3d57eb3a	0.052714564
138	0x3eb1a555	0.3469645
139	0xbe546a3e	-0.20743653
140	0xbdbb406e	-0.09143148
141	0x3e4b8a77	0.19877039
142	0xbe9b1aa9	-0.30293778
143	0x3dec9b1c	0.11553022
144	0xbe8103f1	-0.2519832
145	0x3d8164b9	0.063180394
146	0x3dd93612	0.10606016
147	0x3db3b6a0	0.08775067
148	0xbe06382e	-0.13107368
149	0x3e3c0a30	0.18363261
150	0xbb76a11f	-0.0037632657
151	0xbd6dd15f	-0.058061
152	0x3e6ff5dd	0.23433633
153	0x3ea261bf	0.317152
154	0x3e0ed81b	0.13949625
155	0x3e11104e	0.14166376
156	0xbe083ca8	-0.13304389
157	0x3ea1fd39	0.31638506
158	0xbe96882f	-0.29400775
159	0xbe07b281	-0.13251688
160	0x3e9f0917	0.31061623
161	0x3e690970	0.22757506
162	0x3d82995e	0.06376909
163	0xbea03687	-0.312916
164	0x3e2bc9cf	0.16776203
165	0x3e82c495	0.25540605
166	0xbd9ebf79	-0.07751364
167	0xbe2214fb	-0.15828316
168	0x3e25c38e	0.1618788
169	0x3d8050db	0.06265422
170	0xbe2e53e7	-0.17024194
171	0x3e2c4f64	0.1682716
172	0x3d83ade3	0.06429651
173	0xbd922e5f	-0.07137751
174	0xbd96812c	-0.07348856
175	0xbb7fe7d5	-0.0039048095
176	0x3da3fd01	0.08007241
177	0x3e6b005e	0.22949359
178	0xbe59553a	-0.21223918
179	0xbd535964	-0.05159892
180	0x3b64e2c1	0.0034925195
181	0xbe1bdc3d	-0.15220733
182	0x3dcbefe6	0.09957866
183	0x3e02052e	0.12697288
184	0xbe7a1085	-0.24420364
185	0xbdc1995b	-0.09453078
186	0x3e3aa054	0.18225223
187	0x3dfaba72	0.12242593
188	0x3df17739	0.11790318
189	0xbdf381b9	-0.11889977
190	0xbe01c71f	-0.12673615
191	0x3ddb08c4	0.10695031
192	0x3e3a5553	0.18196611
193	0x3e298dc8	0.16557992
194	0x3e1f6068	0.1556412
195	0x3d94a29d	0.072575785
196	0xbdedb5f5	-0.11606971
197	0xbe324acb	-0.17411344
198	0x3dca6e25	0.0988429
199	0x3e7144f7	0.23561464
200	0x3e75f6b8	0.24019897
201	0x3e10429f	0.14087914
202	0xbea7a2d4	-0.32741416
203	0x3e86d472	0.26333958
204	0x3e2a7bd3	0.16648798
205	0x3d8b3e0d	0.067989446
206	0x3e113c90	0.14183259
207	0xbe75ce58	-0.24004495
208	0xbd47b871	-0.04875988
209	0xbdbfdd78	-0.09368414
210	0xbddd635a	-0.108099654
211	0x3e2da758	0.16958368
212	0x3d1a7e36	0.03771802
213	0xbe9d95f3	-0.30778465
214	0x3e6d0471	0.23146226
215	0xbea209df	-0.31648156
216	0x3ddfd33f	0.10928964
217	0x3e10d873	0.14145069
218	0x3d8f0934	0.06984177
219	0x3e20140c	0.15632647
220	0x3d3b4365	0.04571857
221	0xbe5e7ac4	-0.21726519
222	0xbcc8889a	-0.0244792
223	0xbcc31af5	-0.023816565
224	0x3e1f5944	0.15561396
225	0x3e041327	0.12897931
226	0xbe9dbc24	-0.30807602
227	0x3e6bbcfd	0.23021312
228	0xbe2eadb4	-0.1705845
229	0x3e7537b4	0.2394703
230	0x3dd819d7	0.105518036
231	0xbdfa6470	-0.12226188
232	0x3e2ed6ef	0.17074178
233	0xbe129eec	-0.14318436
234	0xbdb9f95f	-0.09080767
235	0x3eb07fd2	0.3447252
236	0xbe3958bc	-0.18100256
237	0x3ce06c0e	0.027395274
238	0x3e3020fc	0.17200083
239	0x3e2e7c50	0.17039609
240	0x3e2e5f8c	0.17028636
241	0x3e1290b6	0.14313015
242	0xbd844449	-0.06458337
243	0x3e3607df	0.1777644
244	0xbe4571b5	-0.19281657
245	0x3e00167a	0.12508574
246	0xbe8b1f9c	-0.27172554
247	0x3e78b5f6	0.24288163
248	0x3e1d020d	0.15332814
249	0x3dab3145	0.08359007
250	0xbd3c269c	-0.04593526
251	0xbdd602d9	-0.10449762
252	0x3df9a039	0.12188763
253	0x3c137191	0.008999244
254	0x3e92b257	0.28651688
255	0xbe114915	-0.14188035

fc.weight f4 [1, 32]
0	0x3e150748	0.14553559
1	0x3d7c6f8d	0.06162982
2	0x3e60053d	0.21876998
3	0x3d6f967d	0.058493126
4	0x3e563c91	0.20921542
5	0xbd1e61a9	-0.038667355
6	0xbde6af1e	-0.1126387
7	0xbe2e073b	-0.16994946
8	0x3e30e604	0.17275244
9	0x3d85b054	0.065277725
10	0xbe73b969	-0.23801197
11	0xbc29abcd	-0.010355902
12	0x3e4fb0cb	0.20282285
13	0x3d9c589d	0.07634089
14	0xbdfbe216	-0.12298982
15	0xbd9ad1fe	-0.07559584
16	0xbe307653	-0.17232637
17	0xbd503acc	-0.050837323
18	0x3d212cd0	0.039349377
19	0x3d28de21	0.041227464
20	0xbdb6b5d0	-0.08921397
21	0x3e5b0df1	0.21392037
22	0xbdb275dc	-0.08713886
23	0xbdd42dd6	-0.10360305
24	0xbe8c1d5a	-0.27366143
25	0xbba75bb7	-0.005107369
26	0x3e67a3fe	0.22621152
27	0xbe5b5eda	-0.21422902
28	0x3df17416	0.1178972
29	0xbdaa6285	-0.08319572
30	0xbe8b23ff	-0.271759
31	0xbd7d6936	-0.061867915
