atropos/trained_model/onehot/no_answer/2/best_acc.pt (torch, 10258 bytes, 5 tensors)

conv1.bias f4 [32]
-0.10165562 -0.018921115 -0.045784812 -0.03866933 -0.06576995 0.0025885405 0.032006886 0.029266408
-0.071005575 0.017998181 -0.0290388 0.021967977 -0.07193717 -0.022036739 -0.011109104 -0.009419236
-0.018480698 -0.040787652 -0.03082496 0.006845579 -0.006708796 -0.014499048 -0.048460893 -0.029332148
-0.033598226 -0.0010732928 -0.08416673 -0.011881959 -0.046354227 -0.025046796 -0.051656485 -0.03573799
00000000: d230 d0bd 7400 9bbc db88 3bbd bb63 1ebd
00000010: 65b2 86bd 81a4 293b a719 033d 1bc0 ef3c
00000020: 5f6b 91bd ec70 933c c7e2 edbc 30f6 b33c
00000030: cc53 93bd 6486 b4bc f602 36bc 2453 1abc
00000040: d564 97bc f410 27bd a084 fcbc e150 e03b
00000050: 76d5 dbbb 6a8d 6dbc ee7e 46bd f949 f0bc
00000060: 4b9e 09bd bbad 8cba 9b5f acbd 8cac 42bc
00000070: eedd 3dbd f02e cdbc c095 53bd 0062 12bd

conv1.lin.weight f4 [32, 21]
0.25016177 -0.41460827 0.26325318 -0.03274389 -0.2758998 0.2422573 0.23547228 0.41646323
0.04402285 -0.30802283 -0.24816865 -0.2191141 0.35674515 0.268 -0.10574523 0.00031514923
-0.12423895 0.019405877 0.19565122 0.22396894 -0.08071373 0.2412752 -0.016599089 -0.14433329
0.028079502 0.26740438 -0.04476712 0.23223642 0.11313535 0.09355053 0.2569244 0.025980951
0.13223638 0.22068757 -0.0147043 -0.22833236 0.048207387 -0.025454722 -0.31216583 0.1435635
-0.074194096 0.012565784 0.28382757 0.024378298 0.16287792 -0.057433326 -0.004304058 0.11056296
-0.098245434 -0.107742414 0.3330489 -0.071871154 -0.19384198 0.095866956 -0.30292243 0.07596925
0.13685691 0.08160872 -0.1311989 0.1370758 0.16899002 0.2379802 -0.20827538 -0.21790749
0.31826404 -0.14738844 0.46930712 -0.14673837 -0.071989626 -0.27727327 -0.060568817 0.25318775
0.1828624 0.11514965 0.09777184 0.19634412 0.24763083 -0.43862912 -0.15578766 -0.30009124
-0.11906469 0.31358618 0.22907187 0.08505695 -0.29322624 -0.3678579 0.25414202 0.4261982
0.11940411 -0.21595529 -0.32705525 -0.21038854 -0.22419088 -0.34638685 -0.086583704 0.20656607
0.29731214 0.08051843 -0.3647323 -0.07782927 0.13461834 0.13895984 -0.018076668 -0.16963893
0.43464756 0.13312748 0.10765625 -0.1992214 -0.06285309 0.18518524 -0.1477056 0.10680239
-0.09518379 -0.34396455 -0.13650408 -0.022634601 0.22438277 0.21520235 -0.30260307 0.36898124
0.4036445 0.1765746 -0.34009457 -0.04534095 0.1354879 0.028717196 -0.16917016 -0.054281298
0.3067629 0.13802268 -0.24064584 -0.10933438 0.3083254 -0.030090285 0.25277776 0.08705938
-0.2091962 0.13478653 0.3423397 0.3110547 0.14530876 0.2986954 0.12492679 0.08003093
0.39589497 -0.009912026 0.012787012 -0.26434386 0.14657752 -0.12755947 0.07486994 0.18131417
-0.23028535 -0.22033885 -0.14617081 0.036674295 0.16462433 -0.1670179 0.13904326 0.32620382
0.29128435 0.25304416 0.19889458 0.22701032 -0.07353536 0.02100066 -0.3991624 0.013721068
0.16381525 0.16171215 -0.21575028 -0.3384451 -0.44434536 0.2024872 -0.18361229 0.35079226
0.20430887 0.09029366 -0.36916813 -0.045150522 0.4178956 0.14730851 -0.22644426 0.122616135
-0.13741226 0.11910202 -0.2805441 0.08451645 -0.23826715 -0.30791494 -0.04755183 0.18014228
0.034287926 0.1607447 0.072713904 -0.35044873 -0.46808922 0.17874518 0.29229423 0.087551676
0.009619917 -0.19256273 0.033908304 -0.31833476 -0.31187358 0.1671953 -0.033628486 -0.012398204
0.059145875 0.06544908 0.26802284 0.21080402 -0.16944078 -0.3285692 -0.44900948 -0.2688182
-0.08598658 -0.24490653 -0.20820892 -0.40581858 0.06304627 0.277415 -0.05230299 -0.16983506
0.23193012 -0.0048838174 0.1470282 -0.22713274 -0.112173 0.05951632 0.035721526 -0.33438388
-0.36440128 0.026111536 0.31067666 -0.23670521 -0.2330281 -0.3387476 -0.1063851 -0.19699155
-0.28650838 -0.015472386 0.14045934 0.16081081 -0.06995145 -0.34612373 0.0814798 -0.2232985
-0.30554897 0.031155584 -0.15978357 -0.015565875 0.16872217 0.1155925 0.101842776 -0.30507988
00000000: 3415 803e 8947 d4be 1fc9 863e 751e 06bd
00000010: bd42 8dbe 4c12 783e a51f 713e ab3a d53e
00000020: 4e51 343d 2bb5 9dbe ec1f 7ebe 725f 60be
00000030: 4da7 b63e 4c37 893e f590 d8bd 9d3a a539
00000040: fe70 febd 13f9 9e3c cb58 483e 1d58 653e
00000050: 3d4d a5bd d910 773e d0fa 87bc 1bcc 13be
00000060: fc06 e63c 3ae9 883e ba5d 37bd 62cf 6d3e
00000070: 82b3 e73d 6c97 bf3d 988b 833e 01d6 d43c
00000080: f968 073e ecfb 613e 4eea 70bc f5cf 69be
00000090: 1c75 453d 6c86 d0bc 33d4 9fbe 4f02 133e
000000a0: 13f3 97bd b8e0 4d3c d951 913e ffb4 c73c
000000b0: 78c9 263e 353f 6bbd 0e09 8dbb d56e e23d
000000c0: e734 c9bd 0ea8 dcbd 6385 aa3e 2f31 93bd
000000d0: 837e 46be e555 c43d a618 9bbe c495 9b3d
000000e0: 3824 0c3e 7922 a73d 0159 06be 995d 0c3e
000000f0: b80b 2d3e 15b1 733e 2446 55be 2423 5fbe
00000100: 81f3 a23e ffec 16be 0649 f03e 9542 16be
00000110: 4c6f 93bd c3f6 8dbe 0217 78bd d3a1 813e
00000120: 4840 3b3e 94d3 eb3d 9a3c c83d 6f0e 493e
00000130: f092 7d3e ff93 e0be cd86 1fbe 8fa5 99be
00000140: 30d8 f3bd 5e8e a03e d191 6a3e 5732 ae3d
00000150: c021 96be df57 bcbe e71e 823e a736 da3e
00000160: 248a f43d 6223 5dbe c973 a7be 1870 57be
00000170: 4b92 65be 9e59 b1be cc52 b1bd 0e86 533e
00000180: 4c39 983e d9e6 a43d 31be babe f464 9fbd
00000190: 64d9 093e 7d4b 0e3e 8515 94bc d4b5 2dbe
000001a0: 208a de3e 9252 083e e17a dc3d b200 4cbe
000001b0: 1fb9 80bd 33a1 3d3e 2340 17be 36bb da3d
000001c0: b8ef c2bd 1f1c b0be bac7 0bbe 336c b9bc
000001d0: 99c4 653e 015e 5c3e caee 9abe 1ceb bc3e
000001e0: 7eaa ce3e f9cf 343e e020 aebe 6fb7 39bd
000001f0: 57bd 0a3e 5340 eb3c f13a 2dbe 1156 5ebd
00000200: 0710 9d3e d155 0d3e dd6b 76be b4ea dfbd
00000210: d4dc 9d3e e77f f6bc 166c 813e 304c b23d
00000220: 8737 56be 7b05 0a3e 2647 af3e 9042 9f3e
00000230: d2cb 143e 9aee 983e 9ed9 ff3d 42e7 a33d
00000240: bfb2 ca3e 0d66 22bc 9e80 513c 1458 87be
00000250: 6b18 163e f39e 02be 6955 993d 6caa 393e
00000260: eccf 6bbe 82a0 61be cdad 15be c937 163d
00000270: 4893 283e be06 2bbe 5b61 0e3e 3004 a73e
00000280: 3923 953e 018f 813e 05ab 4b3e 6575 683e
00000290: b599 96bd 9309 ac3c 045f ccbe 55ce 603c
000002a0: 2fbf 273e df97 253e a4ed 5cbe ad48 adbe
000002b0: 3c81 e3be ce58 4f3e dc04 3cbe 0b9b b33e
000002c0: 5836 513e e2eb b83d 9b03 bdbe c1ef 38bd
000002d0: 69f6 d53e 0bd8 163e 01e1 67be 2b1e fb3d
000002e0: cdb5 0cbe c3eb f33d 7aa3 8fbe f616 ad3d
000002f0: 4efc 73be 07a7 9dbe b5c5 42bd 3877 383e
00000300: 7f71 0c3d 429a 243e 07eb 943d 046e b3be
00000310: 64a9 efbe fa08 373e 97a7 953e 4b4e b33d
00000320: db9c 1d3c 2a2f 45be 6fe3 0a3d c6fc a2be
00000330: e5ad 9fbe 3f35 2b3e 06be 09bd d621 4bbc
00000340: f242 723d 2b0a 863d 4a3a 893e 02dd 573e
00000350: e281 2dbe 393a a8be 92e4 e5be 8aa2 89be
00000360: bb19 b0bd c7c8 7abe b834 55be 74c7 cfbe
00000370: 671e 813d 5709 8e3e a93b 56bd 3ee9 2dbe
00000380: 177f 6d3e 6e08 a0bb 8f8e 163e 7c95 68be
00000390: f5ba e5bd 62c7 733d bc50 123d 5d34 abbe
000003a0: ce92 babe dce7 d53c 0311 9f3e da62 72be
000003b0: eb9e 6ebe 5370 adbe 6ee0 d9bd 27b8 49be
000003c0: 3ab1 92be e47f 7dbc 93d4 0f3e 97ab 243e
000003d0: b542 8fbd 2137 b1be e2de a63d 5da8 64be
000003e0: ea70 9cbe ff39 ff3c 4e9e 23be 0308 7fbc
000003f0: 81c5 2c3e c3bb ec3d f292 d03d 6e33 9cbe

conv_out.bias f4 [32]
-0.03676672 0.030986821 0.036384866 -0.04119277 0.03750125 -0.041771434 -0.037472583 0.036744006
-0.037059955 -0.037601944 0.037046667 0.03813604 0.032950457 -0.037728574 -0.03821825 0.038365636
-0.036848236 0.03778164 -0.03705501 0.009143457 -0.038856775 -0.035573944 0.037114784 -0.038406458
0.03959587 -0.03583812 0.03901391 -0.03833472 -0.03574445 -0.034665592 0.036258604 -0.03874598
00000000: b398 16bd 13d8 fd3c 4c08 153d c0b9 28bd
00000010: e99a 193d 8618 2bbd da7c 19bd e280 163d
00000020: 2ecc 17bd 7f04 1abd 3fbe 173d 8934 1c3d
00000030: 0ff7 063d 4789 1abd bd8a 1cbd 4925 1d3d
00000040: 2dee 16bd ecc0 1a3d ffc6 17bd 70ce 153c
00000050: 4828 1fbd fcb5 11bd ac05 183d 1750 1dbd
00000060: 472f 223d feca 12bd 0dcd 1f3d de04 1dbd
00000070: c668 12bd 82fd 0dbd e783 143d 1bb4 1ebd

conv_out.lin.weight f4 [32, 32]
0.041954696 -0.2678415 -0.2791729 0.19903654 0.044604946 0.050290555 -0.009338014 -0.13728328
-0.19859388 -0.088101886 0.113995716 0.17515147 -0.09715494 0.24152334 0.27547443 -0.053396158
-0.13541265 0.008223999 -0.052111935 0.24563003 0.18066838 -0.22874399 -0.19691339 0.2940171
-0.08120836 0.09490249 0.124600165 -0.14414062 -0.26883844 -0.007858824 -0.08687874 -0.0032281645
-0.0611568 -0.06767138 -0.2829663 -0.31357023 -0.41110626 -0.255015 0.0316949 -0.25542498
0.22779226 0.238158 0.1874697 -0.5093526 0.027181376 -0.13325085 0.2670297 -0.061529063
0.29293403 0.34491152 -0.2514013 -0.1263725 -0.055506524 -0.31695047 -0.1843045 0.0333719
0.16188855 -0.18015651 -0.08106543 -0.10947576 0.23273747 -0.5222481 0.16084787 0.06332469
-0.15155621 -0.13774142 0.24918629 -0.320152 0.20917106 -0.26620775 -0.036888804 -0.30824327
0.07583044 0.09027578 -0.27663958 -0.3021329 0.080558956 0.13406634 -0.25425524 -0.026992777
0.20112334 -0.21922433 -0.16812082 -0.10458256 -0.11372429 -0.11735507 -0.22088765 -0.19813828
0.20272219 0.03569441 0.0201304 0.010444411 -0.09480609 -0.19075342 0.1369749 0.070903406
0.1305574 -0.15699634 0.19494197 0.29986835 0.11107062 -0.264345 -0.13987984 0.26677212
-0.31243798 -0.3242417 0.09386666 0.2867021 -0.041693483 -0.095622756 0.17787685 0.19375533
0.21978688 -0.28880537 -0.22670826 0.00049095694 -0.17810671 0.3238297 -0.019986631 0.123762555
-0.29692256 -0.03495575 0.07039457 0.13791461 -0.19775744 0.22495992 0.24591905 0.05908661
-0.08152987 0.16316625 -0.32510862 -0.34745318 0.19466086 -0.011781103 0.18277662 -0.16456646
-0.037551254 0.12179612 -0.27530888 -0.25672925 0.2019032 0.10227679 0.05886463 -0.042418152
0.15049264 -0.18824056 -0.23885119 0.009364899 0.2568895 -0.27559206 -0.070092976 -0.14660291
-0.05855632 -0.033145297 0.15307148 0.10742879 -0.11317702 -0.11888096 -0.096817784 0.16502891
-0.23771112 0.16841486 0.23604654 0.107071005 0.35859063 -0.25811154 0.26782116 0.009956747
-0.12838288 -0.04643518 -0.05543349 0.4025796 0.0785872 0.04742027 0.19637546 -0.21723959
-0.06595572 0.10452968 -0.20745629 -0.098295525 0.13331388 -0.21653207 -0.23382874 -0.16731077
-0.2549206 0.16734736 -0.3330562 -0.21553566 0.26900753 0.08706624 0.26935405 -0.23045474
-0.31951353 0.062015146 -0.25360808 0.34064957 -0.07199495 0.19193529 0.18642963 -0.14748724
-0.2926132 -0.11310658 -0.17154644 0.19580308 0.18968731 -0.19562843 0.20166378 -0.07339139
0.12747526 0.041673157 0.26139447 -0.2670742 -0.22967514 -0.023128113 0.1648741 -0.029941402
0.12542585 -0.2256137 -0.33586407 0.051447902 0.15379803 0.38233775 -0.25708735 -0.30493683
-0.023128549 0.21075317 0.04747409 -0.03830226 -0.35773093 0.19916025 0.23282932 0.25823668
-0.24815387 -0.059467413 -0.09665828 -0.11566355 -0.27114072 -0.3217164 0.10672968 -0.094585896
0.034146268 0.22789404 0.23006172 0.056566693 0.35613212 0.16177827 -0.20495345 -0.34866282
-0.12636033 -0.22248474 -0.04439913 0.1822122 0.16194473 -0.21510799 0.10863431 0.13554092
00000000: b0d8 2b3d 8522 89be c0ef 8ebe 3cd0 4b3e
00000010: adb3 363d 78fd 4d3d 78fe 18bc fd93 0cbe
00000020: 325c 4bbe c36e b4bd 9676 e93d e85a 333e
00000030: 2bf9 c6bd e551 773e fc0a 8d3e eeb5 5abd
00000040: 9da9 0abe f4bd 063c 5373 55bd 7086 7b3e
00000050: 2201 393e dd3b 6abe aaa3 49be 6989 963e
00000060: 9250 a6bd 3d5c c23d 5f2e ff3d 9999 13be
00000070: 31a5 89be 4cc2 00bc 7bed b1bd 9d8f 53bb
00000080: 8d7f 7abd 4b97 8abd f5e0 90be 478c a0be
00000090: 857c d2be 5391 82be 83d2 013d 10c7 82be
000000a0: 6042 693e b1df 733e 0ff8 3f3e ef64 02bf
000000b0: 7aab de3c e972 08be 1eb8 883e e605 7cbd
000000c0: 73fb 953e 3e98 b03e acb7 80be cb67 01be
000000d0: cf5a 63bd 5547 a2be 52ba 3cbe f9b0 083d
000000e0: 1dc6 253e f37a 38be a205 a6bd d434 e0bd
000000f0: bb52 6e3e 0db2 05bf 4eb5 243e 60b0 813d
00000100: 8d31 1bbe 160c 0dbe b12a 7f3e f7ea a3be
00000110: f030 563e 624c 88be b718 17bd 10d2 9dbe
00000120: fd4c 9b3d 82e2 b83d b4a3 8dbe 2ab1 9abe
00000130: 18fc a43d b048 093e be2d 82be f51f ddbc
00000140: 47f3 4d3e 587c 60be dd27 2cbe 622f d6bd
00000150: 48e8 e8bd db57 f0bd 5f30 62be c3e4 4abe
00000160: 6896 4f3e 4d34 123d 82e8 a43c 091f 2b3c
00000170: b229 c2bd dd54 43be 2643 0c3e ce35 913d
00000180: d7b0 053e a6c3 20be de9e 473e 5888 993e
00000190: fe78 e33d 3a58 87be a93c 0fbe 5b96 883e
000001a0: dff7 9fbe 0203 a6be 2a3d c03d 9eca 923e
000001b0: c9c6 2abd ddd5 c3bd 5925 363e cc67 463e
000001c0: d00f 613e 4cde 93be 3626 68be 90b3 003a
000001d0: 9b61 36be 02cd a53e 01bb a3bc 3977 fd3d
000001e0: 3c06 98be c32d 0fbd 072b 903d 7d39 0d3e
000001f0: ed80 4abe e55b 663e 34d2 7b3e cd04 723d
00000200: 22f9 a6bd 0e15 273e a374 a6be 62e5 b1be
00000210: 2d55 473e 8705 41bc cb29 3b3e 1c84 28be
00000220: 58cf 19bd 3f70 f93d 49f5 8cbe 0472 83be
00000230: b6bf 4e3e 7e76 d13d 0a1c 713d a8be 2dbd
00000240: be1a 1a3e 22c2 40be 6895 74be 3c6f 193c
00000250: 0587 833e 671a 8dbe e88c 8fbd 131f 16be
00000260: c0d8 6fbd 5dc3 07bd c5be 1c3e a003 dc3d
00000270: 5ac9 e7bd dc77 f3bd 6748 c6bd 57fd 283e
00000280: 8b6a 73be f274 2c3e 2fb6 713e 0b48 db3d
00000290: 3199 b73e 3227 84be db1f 893e a021 233c
000002a0: cd76 03be d132 3ebd 3a0e 63bd ea1e ce3e
000002b0: 53f2 a03d c23b 423d a616 493e 0e74 5ebe
000002c0: cb13 87bd a813 d63d 6c6f 54be 2a4f c9bd
000002d0: 6f83 083e 95ba 5dbe cd70 6fbe 8453 2bbe
000002e0: f484 82be 1b5d 2b3e 5886 aabe 61b5 5cbe
000002f0: 5bbb 893e c94f b23d c6e8 893e 54fc 6bbe
00000300: 4797 a3be 9803 7e3d ebd8 81be 9f69 ae3e
00000310: 1772 93bd af8a 443e 69e7 3e3e e506 17be
00000320: 66d1 95be 6ca4 e7bd dfa9 2fbe 9a80 483e
00000330: 643d 423e d252 48be f380 4e3e 3a4e 96bd
00000340: e088 023e 79b1 2a3d 7fd5 853e f3bd 88be
00000350: f62f 6bbe 2b77 bdbc c2d4 283e ac47 f5bc
00000360: a26f 003e 4707 67be 60f6 abbe 09bb 523d
00000370: 3b7d 1d3e c6c1 c33e f4a0 83be ae20 9cbe
00000380: 1578 bdbc aecf 573e 3174 423d d5e2 1cbd
00000390: 8228 b7be aaf0 4b3e cf6a 6e3e 9937 843e
000003a0: 0c1c 7ebe 1a94 73bd c7f4 c5bd 03e1 ecbd
000003b0: f5d2 8abe 03b8 a4be 1795 da3d 40b6 c1bd
000003c0: f5dc 0b3d 0e5d 693e 4d95 6b3e 7ab2 673d
000003d0: f356 b63e 34a9 253e 51df 51be ef83 b2be
000003e0: 9a64 01be 0ad3 63be dddb 35bd d695 3a3e
000003f0: d7d4 253e 4545 5cbe aa7b de3d 3dcb 0a3e

fc.weight f4 [1, 32]
-0.08504723 0.061972927 0.029594684 -0.060288668 0.0840498 -0.082846895 -0.2028633 0.15612131
-0.15011963 -0.13976759 0.1556094 0.05137307 0.025993327 -0.1746432 -0.1389482 0.24880478
-0.12071908 0.17704093 -0.097665615 -0.033743203 -0.1675177 -0.078036465 -0.0025038447 -0.09984896
0.1770164 -0.059987698 -0.026182072 -0.08724189 -0.13954021 -0.051553335 0.1065414 -0.06525469
00000000: 3e2d aebd 53d7 7d3d 8d70 f23c 40f1 76bd
00000010: 4d22 ac3d a2ab a9bd 66bb 4fbe 44de 1f3e
00000020: f6b8 19be 3c1f 0fbe 1258 1f3e 916c 523d
00000030: f5ef d43c abd5 32be 7048 0ebe aec6 7e3e
00000040: 913b f7bd 384a 353e e904 c8bd 5036 0abd
00000050: c389 2bbe 95d1 9fbd 8b17 24bb 9d7d ccbd
00000060: ca43 353e a9b5 75bd c97b d6bc e0ab b2bd
00000070: a1e3 0ebe 9729 53bd 6132 da3d 40a4 85bd
