atropos/trained_model/nhot/answer/not_add/16/best_acc.pt (torch, 18194 bytes, 5 tensors)

conv1.bias f4 [32]
00000000: f67c a43b f358 943a 33e6 4e3d 2e2d 0d3c
00000010: c91c 713c 626b 0ebd d154 833c dc38 373d
00000020: e1b2 083d 4ce1 89bc 3f3f f63c dbcb d5bb
00000030: e1b9 a0bb 4eac 71bd 0b4a 6abb cefe a1bb
00000040: d69b 39bc 47d1 ce3c 610b 003d 33b1 503c
00000050: 7253 43bb 76e9 61bd f961 f1bb 71a4 433c
00000060: 65b0 c1bc 1965 8a3c cfa4 4b3d 20a7 eb3a
00000070: d92d 9cbb aca6 22bc b7eb 16bd 9dc1 b73c
0.0050197793 0.0011318013 0.050512504 0.008616729 0.014716336 -0.034770377 0.016031655 0.04473196
0.033373717 -0.016831063 0.030059455 -0.0065245456 -0.004904971 -0.059002213 -0.00357497 -0.004943705
-0.011328658 0.025246276 0.03126085 0.01273756 -0.0029804376 -0.055154286 -0.0073664156 0.011941061
-0.023643682 0.01689391 0.04971772 0.0017978884 -0.0047662077 -0.009927433 -0.03684589 0.02243119

conv1.lin.weight f4 [32, 83]
00000000: 2729 4d3e f728 ee3d 216c cdbd 14fe 85bd
00000010: 0811 2ebe af87 283e 7a44 133e 4afb 013e
00000020: 991d 49be 964c 57be e792 273c 310c 5fbe
00000030: 118b 25bd 20eb 63be 01a8 66be 8b18 10be
00000040: 2e61 b93d 86e7 16be d9fc ee3d d6e9 0d3d
00000050: 6969 c93d 34d7 cf3d 3a78 d5bd 1ede bd3c
00000060: 4cf0 cabd e81f eb3d 14e9 873d 3d6a 5bbe
00000070: 51dc 8dbe 2a42 7e3c 1494 37be ff1e 823c
00000080: e808 99be 551d 19bd 8942 10be da33 4abe
00000090: aa70 11be a80d 95bd 0add 5c3d f13e 86bd
000000a0: dd50 8d3d 752d 47bd 6668 e1bc 61ec b23c
000000b0: 0601 cdbd 39fe 1ebe 2392 043e 89d4 173d
000000c0: 9efb 2fbc f645 b13e 5747 203e 229d 41bd
000000d0: 9727 19be 19e0 19bd 4431 923d 2927 a53e
000000e0: f7e7 bb3c 9802 0e3d 070d 833e e1e6 893e
000000f0: 2a52 2a3e ab24 cf3d a27c 2a3e 3c37 933c
00000100: 76d7 763d d125 2e3e 72fd 10be 6169 a73e
00000110: 2cbb 8b3e 5e5c cbbd 3f6b 083e ded0 513e
00000120: 6748 85bd 0ca0 5bbd 8f43 a83d 204e 833e
00000130: bb85 4d3e 54e4 833e b005 e13d 55c0 a03e
00000140: e5ff 5e3e 9915 0bbd 52ca 903c 4e23 a4bd
00000150: e099 65bd 166b 5a3e 95c7 5c3e 9676 0dbe
00000160: d3eb a3bd 5cdb 003e c9be 89bc f331 62bd
00000170: b7b6 423e 9298 b73d 7e44 063e 5928 12be
00000180: 9188 823e b993 583a f91e 2bbd 66e2 b93b
00000190: c3dd 89bc 3223 8b3e 5e1c 43bc a9bb 093d
000001a0: 57bf 263d 27a2 d43d 053f a23b a6f1 8b3d
000001b0: bc04 e13d f8e2 e13d a14b 16bc 91b3 0d3e
000001c0: f710 13be 6ac8 03bc cb8f e4bd a2c8 4cbe
000001d0: 5401 75bd ccf8 6dbe c172 a4bd 91ba 48be
000001e0: f0f3 31be 2e56 533d 41ab a43c 927d 523c
000001f0: 02d5 9cbe ccf2 9f3c 245e 57be bcc8 11be
00000200: afe3 6dbe 1346 77bd 555f 243e 3d59 4cbe
00000210: f43a 2a3e 00c4 b5bd 4d82 873e 9c88 a63d
00000220: 676f acbd 7033 d3bd 7f4c ad3d 39c1 5ebe
00000230: e331 2dbd 74d8 dc3d 4267 4cbc 9358 35be
00000240: f058 2dbd 475e ad3c b9f3 0bbe 6ee7 1abe
00000250: d73b b3bd 14a0 863e dd14 293e 8087 8e3d
00000260: b095 c2bd 1eb0 873e 0619 0dbe 14c7 2c3e
00000270: 4d90 57be 7a5e a23b 3932 37be 0585 86bd
00000280: fb5b 2cbe dcf6 9c3b d4c7 47be 2e6e a63d
00000290: 031a 1e3d f80e 0bbe bc3f 80be 80f0 20be
000002a0: c7bf 7dbd 4fbd 96bd 7329 8b3e df2f 0ebe
000002b0: 9ed5 723e 3186 e7bd 5e8a 55bd 7b37 373e
000002c0: fd89 88be 847d 173c 9259 ce3c eb16 25be
000002d0: 443d 8ebd 9898 043d 9712 a03d cdb2 d3bd
000002e0: e157 49ba 3932 cebc 0c85 7c3e 3689 0bbe
000002f0: ee07 df3d dcd0 80bd a673 56bd bde0 5dbe
00000300: c665 86be f899 f0ba b415 41bd 0bad b23c
00000310: 23ca 943e bbf9 cfbd ccce 42be 94e4 15be
00000320: 6b59 23be 2bf3 dd3d 0226 3fbe 0567 cfbd
00000330: bbae a8bd 8378 dabd 8230 78be 3095 c33d
00000340: 0d87 0d3e 0806 1cbe 4055 30be 9c31 823d
00000350: 9627 f8bd d200 22bd 3786 093d ac7b 91bd
00000360: b61b 4abe e2f0 713e c4a1 9dbd c512 2e3e
00000370: 62b6 503e 8d31 2a3e aacd 173e e672 113d
00000380: 34d3 3bbe c75f 34be 21c8 aebd 94d0 14be
00000390: 5087 93bc 1cc8 8bbd 96be 18be 4dc8 f03d
000003a0: 42e0 33bd 09f6 343e 098c 05bb 0fc2 b03d
000003b0: 4d84 5a3e 12fd e73d 6bb5 c33d a793 e43d
000003c0: 6989 60be 2a4c fabd 3a60 4abe 54b4 4e3d
000003d0: 3b9e d9bb e706 c93d 0a56 923e 6864 a6bd
000003e0: 4d58 053e 385c 583e 5a5f 83bd 2e8f 6dbe
000003f0: c9f0 39be 55d8 e0bd 514c 0fbe 7a5e cebd
0.2003523 0.11628907 -0.100303896 -0.06542602 -0.16998684 0.16458009 0.1438159 0.12693515
-0.19640197 -0.21025309 0.010227895 -0.21781994 -0.040415827 -0.22257662 -0.22525026 -0.14071862
0.09051739 -0.14736757 0.116693206 0.03464683 0.098345585 0.101484686 -0.10423322 0.023177203
-0.09909114 0.11480695 0.06636253 -0.21427245 -0.2770715 0.015518704 -0.17927581 0.01588392
-0.29889607 -0.03738149 -0.14087881 -0.19746342 -0.14203134 -0.07277995 0.053921737 -0.06554974
0.06900189 -0.048627336 -0.027515601 0.02184123 -0.10009961 -0.15526666 0.12946372 0.037067924
-0.010741143 0.34623688 0.15652214 -0.047268994 -0.14956509 -0.03756723 0.07138303 0.3225644
0.022937758 0.034670442 0.25595877 0.2693396 0.16632906 0.10114416 0.16649106 0.017970674
0.060264073 0.17006613 -0.14159182 0.32697585 0.27291238 -0.09929727 0.13322161 0.20489833
-0.0650795 -0.05361943 0.08216011 0.25645542 0.20070545 0.25760138 0.10987413 0.31396738
0.21777304 -0.033956144 0.017674599 -0.08014546 -0.05605495 0.21329913 0.2156051 -0.13814768
-0.08003964 0.12583679 -0.016814606 -0.055223417 0.19015013 0.08964647 0.13112065 -0.14273204
0.25494817 0.00082617585 -0.041777585 0.0056727408 -0.016829377 0.2717529 -0.011908619 0.033626232
0.04070982 0.103824906 0.00495136 0.068332 0.10987231 0.11029619 -0.009173305 0.1383803
-0.1436194 -0.008043388 -0.11160239 -0.1999841 -0.05981572 -0.2323944 -0.080297 -0.1960242
-0.17378211 0.05159586 0.020101191 0.012847321 -0.30631262 0.019524954 -0.21032006 -0.1423673
-0.23231386 -0.060369562 0.16051991 -0.19955917 0.16624051 -0.08875275 0.264666 0.08131525
-0.08419686 -0.10312545 0.08461856 -0.21753396 -0.042283904 0.10783473 -0.01247579 -0.1770957
-0.042321146 0.021163119 -0.13667192 -0.15127346 -0.08751648 0.26294005 0.16511865 0.06959438
-0.09501207 0.26501554 -0.13779077 0.16872817 -0.2105114 0.00495511 -0.17890252 -0.0656834
-0.16831963 0.00479017 -0.19509822 0.08126484 0.038599025 -0.13579929 -0.25048625 -0.15716743
-0.06195047 -0.073603265 0.2718006 -0.13885449 0.23714301 -0.11304892 -0.05213391 0.17892258
-0.26667777 0.009246234 0.025189195 -0.16122024 -0.06945279 0.032372087 0.07816046 -0.10336838
-0.00076806365 -0.025170432 0.24660128 -0.1362656 0.10890184 -0.06289837 -0.052356385 -0.21667762
-0.26249522 -0.0018356433 -0.04713984 0.021811029 0.29060468 -0.10155054 -0.19024199 -0.14637977
-0.15952079 0.10837396 -0.18666843 -0.10127071 -0.08236452 -0.10667517 -0.24237254 0.0954994
0.13821049 -0.15236676 -0.1722002 0.063571185 -0.121169254 -0.039551564 0.033575263 -0.07103667
-0.19737133 0.23627046 -0.0769687 0.16999348 0.20382074 0.16620465 0.14824548 0.035509966
-0.18342286 -0.17614661 -0.08534265 -0.14532691 -0.018008858 -0.06825277 -0.14916453 0.11756954
-0.04391504 0.1767198 -0.0020377657 0.08630764 0.21339531 0.11327566 0.09556087 0.11160975
-0.21927418 -0.122215584 -0.1976327 0.050464943 -0.006641177 0.0981577 0.28581268 -0.0812462
0.13021965 0.21128929 -0.06414671 -0.2319915 -0.18158258 -0.10978762 -0.13993956 -0.10076614

conv_out.bias f4 [32]
00000000: 02ec 053c 94f7 2d3d 9c11 993c bb98 77bc
00000010: 82fc 92bc af26 bb3c b480 5b3c 63b1 b13c
00000020: e204 9f3c c9e3 a8bc 9f2c 93bc 8b29 97bc
00000030: d317 6cbd dbac a1bc 58af c3bb 7eee 953c
00000040: 6dbe 8e3c add6 e7bb 6ac6 993c c951 8e3c
00000050: 3676 c13c db1c 943c 24db 8dbc 92e5 86bc
00000060: 6958 613c 7cb4 deba 65cc f53c 76ab 393c
00000070: 635c 763c 3856 893c afa2 91bc 8ac2 e93c
0.008173944 0.042472437 0.018685155 -0.015112097 -0.01794267 0.022845594 0.013397384 0.02169103
0.019411508 -0.020616429 -0.017965613 -0.018452426 -0.057639908 -0.019735744 -0.0059718303 0.018302198
0.017424786 -0.007075152 0.018771369 0.017372983 0.023615938 0.018080166 -0.017316408 -0.01646689
0.013753989 -0.0016991044 0.03000469 0.011332383 0.015036675 0.016764745 -0.017777769 0.028535146

conv_out.lin.weight f4 [32, 32]
00000000: 3f05 6fbe bded 953c c681 533e cdab 08be
00000010: ce1c 833d 16e2 51be 089f 8bbd 02ae 39bd
00000020: ed14 8d3e 3586 0ebe 19a2 86be 29eb 8f3e
00000030: 5861 e83d 738d 7a3d 15f2 5f3e 356a 6fbe
00000040: ab63 373e ba76 21be 3377 3fbe 9ac7 453e
00000050: a348 acbd 5b55 40bd 0afc 74bd dea2 71be
00000060: 00c9 7c3c 3289 f5bd 6041 3ebe a9a8 ddbd
00000070: db3a 8b3d 36a7 213e 1d46 d2bd bf47 8abd
00000080: 3883 dcbe fea2 173e 78c1 b9bd 118c 8f3e
00000090: 311e dd3e 1d8c 1e3e 2742 1fbe bdc9 abbe
000000a0: 977c b7be 501c 713d b1ea 2dbe 3a3b 8c3e
000000b0: f11a 373e 10e2 093e 28d0 b43c abb4 9fbe
000000c0: 7661 d73d a1cd e83c a806 b4be d54a 0c3c
000000d0: 30bc 343e 2184 883e 0a5d d33c 25b9 44bc
000000e0: 6f13 933e a607 07be f651 9d3b f8c5 09be
000000f0: b083 92be 4e5f f3bd 9a5e 72bc d7cc b8be
00000100: 7d0d 4abe 8ded 84be 16f2 99be 2464 ffbc
00000110: b649 edbd 81c7 e73d ea0c 633d 22c1 b6bc
00000120: 1658 8cbe 354d 983d 4822 283d 2ac0 1abe
00000130: 8c41 393e d8e7 07be 9f5f 843e 3464 e63d
00000140: 5bfa 15bd cb15 7dbc 9dae 9ebe 7386 4dbe
00000150: c9a0 ab3d 5c6c bc3d 013b 263c 6b65 5f3e
00000160: f9e2 0ebd f1af 47bd 4d27 afbe 204c 43bd
00000170: eb75 9a3d a8c1 94be ec81 26bd aa2c cf3d
00000180: 1e2f 813e 0cc2 3bbd c8a9 5e3e cbe9 c9bd
00000190: 2735 39be 2db9 4e3e 8411 523e 5f36 ee3d
000001a0: 06f3 5d3e a771 773e 0033 3a3d e893 9cbd
000001b0: 2398 47be bc0e 2fbe 6fce 483e c271 703e
000001c0: 9e71 9ebe 41b9 303e 2bfa 823e f8cd 7bbd
000001d0: 3fa2 08be 072e ed3d 61a8 72be 5711 833e
000001e0: 989d bd3d c8b7 24be be81 1bbe d697 6c3e
000001f0: 750b a8bc f22a 183d 0ac0 f63d 30ec 593d
00000200: 6ff7 3e3e 67bc 803e f1b9 563e b884 2e3e
00000210: f275 68bc 4841 58be 947a f9bc e7e8 70be
00000220: 815c 1abe dfab 9e3e 5f72 83bd e08b 8ebe
00000230: fd13 8abe 4840 d63d ffde cbbb 28d4 463e
00000240: ebb1 54be 1089 bb3d 316b e03c e2d3 443e
00000250: 05cb 75bb 327f 45be 56fc 013e c871 7a3e
00000260: 6e0e c53d 5f60 5e3e 0f51 b43e dd39 853d
00000270: 760e 813e a88d 4c3d 5a08 a33d b014 3fbe
00000280: 554d 4cbe 6796 0f3e f01a 583e 5b54 7c3e
00000290: ed34 453e 5b18 883e 2ae7 8abe b817 6dbe
000002a0: 25f7 92be 04e5 21be b0fd 303c db89 ab3e
000002b0: 98bd 563e 5cdc 933e 6575 7f3e 2742 96be
000002c0: 490d 08bc d9ee 0e3e 7e7a 6abe f959 153e
000002d0: 0511 82bd cf55 bf3e 8e46 ddbd 5d03 38be
000002e0: 597e b6bd d4af b1bd 237a 50be c208 a1be
000002f0: 9c40 9abe 9f30 1ebe 67a0 103e 42db 96be
00000300: d6e8 9abe 46ea 103e fd40 65be 2987 ab3c
00000310: ba41 d8bd 3a77 a8bd 3f60 1b3e c5a9 cabc
00000320: 8019 87be fe23 a03d 8544 fc3d a00e 1e3e
00000330: 2ee1 063e 831f 253e 67b9 863d 6429 4e3d
00000340: fd96 febd a5fa 823e 65a2 593d 49eb 2bbe
00000350: 5d8c 0c3e 23dc 7bbe b62f 96bb b3ab 433b
00000360: c023 b53c edd7 843e 3232 93bd 0e65 8abe
00000370: 2c49 66be 66bc 31be 8d6a e5bd d938 75be
00000380: 39c2 8b3c 059e 43bc 89a0 cb3d 681f bc3a
00000390: 7122 be3e a44f a83e 0c15 22be 5d4e 86be
000003a0: 99e5 10be ff51 9fbd 466e f5bd 1ab1 953e
000003b0: 7b1b 59be 74a4 61bd 872b 383c 978d a4bd
000003c0: 0de5 7bbe 0e4d c4bd ef93 213e 06d2 423e
000003d0: 7c01 a33d 06f6 d13d e70e 5abe 0046 803b
000003e0: cf9d 52be 3b82 9fbe 9c0d d33d 01af 293d
000003f0: c68b 9bbe 002b 823e ba0e 84be 0d55 81be
-0.23341845 0.018301839 0.20654973 -0.13346787 0.064019784 -0.20496401 -0.06817442 -0.045331962
0.27555028 -0.13918383 -0.26295546 0.281091 0.11346692 0.061170053 0.2186969 -0.23380359
0.17909114 -0.15767947 -0.18697815 0.19314423 -0.08412292 -0.0469564 -0.059810676 -0.23597285
0.0154287815 -0.119890586 -0.18579626 -0.10823185 0.06798335 0.15786442 -0.10267279 -0.06751966
-0.43068862 0.1480827 -0.09070104 0.2803655 0.43187097 0.15483136 -0.15552579 -0.33552352
-0.35837242 0.05886489 -0.16984059 0.27388936 0.17881371 0.13465142 0.022071913 -0.31192526
0.10516636 0.028418364 -0.35161328 0.008562763 0.17649913 0.26663306 0.0258012 -0.0120070325
0.28725764 -0.13186511 0.0048010303 -0.13454425 -0.28616095 -0.11883412 -0.014793063 -0.3609378
-0.19731708 -0.25962487 -0.3006751 -0.03117568 -0.11586325 0.11317349 0.055432238 -0.02230889
-0.27410954 0.07436601 0.04104832 -0.15112367 0.1809141 -0.13272035 0.25854203 0.11249581
-0.03661571 -0.01544709 -0.30992594 -0.2007082 0.08380277 0.092003554 0.010145904 0.21816032
-0.034884427 -0.048751775 -0.34209672 -0.04768002 0.07542022 -0.29053998 -0.040651247 0.10115941
0.2523126 -0.045839354 0.21744454 -0.098590456 -0.18086682 0.20187826 0.20514494 0.11631464
0.21674737 0.24164449 0.045458794 -0.076453984 -0.1949163 -0.17095464 0.19609998 0.23480895
-0.30946058 0.17258169 0.25581488 -0.061475724 -0.13343142 0.11581045 -0.23697044 0.25599167
0.09258574 -0.16085732 -0.15186211 0.23104796 -0.020513276 0.03715033 0.12048347 0.05320376
0.18649076 0.2514374 0.20969369 0.17042816 -0.014188277 -0.21118653 -0.030453958 -0.23526345
-0.1507435 0.30990502 -0.06418299 -0.2784109 -0.26968375 0.104614794 -0.0062216516 0.19416869
-0.20770995 0.09157002 0.027394863 0.19221452 -0.0037505042 -0.19286802 0.12693915 0.24457467
0.09621893 0.2171645 0.35218093 0.06505177 0.25206345 0.04993978 0.07960577 -0.18660235
-0.19951375 0.14022218 0.21104026 0.24641554 0.19258471 0.26581082 -0.2712949 -0.23153579
-0.2870418 -0.15810019 0.010802671 0.33503613 0.20970762 0.28879058 0.24947126 -0.29347345
-0.008303949 0.139583 -0.2289829 0.14585103 -0.063509025 0.37370154 -0.10804473 -0.17970033
-0.08910818 -0.08676115 -0.20359091 -0.31451994 -0.30127418 -0.15448235 0.14123689 -0.29464155
-0.30255765 0.14151868 -0.22388072 0.020938473 -0.10559411 -0.08225866 0.15173434 -0.024739156
-0.26386642 0.07819365 0.123177566 0.15435266 0.13171837 0.16125302 0.065783314 0.050332442
-0.124311425 0.25581852 0.053133387 -0.16788973 0.1372542 -0.24595694 -0.0045833243 0.002985698
0.022111773 0.25945988 -0.07187308 -0.27030224 -0.2248885 -0.17357025 -0.112019636 -0.23947467
0.017060386 -0.01193953 0.09942729 0.0014352622 0.37135652 0.3287326 -0.15828341 -0.2623166
-0.14150085 -0.077793114 -0.119839236 0.2923668 -0.21201889 -0.055088475 0.0112408465 -0.080348186
-0.24599095 -0.095850095 0.15779088 0.1902543 0.079592675 0.10252003 -0.21294747 0.0039145947
-0.20568012 -0.31154045 0.1030533 0.041426662 -0.30380076 0.2542343 -0.25792485 -0.252602

fc.weight f4 [1, 32]
00000000: 6661 33bc f10f e4bd 3bf8 cfbd 969c 833d
00000010: c641 013e a1a0 2fbe 5e2a 9abd 4d41 9abd
00000020: f6db 36be d439 7a3e 5da9 663e 0d7d 6a3e
00000030: 64e7 313d 0ce2 8d3e 13db b83c 491c 40be
00000040: 7e06 3fbe 916c b63c 2d1a b9bd 2e8d b7bd
00000050: 4cf1 c0bd 240f 74be e98a bf3c 92d8 303e
00000060: ab3c d3bd c11d d53b a2f7 eebd 962a 34bd
00000070: 1b4b 84bd 9ae3 34bd a316 3c3d 07f2 26be
-0.010948515 -0.11135853 -0.10154768 0.06426351 0.12622747 -0.17151119 -0.07527612 -0.075319864
-0.17857346 0.24436122 0.22525544 0.22899266 0.043433562 0.27711523 0.0225654 -0.1876079
-0.1865482 0.022268565 -0.09038196 -0.08962475 -0.09421024 -0.238339 0.023381667 0.17270115
-0.10314306 0.006503791 -0.11668326 -0.043985926 -0.06459638 -0.04416237 0.045920026 -0.16303264
