atropos/trained_model/nhot/answer/add/6/best_acc.pt (torch, 17938 bytes, 5 tensors)

conv1.bias f4 [32]
00000000: fdab 083d 4517 e7bd caa0 fc3d be4a 03ba
00000010: 71b9 b6bc a0cd 21bc 8195 343d 9c9b 053d
00000020: d5a0 823d 485a 553d c359 553d 59d1 8b3c
00000030: 7eea 133d 23b2 a9bb 4d0b a73c 2781 24bd
00000040: b52a b73c 7e37 84bb 303c b3bc 4b15 7bbc
00000050: f0dc d63c 652b 833d fda1 82bd 3676 eabc
00000060: 2882 cc3c cb78 d9bc f6c5 05bd 2e5f 12bb
00000070: 5830 173d d0f0 36bd de54 9fbd ab3f bdbc
0.033367146 -0.11283735 0.123353556 -0.0005008391 -0.022305222 -0.009875685 0.04408789 0.032619104
0.063783325 0.052088052 0.052087557 0.017067598 0.0361123 -0.0051787063 0.02039113 -0.04016223
0.022359231 -0.0040349355 -0.021879286 -0.015324901 0.026228398 0.06404761 -0.06378553 -0.02862082
0.024964407 -0.026546856 -0.032659493 -0.0022334564 0.03691134 -0.04466325 -0.07779859 -0.023101648

conv1.lin.weight f4 [32, 81]
00000000: 64b5 af3c e342 91bd 4517 783d 77dd 133e
00000010: e782 a2be f4ab a1bd 00b2 f3bc 8fa0 85bb
00000020: c049 a6be 96df 36bd f3e0 a5bc 1b34 5d3e
00000030: 8c63 c6bc 1e36 d4bd 947c 213e f067 11be
00000040: 7918 f1bd 1305 6ebe e0eb 5bbd aa04 5b3e
00000050: 93f2 afbd 6c6b 853e 5917 43bd 41fe 073e
00000060: 76d7 963e c5a9 42be 490c 9fbe 9f93 ecbd
00000070: 7bd8 943d db9f b5be 13a2 f3be fb5d 8ebd
00000080: 8974 cb3d 873e 2abe 42f5 99be ce2e d7bd
00000090: 6274 023d 9c6c 19be dc25 7a3d 6618 17bd
000000a0: 05ac 76be b507 8d3d 08b4 87be f83a 2c3e
000000b0: 3060 00be 3d55 183e 6b09 db3c ffef 0dbc
000000c0: 56da 903e ce2c 593e 4f12 d43d 34eb 30be
000000d0: fc66 97bd 1d4d 843c c688 063d 3496 7f3c
000000e0: 4ccd 5a3e c842 fe3c 5c19 4f3d db9e 10be
000000f0: 58ef 13be 219a 543d 467e 8b3e 57c0 373e
00000100: 2556 05be b821 343e 9c98 ca3d 3c86 47bd
00000110: 1501 0bbe e579 97bd 4cc9 043e d00f c83c
00000120: 03d0 b03d bbe4 933e eb6c 393e 43a3 b73d
00000130: c326 d3bd 290b 32be 335f 4f3e fed7 edbb
00000140: 60f3 0ebe 87be 523d 8091 9a3d 814e 4e3e
00000150: 93ce e73d e144 243c a0d0 043c 2f3e 89be
00000160: 8f74 49bb e9c0 7c3e 594d 063d 0588 483e
00000170: d002 653c f3d9 543d 9e6e 143d 5605 b8bd
00000180: cb0b c83d 7051 853d 3158 8ebd 7931 16bd
00000190: 8374 83bd 3c76 88be 8178 e5bd 650a 32bc
000001a0: ba3d d7bd 44c9 9dbc 06e7 9f3e 70b6 6c3c
000001b0: 286b ad3e c9d9 2cbe da6c 71be e90d 31bd
000001c0: c01e 653e 489e 973d ccef 573e 657a bebd
000001d0: 78a7 22be 8f89 5bbe 9209 48be 052f cc3d
000001e0: 367d 0c3e 751f 4abe aab5 983d ad67 7fbd
000001f0: 6808 cfbc 5357 fc39 39cb 3dba c180 cebd
00000200: a46c 163e f699 6f3c 3108 a6be 5a08 adbe
00000210: fa2e 94be dd82 acbe 230e 4abe 21ce 883d
00000220: 24c2 54be 8a09 7dbe dd53 92bd 0c1c cfbc
00000230: 0334 a5bc 66bb 72be 1ee8 1bbe fcb0 b83d
00000240: 11f6 60be 133c c8bc dfa8 d03d 4b5a 31be
00000250: ac10 0dbe 25d4 31bd 7ae1 b53c a28e 7c3c
00000260: 2e77 2c3e c6f8 f03d f764 f13d 3d3d 1a3e
00000270: c9f2 d8bd 0bbc 29be 4829 39bd 2bba 54be
00000280: 9d20 21be d743 183d e6b4 56bd d895 90be
00000290: 0370 a2bc a3c0 e6bd 9bd2 81bd b2c1 7d3d
000002a0: 4e09 7e3d 9507 9bbd 649a a7be 5402 5f3d
000002b0: 8512 3e3e 7171 8dbc 3396 2f3e 4b07 ef3d
000002c0: 685a 14be 75b5 0ebe 6104 40bd f854 2f3e
000002d0: 6f4a 073d a571 023e 6694 acbe 9535 adbc
000002e0: e8d1 92bd 9057 dbbd 456f 45be 86b9 8dbe
000002f0: 82c9 3bbd 58b3 7cbe 17a3 13be 7164 3fbe
00000300: b757 0fbe 56c1 24bd dae6 aabd 1965 693b
00000310: 5d72 5b3e 7532 98bc 199d 38be 8eb7 c2bd
00000320: 05f5 5fbe 9eac 95bd 320a 14bc b1d3 7abe
00000330: 522e 07be 3575 6e3c 33f5 d6bc 88ac 79bc
00000340: 2ff0 493e 4e47 04be d174 d33c ce72 9b3e
00000350: 7a65 8f3e 9d90 993e 4f1d 553e 7e12 8d3e
00000360: d994 143e 4b3a 5abd 4947 e4bd d47f ad3e
00000370: 7bf5 023d 6d20 9f3e 8236 0d3e 8442 fdbd
00000380: 8539 843d 5371 a23e 95fb 2f3e 4ac8 a33e
00000390: 4978 f4bd c16c 563e 48fc a43e 5bb0 003e
000003a0: 39ab aa3e 0c9b 903e 6837 21be 7895 1a3e
000003b0: 47d9 613e d2fa 5abd 83c9 3a3e ba12 833e
000003c0: da00 f73d 1acd 8ebd 3fc8 e6bd 9cab 13be
000003d0: 35ac 403e a245 543e 4a78 9a3d db33 e1bd
000003e0: abf9 88be 7d2f afbb ea4a 213e 6008 2f3e
000003f0: 5c08 40be 5987 803d 2d2e 05bb a949 9ebb
0.021448798 -0.07092836 0.060569067 0.14439951 -0.31740496 -0.078941256 -0.029747963 -0.004077978
-0.32478142 -0.044646822 -0.020248866 0.21601908 -0.02421739 -0.103618845 0.15770179 -0.14199805
-0.11772246 -0.23244123 -0.053691745 0.21388498 -0.08591189 0.2605852 -0.047629688 0.13280584
0.2946126 -0.19010074 -0.3106406 -0.11551594 0.07267853 -0.35473523 -0.4758459 -0.06951519
0.09934337 -0.16625415 -0.3006993 -0.10506974 0.031849273 -0.14982837 0.06107126 -0.036888503
-0.24089058 0.068862356 -0.2650454 0.1681937 -0.12536693 0.14876266 0.02673789 -0.008663177
0.28291577 0.21208498 0.103550546 -0.17277223 -0.073926896 0.016150052 0.03284528 0.015599776
0.21367377 0.031037703 0.050561294 -0.14123099 -0.14446771 0.0519048 0.27244776 0.17944466
-0.13021143 0.17590988 0.09892389 -0.048712 -0.13574632 -0.073962964 0.12967414 0.024421602
0.08633425 0.28885445 0.18107955 0.089666866 -0.103101276 -0.1738707 0.2025116 -0.0072584143
-0.13960028 0.051451232 0.07547283 0.20147134 0.11318698 0.010026188 0.008106381 -0.26805255
-0.003073964 0.24682964 0.03278861 0.19583137 0.013977721 0.051965665 0.036238305 -0.08985393
0.09767874 0.065096736 -0.06950415 -0.036668275 -0.06418707 -0.26652706 -0.11204625 -0.010866736
-0.1050982 -0.01926101 0.31230944 0.014447793 0.33870816 -0.16879953 -0.2357668 -0.043226156
0.22375011 0.07403237 0.21087569 -0.09300689 -0.15884197 -0.21439193 -0.19534901 0.09969906
0.13719639 -0.19738562 0.07456525 -0.062354732 -0.025272563 0.00048130247 -0.00072400604 -0.100831516
0.1468988 0.0146241095 -0.32428125 -0.33795434 -0.2894209 -0.3369359 -0.19731955 0.06679941
-0.20777184 -0.2471067 -0.07144902 -0.025281928 -0.020166403 -0.237043 -0.15225264 0.09018132
-0.21968867 -0.024442708 0.101884596 -0.173196 -0.13775891 -0.043415207 0.022202242 0.015414866
0.16842338 0.117662 0.11786836 0.15062423 -0.105931826 -0.16575639 -0.045205384 -0.20774142
-0.15735097 0.037174072 -0.052418612 -0.28239322 -0.019828802 -0.11267211 -0.06338998 0.0619523
0.062020592 -0.075698055 -0.32734978 0.05444558 0.18561752 -0.017266007 0.1714714 0.11671313
-0.14487612 -0.13936408 -0.046879176 0.17122257 0.03302997 0.12738664 -0.3370697 -0.021143714
-0.07168943 -0.107100606 -0.19280727 -0.27680606 -0.04584647 -0.24677789 -0.14417683 -0.18690659
-0.13998304 -0.040223442 -0.08344813 0.0035613237 0.21430345 -0.018578747 -0.18028678 -0.095076665
-0.21870811 -0.07308315 -0.009035634 -0.24494816 -0.13201264 0.0145543115 -0.026239967 -0.015238889
0.19720529 -0.12917826 0.025812538 0.30361027 0.28007108 0.29993144 0.20811962 0.2755317
0.14509906 -0.05327825 -0.11146409 0.33886588 0.03197239 0.31079426 0.13790324 -0.123662025
0.064562835 0.31727085 0.17185815 0.31988746 -0.11937005 0.20939924 0.32223725 0.12567274
0.33333758 0.2824329 -0.15743792 0.1509608 0.22055541 -0.053461857 0.18240933 0.25600225
0.12060709 -0.06972714 -0.11268663 -0.14420933 0.18815692 0.20729688 0.075424746 -0.10996219
-0.26752982 -0.005346237 0.15751234 0.17093039 -0.18753189 0.062758155 -0.0020321712 -0.0048305583

conv_out.bias f4 [32]
00000000: 2641 183d b3d6 1cbd 3973 183d 62e6 203d
00000010: b4b3 0bbd 761f 13bd af22 15bd af0a 1fbd
00000020: 881b 1f3d d996 14bd 45fd 1cbd ca21 15bd
00000030: 54f1 13bd a580 15bd 791c 1d3d b697 2e3d
00000040: 22f1 22bd cdfa 053d 9b48 26bd f0b1 17bd
00000050: 4623 24bd 2dd6 1abd 2eb6 18bd de38 2a3d
00000060: 01b4 1b3d 1ec4 11bd df4f 84bc 692e 1bbd
00000070: 7bec 183d 76a4 f63b d31e 1ebd 2293 2ebd
0.037171505 -0.03829069 0.03721926 0.03928221 -0.034106925 -0.035918675 -0.03641003 -0.038828548
0.038844615 -0.036276672 -0.038327474 -0.036409177 -0.03611882 -0.036499638 0.03835723 0.04262515
-0.039780743 0.032709885 -0.040596586 -0.03703493 -0.040072702 -0.03780191 -0.037283115 0.04155814
0.038013462 -0.035587423 -0.016151367 -0.037886057 0.0373349 0.0075269295 -0.038603615 -0.042620786

conv_out.lin.weight f4 [32, 32]
00000000: a93d 233d f70e 99be 1315 93bc 9bd8 7f3b
00000010: a94a 1c3e 910f 85be 9b7c f4bd 351f ab3e
00000020: bb0e 4cbe cc52 0cbd a11d 2fbe f72d b53d
00000030: 4c67 8fbd 202a 87be 6c3d 66bd 6e51 b23d
00000040: 7169 13bd f1ab 853e 61db 6bbe 01ac 5ebe
00000050: c27a d63c 4034 2e3d f90f db3d 7813 343e
00000060: addd 7d3e 893d 6c3e 29b4 0a3d e811 803e
00000070: 764a 743e ace8 c9bc c7e7 18bd 850c a7be
00000080: af22 c3be 1a13 643b d57f 253e 3986 983e
00000090: 286d 983d c5b9 513e 079c 9ebd 6d2a c1be
000000a0: 3728 88be 67d6 c13e afdf 53be 5c6d 40be
000000b0: ab1f 04be 712d 8f3e 94fc d0bb d775 833e
000000c0: a4a5 53be c311 173e 3d13 313b ab3c 463e
000000d0: 91e7 d5bb 21e9 14be d5fb ea3c 54f9 923e
000000e0: 855c e7bd 94a1 52be aa40 153e 057a 2abd
000000f0: 1a20 67be 0615 413e 22b1 2b3e f88a 9b3e
00000100: b254 b73e c8e2 14be 3312 32be b531 31be
00000110: 1238 503e 4dc0 213e b0b5 17be 6924 e93e
00000120: c201 30bd 1beb 003e 7513 9b3e 229d 143e
00000130: 49f3 013e 0c4e 49be 473f db3e 4919 02be
00000140: f167 233e 3cfc 08bd f5d6 8dbe 049a a9be
00000150: 6d47 c23c 3469 a5bc c472 47be 694c 60be
00000160: 3618 263e c6ed d4bd 023c 42bd 5bb6 dbbd
00000170: 2068 96bd 4268 09bb 0e6d 33be 90ad e3bd
00000180: a6db 833e c2f4 64be 7ac1 843e 7cc6 e6bd
00000190: 736d 37be 2692 36bd 53ca 4dbe ecdd 9f3e
000001a0: 1e7e 8f3e 1ba2 703d cad6 b03e aad1 87be
000001b0: ea87 fbbc c0bb 77be 8da2 3d3e 2823 8abe
000001c0: f0b1 ac3d ffb1 b13a c222 49be 5194 a5be
000001d0: e382 f5bd c60b ea3d 2851 0cbe 070b e13d
000001e0: f714 ab3c 085c 44be 75fd 523e b8c2 853e
000001f0: 2180 13bb 9adf 7ebe 7995 9dbd 436f 123d
00000200: ebae 9e3d 9822 b03c c5c7 723b fb74 dc3d
00000210: 1af9 8d3d fa4e fd3c 4955 b0be 4eef e2be
00000220: 8592 05be 097c d0bd a799 653d 2edb 953d
00000230: 51cd b03e ea7a 2fbe fe0a 083d e12f 7fbe
00000240: b0cf 043e 8422 91bd d0ea 14be 3d8f b13e
00000250: 2f58 92be a8bd 9abd e9ce e0bd 6cba 54be
00000260: 45a9 2ebe 7a58 083d 0650 25be 5b2f 64bb
00000270: 240d 82be 0414 0e3e e2ed cf3d c7c0 3ebe
00000280: 7d95 013e 5c9f a0bd eb48 503e b37a bd3e
00000290: 30cc 253e 3b85 703d 7c43 c83d 1ec8 64be
000002a0: 286c 973e 4705 d2bd c4be da3d 08e9 a73c
000002b0: b19f 833d f726 84be c6d6 6ebe e88b 0c3d
000002c0: b64a 0c3d 2525 76bd 7bad d63d a64c db3e
000002d0: c5c0 e03d 599a 823d 67c9 1abd faa6 97be
000002e0: 7291 5fbe 7a83 563e 0c17 1abe e443 31be
000002f0: 0891 6d3d 1738 bdbd b9b6 fa3d d489 a43e
00000300: 5d04 bdbe 59e6 af3b a871 57be 3539 bf3e
00000310: cbf3 42be cb55 61be c1ba 3abe 600f 33be
00000320: df58 07bd 491c 3d3e 3c9f 76be 8dc8 a2ba
00000330: 41cd 273e 0d21 ddbd ee40 90be b64e de3d
00000340: 77d4 013e 74f7 bbbd 00d6 06be 7f38 7d3e
00000350: a04d f0bd e1f2 b53c 84ff 05bc 0280 7f3e
00000360: 66b9 da3d 5fd8 ad3c 1d1c 61be 2c8f f0bd
00000370: 6a49 5bbe a730 223e 1ad9 8e3e 0c86 25be
00000380: 051f b7be 1bdb 81be 88de 803e 3214 433e
00000390: 9fcb e5bd 7818 05be ece0 82be 27f9 5bbe
000003a0: 68eb 333d 0680 213e 3d39 29be 2492 c2bd
000003b0: 7054 b63e 9069 763e 4234 5ebe cdf9 0cbe
000003c0: fca7 7e3e 9708 a4bc 0cc0 10be 0799 773d
000003d0: 17e2 97be 5c16 2a3e dc95 5e3e 066f f0bc
000003e0: 5172 94bd 6a59 ffbc 3d5c 33bd 83b4 38bd
000003f0: 5148 7cbe 06e8 ae3e efef 433e 020b cabc
0.039853726 -0.2989423 -0.017954385 0.003903902 0.15262856 -0.2598844 -0.11937829 0.33422247
-0.19927494 -0.03425865 -0.17101146 0.08846658 -0.07002124 -0.26399326 -0.05621092 0.08706938
-0.03598923 0.26107743 -0.23032905 -0.21745302 0.026181582 0.0425303 0.10696406 0.17585552
0.24791594 0.23070349 0.03386322 0.2501366 0.2385653 -0.02464708 -0.037330415 -0.3262674
-0.381124 0.0034801424 0.16162045 0.29789904 0.07442695 0.20481022 -0.077446036 -0.3772768
-0.26593181 0.37858889 -0.20690797 -0.18791717 -0.12902705 0.27964357 -0.006377766 0.25675842
-0.20668656 0.1475287 0.0027019524 0.1935908 -0.006527849 -0.14542057 0.028684536 0.28705847
-0.112969436 -0.2056945 0.14575449 -0.041620273 -0.2257084 0.18855676 0.1676679 0.30379462
0.35806805 -0.14539635 -0.17389755 -0.17304118 0.20333889 0.15796013 -0.14815402 0.4553559
-0.042970426 0.12589686 0.30288282 0.14513066 0.12690462 -0.19658679 0.42821714 -0.12704958
0.15957619 -0.033443674 -0.27703062 -0.33125317 0.0237157 -0.020191766 -0.19477373 -0.21904148
0.16220173 -0.10396914 -0.04742051 -0.10728141 -0.07344079 -0.0020966684 -0.1752207 -0.11117089
0.25753516 -0.22358993 0.2592886 -0.11268327 -0.17912845 -0.04457297 -0.20096712 0.31224
0.28025907 0.058748346 0.3453887 -0.26527148 -0.030704457 -0.24192715 0.1851904 -0.26979947
0.084323764 0.0013557075 -0.19642165 -0.3233972 -0.11987855 0.11428027 -0.13702834 0.109884314
0.02088402 -0.19175732 0.20604499 0.2612512 -0.002250679 -0.24889985 -0.07694525 0.03575064
0.07748207 0.02150087 0.0037045341 0.107645 0.06932278 0.030921448 -0.34440067 -0.443232
-0.13044174 -0.10179908 0.056054737 0.07317196 0.34531644 -0.17136732 0.033213608 -0.24920608
0.12969851 -0.070866615 -0.14542699 0.34679595 -0.28582904 -0.07555705 -0.10976965 -0.2077424
-0.17056759 0.033287503 -0.16143808 -0.0034818265 -0.2540065 0.13874823 0.101527944 -0.18628226
0.12654682 -0.078428954 0.20340316 0.37007675 0.16191173 0.05872081 0.097784966 -0.22341964
0.29574704 -0.10254913 0.10680917 0.02049686 0.06426943 -0.25810978 -0.23324117 0.034313112
0.034250937 -0.060094018 0.104823075 0.42831916 0.10974268 0.06377096 -0.03778973 -0.2961958
-0.21832827 0.20948592 -0.15047854 -0.17311054 0.05799964 -0.09239214 0.12241883 0.32136405
-0.3691739 0.0053680358 -0.2103945 0.37348333 -0.19038312 -0.22005384 -0.18235303 -0.17486334
-0.03304374 0.18467821 -0.2408418 -0.0012419388 0.16386892 -0.107973196 -0.28174537 0.10854857
0.12678705 -0.09178057 -0.13167572 0.24728583 -0.11733556 0.02221054 -0.008178595 0.24951175
0.10679893 0.021221338 -0.2198338 -0.11746058 -0.21414724 0.15838872 0.2790001 -0.16164416
-0.35765854 -0.25362477 0.25169778 0.19050673 -0.11220478 -0.12997615 -0.25562227 -0.21481763
0.043925673 0.15771493 -0.16525741 -0.0950053 0.35611296 0.24063706 -0.21699622 -0.13767166
0.24868768 -0.020023627 -0.1413576 0.060448673 -0.2966468 0.16610092 0.21736854 -0.029349815
-0.072483666 -0.031170566 -0.043789137 -0.045094024 -0.24636962 0.34161395 0.19134496 -0.024663452

fc.weight f4 [1, 32]
00000000: fb9b 3f3e 614c 69be 8cdc 5e3e c128 fb3d
00000010: 35f2 8ebd b642 9fbd 54e3 1ebe 7705 3ebe
00000020: 8f6a 213e 1a42 3abe 957b 69be ea86 29be
00000030: 33e2 9bbd b4ee 5fbe 114e 7f3e 3baf 153e
00000040: 67f1 5abe c42e 213d 437d 84bd 33c2 39be
00000050: afc9 80be 89a8 2abe 3a84 11be 0982 823d
00000060: db65 843e 6cd7 c1bd 7e03 a93c bc8b 20be
00000070: ce03 753e 035c 953d 63a6 1dbe 627c b8bd
0.18711846 -0.22783042 0.2176382 0.122636326 -0.06979791 -0.07776396 -0.15516406 -0.18556772
0.15763305 -0.18189278 -0.22801049 -0.16555372 -0.076115035 -0.21868402 0.24932124 0.14617626
-0.2138115 0.03935124 -0.06469204 -0.18140487 -0.25153872 -0.16665854 -0.14210597 0.063724585
0.2585896 -0.094649166 0.020631548 -0.15678304 0.23927233 0.072929405 -0.15395503 -0.09008099
