atropos/trained_model/onehot/answer/20/best_acc.pt (torch, 17170 bytes, 5 tensors)

conv1.bias f4 [32]
-0.0026976685 0.04031849 0.011765091 0.01821616 -0.0047440687 -0.013432603 -0.002008267 0.01130827
0.00887984 -0.027691642 -0.020303905 0.099134184 0.0060404004 0.027543427 -0.013028661 -0.0056214184
0.009505747 0.01549336 0.011713362 -0.043289382 -0.029452646 0.029229855 -0.0054407357 0.05758288
-0.030775758 0.017646547 -0.008141926 -0.0015564082 0.021316914 -0.032802463 -0.008543453 -0.0018534005
00000000: 5ecb 30bb 0025 253d 5ec2 403c 0e3a 953c
00000010: 2274 9bbb 6c14 5cbc 219d 03bb 5246 393c
00000020: c07c 113c 95d9 e2bc 6054 a6bc dd06 cb3d
00000030: 8dee c53b c1a2 e13c 2a76 55bc e033 b8bb
00000040: febd 1b3c ddd7 7d3c 67e9 3f3c 3550 31bd
00000050: ad46 f1bc 7373 ef3c 3348 b2bb 07dc 6b3d
00000060: 711d fcbc 7e8f 903c b665 05bc 6500 ccba
00000070: cfa0 ae3c e05b 06bd d7f9 0bbc cded f2ba

conv1.lin.weight f4 [32, 75]
-0.15249044 0.071018465 -0.136493 -0.23316589 0.21118762 -0.0906222 -0.045334145 0.074251264
0.115380585 0.31275705 -0.35586005 0.22711879 0.00026724604 -0.08558685 0.20028013 -0.21502946
0.19191232 0.06758742 0.21488251 0.20995584 -0.17264722 -0.18331058 -0.05678216 -0.086012036
-0.022719497 0.16791046 0.076053634 -0.12402023 -0.23355152 -0.008679251 0.13966212 -0.40609792
0.13483779 -0.10239445 -0.30302757 0.0016407646 0.06994548 0.028124684 -0.08751671 0.010214298
-0.007156847 0.0983402 -0.28279674 -0.029923942 -0.043166447 -0.001294674 0.0006970215 0.11223188
0.09596678 0.32967162 0.37921217 0.17261139 0.0694071 0.26256943 0.25984156 0.04225625
0.41143122 0.08155796 0.07780203 -0.13063358 -0.10753065 -0.12078451 -0.100483626 0.120793566
-0.12969263 -0.03231023 -0.124689475 -0.14339188 0.33018613 0.0947116 0.21101193 0.120415986
-0.2297433 0.27178293 0.11627913 -0.10962843 -0.26391378 -0.15362352 0.16568467 -0.07025033
0.18360889 -0.01339269 -0.019766126 0.21595201 -0.22439055 0.06583727 -0.17245793 0.1382228
-0.0065272045 0.051934972 -0.014286362 0.022037469 0.15113045 -0.09447581 -0.2297145 0.17362061
0.24475624 0.0031156908 0.15266812 -0.0028819586 0.14689617 -0.047577657 0.04477229 0.34409696
0.12198879 0.0738706 0.07936982 -0.14922263 0.002001264 0.1474021 0.29603192 0.2265835
0.14776397 -0.09237296 0.051112738 -0.06573477 0.16938895 0.02943192 -0.20364746 -0.1791825
0.09409509 -0.014434479 -0.15311387 -0.26129583 -0.08766737 -0.06836724 -0.008313441 -0.15716326
-0.20396973 -0.27549052 -0.2984911 -0.12523928 -0.28512868 0.056890756 0.14413397 -0.04058727
-0.1287251 -0.1463813 -0.11122522 0.1684069 -0.122903235 -0.17438665 -0.052009813 -0.093310274
-0.19752735 -0.055534013 -0.26904196 -0.20142007 -0.24356404 -0.11942566 0.13128552 0.172372
0.090355426 0.1515943 -0.3092752 0.097056895 -0.11531221 -0.16746558 -0.11877919 -0.35537532
-0.20702845 0.043995954 -0.04160364 -0.035935584 -0.20613042 0.26758754 -0.07976938 -0.13951765
0.000613972 -0.07052319 -0.018644659 -0.2087181 -0.11002533 0.122852474 0.12106699 -0.19085315
-0.01941622 -0.23104212 -0.30670705 -0.11929711 -0.32783002 0.05232305 0.041090026 0.02268443
0.05264649 -0.23694259 -0.2216208 0.079814255 -0.23530878 -0.20579985 0.12037311 -0.11275884
-0.09042806 0.11714796 -0.14722185 0.21081911 0.16162862 0.17820628 0.06104861 0.2985006
-0.025097068 0.43385828 0.2743167 0.35243714 0.38101596 0.32855225 -0.040185045 0.2291382
-0.020573923 0.043653246 -0.10279873 0.31788695 0.00799528 0.060594674 -0.18328792 0.03115941
0.18880534 -0.01602098 0.14964485 -0.07186396 0.011816747 -0.07567867 0.2760773 0.025247753
0.25946113 -0.07838747 -0.21615821 0.0097504975 0.14003453 -0.16487238 0.15173982 -0.010581918
0.15719377 -0.19515224 0.17441587 0.17874649 0.0023015542 0.027247934 0.21228127 0.062097784
-0.18372995 0.1850501 0.06987948 0.103366934 0.038742464 0.10267984 -0.022676406 -0.22762446
-0.080225386 0.060036052 -0.24195628 -0.09626712 0.040860005 -0.3314301 -0.10933379 -0.1565127
00000000: 7426 1cbe 2172 913d d2c4 0bbe 0ac3 6ebe
00000010: 9141 583e 2298 b9bd 4cb0 39bd 0c11 983d
00000020: a84c ec3d b121 a03e 4a33 b6be d491 683e
00000030: 281d 8c39 2948 afbd 3c16 4d3e af30 5cbe
00000040: aa84 443e 466b 8a3d 290a 5c3e aafe 563e
00000050: 6fca 30be c5b5 3bbe 6994 68bd 1427 b0bd
00000060: 3d1e babc b8f0 2b3e 02c2 9b3d 51fe fdbd
00000070: 2128 6fbe 6b33 0ebc 9603 0f3e 11ec cfbe
00000080: eb12 0a3e 2eb4 d1bd 6e26 9bbe ed0e d73a
00000090: 933f 8f3d bd65 e63c f63b b3bd df59 273c
000000a0: fc83 eabb 9666 c93d bcca 90be 0e23 f5bc
000000b0: 4dcf 30bd 0db2 a9ba 52b8 363a d4d9 e53d
000000c0: 3b8a c43d b8ca a83e 1928 c23e 0ac1 303e
000000d0: 4f25 8e3d 806f 863e f409 853e e414 2d3d
000000e0: 1da7 d23e dc07 a73d ac56 9f3d cfc4 05be
000000f0: 0839 dcbd df5d f7bd 5cca cdbd 9e62 f73d
00000100: 25ce 04be bb57 04bd 325d ffbd 52d5 12be
00000110: 280e a93e 28f8 c13d 8313 583e a89c f63d
00000120: d441 6bbe 2227 8b3e c123 ee3d df84 e0bd
00000130: b51f 87be 7c4f 1dbe 3ea9 293e 68df 8fbd
00000140: f803 3c3e 036d 5bbc 92ec a1bc 8622 5d3e
00000150: a3c6 65be b1d5 863d d098 30be 478a 0d3e
00000160: 29e2 d5bb c4b9 543d 5811 6abc ec87 b43c
00000170: f1c1 1a3e 897c c1bd 473a 6bbe 9ac9 313e
00000180: 61a1 7a3e 9e30 4c3b 0855 1c3e 3edf 3cbb
00000190: f36b 163e cae0 42bd 2663 373d 7a2d b03e
000001a0: 42d5 f93d 7849 973d a58c a23d d1cd 18be
000001b0: a327 033b 93f0 163e 7f91 973e 8105 683e
000001c0: 704f 173e 092e bdbd 975b 513d f39f 86bd
000001d0: 4c74 2d3e 361b f13c f688 50be 9e7b 37be
000001e0: edb4 c03d 987e 6cbc e2c9 1cbe 91c8 85be
000001f0: f38a b3bd 2004 8cbd 1935 08bc 68ef 20be
00000200: 71dd 50be 180d 8dbe d3d3 98be ba3e 00be
00000210: 63fc 91be 4806 693d db97 133e d63e 26bd
00000220: 83d0 03be fbe4 15be 0cca e3bd dc72 2c3e
00000230: b1b4 fbbd 6a92 32be 3e08 55bd 7519 bfbd
00000240: 9c44 4abe a277 63bd debf 89be 1041 4ebe
00000250: da68 79be 7195 f4bd b66f 063e 4982 303e
00000260: 440c b93d 893b 1b3e 5259 9ebe c4c5 c63d
00000270: cf28 ecbd 197c 2bbe 8142 f3bd c1f3 b5be
00000280: 44ff 53be 1a35 343d 9468 2abd 3131 13bd
00000290: da13 53be 3c01 893e 215e a3bd b7dd 0ebe
000002a0: f7f2 203a 766e 90bd afbc 98bc 33ba 55be
000002b0: f654 e1bd 149a fb3d f8f1 f73d 026f 43be
000002c0: c40e 9fbc 4e96 6cbe b508 9dbe 0b52 f4bd
000002d0: 56d9 a7be b250 563d 044e 283d b3d4 b93c
000002e0: d9a3 573d 14a1 72be 90f0 62be a875 a33d
000002f0: c9f4 70be 32bd 52be 2d86 f63d 1bee e6bd
00000300: 5932 b9bd 45eb ef3d 53c1 16be f7e0 573e
00000310: f981 253e b57b 363e 1b0e 7a3d 12d5 983e
00000320: 5e98 cdbc ac22 de3e 3d73 8c3e a472 b43e
00000330: 8614 c33e 0038 a83e 1399 24bd 34a3 6a3e
00000340: a58a a8bc bfcd 323d 2488 d2bd 14c2 a23e
00000350: a3fe 023c 1f32 783d d4af 3bbe 0542 ff3c
00000360: 3056 413e 6e3e 83bc 803c 193e 692d 93bd
00000370: 079b 413c 6bfd 9abd 015a 8d3e 60d4 ce3c
00000380: 17d8 843e 9c89 a0bd 9458 5dbe 8dc0 1f3c
00000390: 3665 0f3e 4ed4 28be af61 1b3e c85f 2dbc
000003a0: 67f7 203e fdd5 47be 139a 323e 5209 373e
000003b0: acd5 163b 0f37 df3c 4360 593e 3f5a 7e3d
000003c0: b423 3cbe c67d 3d3e f91c 8f3d 0bb2 d33d
000003d0: 6bb0 1e3d cf49 d23d dfc3 b9bc 6316 69be
000003e0: 354d a4bd 5de8 753d 63c3 77be b227 c5bd
000003f0: d25c 273d 35b1 a9be 65ea dfbd dd44 20be

conv_out.bias f4 [32]
-0.03870593 -0.034167513 0.03294835 -0.033629775 -0.03367222 -0.034771357 -0.039476797 -0.042890653
-0.043436613 -0.037329484 0.028613407 -0.0336705 -0.024186386 0.031201627 0.041488636 -0.026944846
0.032236204 -0.036201373 -0.034274712 0.03617859 0.031623315 -0.026446152 -0.03293865 0.033350382
0.04033974 -0.031404834 0.03299886 0.03979027 -0.03603165 0.03850722 -0.035527755 -0.046817835
00000000: 1c8a 1ebd 3cf3 0bbd d9f4 063d 60bf 09bd
00000010: e2eb 09bd 696c 0ebd 6cb2 21bd 1cae 2fbd
00000020: 97ea 31bd cde6 18bd aa66 ea3c 14ea 09bd
00000030: 8722 c6bc 8e9a ff3c fdef 293d 70bb dcbc
00000040: 1c0a 043d e447 14bd a463 0cbd 0030 143d
00000050: 7387 013d 9aa5 d8bc aeea 06bd 699a 083d
00000060: 493b 253d 5ba2 00bd d029 073d 1ffb 223d
00000070: ec95 13bd bfb9 1d3d 8d85 11bd 0fc4 3fbd

conv_out.lin.weight f4 [32, 32]
0.031059999 -0.084672466 -0.11999677 -0.21941513 0.0699532 0.054014605 0.22272061 -0.27011633
0.28952023 0.25829622 0.0106891 -0.36550772 0.17217928 -0.07153084 -0.1436733 -0.025808536
-0.33917093 -0.20173967 0.34090728 0.36706498 0.116327085 0.06367491 0.05570228 -0.14677149
-0.3333483 0.27573186 0.09343404 0.04042529 0.13086714 0.03404532 0.45584908 0.12680462
0.26358676 -0.118320934 0.28453505 0.3337501 0.24166168 -0.2633278 -0.16916789 0.03970532
0.30489305 0.27198243 0.079634815 -0.074600056 -0.20914236 -0.1486579 0.16553544 0.0071352036
0.16712417 0.13483661 0.12859644 -0.022343937 0.027046 -0.051449902 0.12245984 -0.23006424
-0.16180743 0.36139452 0.25539872 -0.022563355 0.25262585 0.12233298 -0.14961125 0.2867479
-0.012261232 -0.043071505 0.12669276 0.05240344 -0.13185385 0.20393898 -0.25331807 -0.07374392
0.0007691222 0.07984907 -0.27730978 0.11211718 -0.32054117 -0.019196417 -0.16602878 -0.12229152
-0.17795265 0.15346123 -0.23715957 -0.16491254 -0.09923856 -0.1230172 0.036485467 -0.21490352
0.06116046 -0.02947706 -0.21854794 -0.34253344 -0.268213 0.22847533 0.11709449 0.11928512
0.31783527 -0.08537497 -0.09653985 -0.11608243 -0.034344733 0.10980268 0.24685375 -0.26181206
-0.10753137 0.10311336 -0.09717454 -0.1811172 0.23634622 -0.08150509 0.07016258 -0.14738809
0.022642273 0.17608042 0.23008633 0.17027096 0.114122905 -0.008209186 -0.021364218 -0.06851775
-0.2375473 -0.09811383 -0.010446351 0.37422916 0.13681544 0.22340605 0.13618505 0.20342964
0.018379752 0.01472993 -0.09422794 0.16220956 0.1379571 0.194563 -0.1046589 0.09584206
-0.116452344 -0.27045098 -0.067280665 -0.23225346 0.16505599 -0.3235167 -0.16306522 0.059599772
0.10099109 -0.25613287 0.19967541 0.23255505 -0.0772153 0.1948524 0.37370613 -0.0822417
0.22942665 0.15947527 0.24674097 0.20505235 0.2965329 0.008525244 0.42293125 0.2612672
0.056422643 0.1368852 -0.109436214 -0.09854112 0.2617528 -0.0381263 0.25361046 -0.025571594
-0.17475249 -0.09688283 0.34014195 -0.27951786 0.11194936 -0.3263581 0.2638826 0.30898848
-0.19569065 0.17477351 0.3938723 -0.15853369 0.35467348 0.3507021 0.34522882 -0.13802451
0.17318371 -0.1755555 0.15268221 0.27264473 -0.04365167 -0.21283074 0.08311799 0.33562475
-0.13163358 -0.19077018 0.28292572 0.19903424 0.29065475 0.18285275 0.24646372 0.04297925
0.300202 0.17051154 0.32401738 -0.08505913 -0.091951825 -0.1494188 -0.14600766 0.2908245
-0.43317878 0.12999329 0.0676523 0.2499529 0.28232387 0.39976364 0.2237377 -0.37814972
-0.27350888 0.062822886 -0.08840358 -0.10679062 0.30767664 0.17787237 0.3538203 0.36888492
0.0035573868 0.19469862 -0.064007424 -0.11191527 0.018081551 -0.28519174 0.0042748717 -0.3624394
0.16985339 -0.23263222 0.1408675 -0.3442168 0.12481587 0.12385901 0.036980033 0.18247561
-0.16389331 -0.055543665 0.2868283 0.17041874 -0.18288347 -0.16619049 -0.12908612 -0.11548611
0.13899606 0.16141495 0.34502557 0.043097377 0.41050085 -0.17094764 0.34480396 0.32666802
00000000: 8a71 fe3c c268 adbd dec0 f5bd 5cae 60be
00000010: a043 8f3d 6b3e 5d3d df10 643e b04c 8abe
00000020: ff3b 943e 673f 843e 5621 2f3c d423 bbbe
00000030: c44f 303e c37e 92bd 181f 13be 6c6c d3bc
00000040: d0a7 adbe d894 4ebe 668b ae3e f1ef bb3e
00000050: e53c ee3d fe67 823d 1328 643d 444b 16be
00000060: a1ac aabe ba2c 8d3e 595a bf3d fd94 253d
00000070: 0902 063e 1b73 0b3d 0d65 e93e 12d9 013e
00000080: d8f4 863e 3f52 f2bd 94ae 913e 4be1 aa3e
00000090: 2976 773e e7d2 86be 593a 2dbe 0ca2 223d
000000a0: f11a 9c3e 4841 8b3e 9417 a33d eac7 98bd
000000b0: 6a29 56be c739 18be 1f82 293e 6dce e93b
000000c0: 9922 2b3e 9c12 0a3e c9ae 033e a20a b7bc
000000d0: 938f dd3c 22bd 52bd 39cc fa3d f695 6bbe
000000e0: d9b0 25be b408 b93e 9fc3 823e c9d6 b8bc
000000f0: 2d58 813e b789 fa3d b133 19be 9fd0 923e
00000100: 56e3 48bc bf6b 30bd bfbb 013e fda4 563d
00000110: b204 07be 61d5 503e e8b2 81be 0d07 97bd
00000120: eb9e 493a e987 a33d 8cfb 8dbe b19d e53d
00000130: f91d a4be ce41 9dbc 7303 2abe fa73 fabd
00000140: 3839 36be f124 1d3e f5d9 72be d5de 28be
00000150: 963d cbbd 71f0 fbbd c971 153d ab0f 5cbe
00000160: 6483 7a3d e079 f1bc 08cb 5fbe 8b60 afbe
00000170: 3753 89be 70f5 693e 3ccf ef3d c24b f43d
00000180: 4ebb a23e 13d9 aebd afb6 c5bd a0bc edbd
00000190: 10ad 0cbd 3ae0 e03d 3bc7 7c3e 3b0c 86be
000001a0: 6839 dcbd 192d d33d 7203 c7bd ca76 39be
000001b0: be04 723e 24ec a6bd 66b1 8f3d e7ec 16be
000001c0: 4a7c b93c 6d4e 343e c09b 6b3e 835b 2e3e
000001d0: 45b9 e93d d27f 06bc 0304 afbc 0953 8cbd
000001e0: 993f 73be e7ef c8bd 2c27 2bbc f79a bf3e
000001f0: 5919 0c3e 8ec4 643e 1874 0b3e dc4f 503e
00000200: 2291 963c ce55 713c 94fa c0bd 431a 263e
00000210: a044 0d3e 863b 473e 6857 d6bd d848 c43d
00000220: 917e eebd 8d78 8abe 72ca 89bd dad3 6dbe
00000230: 7004 293e fba3 a5be 92fa 26be e41e 743d
00000240: 6bd4 ce3d d923 83be b677 4c3e e922 6e3e
00000250: 0e23 9ebd 6387 473e 6956 bf3e 566e a8bd
00000260: d2ee 6a3e 7c4d 233e aaa9 7c3e 3ef9 513e
00000270: 29d3 973e 77ad 0b3c 728a d83e d0c4 853e
00000280: 6e1b 673d a22b 0c3e 1820 e0bd edcf c9bd
00000290: 7704 863e 532a 1cbd 3bd9 813e 857b d1bc
000002a0: 51f2 32be 816a c6bd 1627 ae3e f71c 8fbe
000002b0: b545 e53d 6918 a7be 9f1b 873e bd33 9e3e
000002c0: 2163 48be d4f7 323e a1a9 c93e a856 22be
000002d0: c397 b53e 3a8f b33e d5c1 b03e 4c56 0dbe
000002e0: 1257 313e d2c4 33be ba58 1c3e 1798 8b3e
000002f0: 18cc 32bd 4df0 59be c439 aa3d 02d7 ab3e
00000300: f4ca 06be 4259 43be a4db 903e a2cf 4b3e
00000310: b3d0 943e c03d 3b3e fc60 7c3e 030b 303d
00000320: 14b4 993e 949a 2e3e 9be5 a53e 7b33 aebd
00000330: 3d51 bcbd 3e01 19be 0883 15be f3e6 943e
00000340: 9cc9 ddbe f61c 053e 4a8d 8a3d a7f3 7f3e
00000350: c18c 903e d2ad cc3e 7f1b 653e d79c c1be
00000360: 5b09 8cbe 49a9 803d f00c b5bd 0ab5 dabd
00000370: cb87 9d3e 2d24 363e ef27 b53e 7cde bc3e
00000380: 0c23 693b 135f 473e 5316 83bd d533 e5bd
00000390: c31f 943c a704 92be 3914 8c3b a891 b9be
000003a0: 0cee 2d3e 2437 6ebe 923f 103e 2f3d b0be
000003b0: 769f ff3d cba9 fd3d 6078 173d e3da 3a3e
000003c0: a6d3 27be c181 63bd 29db 923e 4082 2e3e
000003d0: ce45 3bbe d72d 2abe 272f 04be fb83 ecbd
000003e0: fc54 0e3e f649 253e 31a7 b03e e086 303d
000003f0: 2b2d d23e e60c 2fbe 258a b03e 0841 a73e

fc.weight f4 [1, 32]
0.2455799 0.20784728 -0.114835225 0.24630456 0.24193913 0.28954694 0.157167 0.093740776
0.1366703 0.27529123 -0.13736528 0.15813854 0.06702001 -0.16897568 -0.2009746 0.06940266
-0.22121306 0.24108371 0.20452653 -0.25828767 -0.2033485 0.103378035 0.1254864 -0.22243899
-0.21113682 0.21850045 -0.20015298 -0.20834087 0.2478406 -0.14868827 0.27530444 0.10872641
00000000: 4c79 7b3e ebd5 543e bb2e ebbd 4337 7c3e
00000010: e4be 773e 7f3f 943e 63f0 203e 2afb bf3d
00000020: 4df3 0b3e f9f2 8c3e 7ca9 0cbe 12ef 213e
00000030: c941 893d f607 2dbe 49cc 4dbe fb22 8e3d
00000040: ad85 62be a6de 763e 676f 513e 483e 84be
00000050: 973a 50be ddb7 d33d 827f 003e 0cc7 63be
00000060: 4034 58be 95be 5f3e e7f4 4cbe 4f57 55be
00000070: edc9 7d3e bd41 18be b4f4 8c3e f4ab de3d
