atropos/trained_model/nhot/answer/not_add/7/best_acc.pt (torch, 17938 bytes, 5 tensors)

conv1.bias f4 [32]
00000000: e691 9b3c c6b9 343c 7916 30bc acdc 82bc
00000010: 538e 89bc 75b6 1b3d 1f81 2e3d 532e b8bb
00000020: ed1e e13b 5cbf 803b f0b9 b7bb 59bf 32bd
00000030: b9f3 c33c d449 663d 565f f539 5937 833c
00000040: b928 f2bc f5a8 5d3d 6a87 3cbc b660 853c
00000050: 07be 093d f9f2 99bc 74d5 143d 7117 033d
00000060: dd55 523c 8055 8eba 0904 463d 0614 283d
00000070: 4eb5 123d ad22 b7bb 4f09 0e3c 548c 09bd
0.018990468 0.01103062 -0.010747545 -0.015974365 -0.016791498 0.0380158 0.04260361 -0.0056207567
0.0068701417 0.003929062 -0.0056068823 -0.043639515 0.023919927 0.05622275 0.00046801072 0.016017603
-0.029560434 0.054116208 -0.011506895 0.016281467 0.03362849 -0.018792616 0.036336377 0.032004777
0.012837854 -0.0010859221 0.048343692 0.04103472 0.035817437 -0.0055888505 0.0086692115 -0.033581093

conv1.lin.weight f4 [32, 81]
00000000: 0a16 9d3d c54a 8f3d 9724 adbd c498 4abe
00000010: 7528 023e 5f8b 02be 8cd4 363e fdce babd
00000020: 21f1 e4bd 9820 68be 1a8f d63c 72bd 24bd
00000030: 35e0 173e c263 213e 6868 823c 9de7 2b3e
00000040: a0b1 513e 7ff2 5fbc 0438 3bbe 28fb 7c3e
00000050: 4591 813d 5dc3 66bc 94ab 213d fee1 c2bd
00000060: 078e 2a3d 6811 2abd f7b6 443e 08ab c93d
00000070: 845e e4bd 7ee3 543d 6ad4 a33c 26f7 f73d
00000080: 420a 703e ef62 103d f38f 373e a679 9cbd
00000090: 92e0 19be c32d 1f3e 7f51 eabd 05a3 523e
000000a0: 5ee5 a73e 137e d3bd 4c60 473e 8dd4 82ba
000000b0: fc2f 2fbe 7376 113e 0883 b73d 5ebd a93d
000000c0: c606 453e 4a3a 80be a522 1a3e e0fd d3bc
000000d0: a652 76be c787 bb3d 438f c43c 8e11 a7bd
000000e0: f81c 65be ff9d cbbc 0552 5cbd 2a8b ae3d
000000f0: 1631 1d3e 35ef 2f3e 39ca dd3b 6834 003a
00000100: dfc1 b7bd 71ac 53bd 99ee 4b3c 10c7 2c3e
00000110: d7fa 0abe 3c6c 33be c0e2 6a3d b242 c4bd
00000120: 0731 773d b618 823d 23c4 27be 1dc3 1e3d
00000130: a251 37bc 11a6 a73d 7ea9 11be 213f 363d
00000140: 9d7f 3c3e e5dd 093c f456 58be 2e07 09be
00000150: 65f1 7fbd 8f1e 4d3e d083 113e 6582 583e
00000160: 9f21 ecbb b2d5 3fbe be10 24bc 3904 0dbe
00000170: dcd9 133e c183 913c d30d 0ebe 1f55 d3bd
00000180: 72c2 acbd 84d6 f73d 35e7 5e3e 766b 013d
00000190: 85dc 723d 0d94 90be 8cfd 043d 6bb2 593e
000001a0: 92f9 093e 9d78 88bc 4574 74be d40a 1bbe
000001b0: 4a09 debb 58db dc3d f442 3c3e b73a 39bd
000001c0: 3b96 49be c9b4 713d 4f10 35be 5caf 613c
000001d0: 9224 9cbd 6220 77be 0be9 19be c0a4 923d
000001e0: 857e 0a3e e6d6 86be b0e9 dc3d 83e9 40be
000001f0: d12b 59be dcb2 283e 0889 50be 7d05 ddbd
00000200: 54e1 c93d 7a14 1a3e 6721 e8bd 7eb8 2e3e
00000210: 384d dd3c c143 503d 0244 e13d 12d5 8b3d
00000220: 2d71 873d d244 27be 4aae d4b9 2692 0c3e
00000230: 5f0c 743e 6e67 a4bd b01e 483e b07b 263e
00000240: bcce f23d 3a2b 143d 39ea 88bd b454 29be
00000250: 3cd1 3dbe eaa4 493d e8b7 c33c 5e39 583e
00000260: 4a91 193e e32d 2abd a724 ed3c 0b6c afbd
00000270: 445d 45be 6df0 9dbd 3a8f 0f3e c58c 893e
00000280: 914c a5bd 8846 a7bd e272 cfbd 30a8 47be
00000290: 2f80 0cbd 675f e53d 174c 203d d5d0 b53d
000002a0: 4023 dabc 9f19 eabd a49b 20be 19b8 2bbe
000002b0: e315 fa3d 4949 00be 51ce 80bd 69a4 0dbd
000002c0: 5c42 b7bd bd96 f13d 1e0e 04bb 2f74 fa3d
000002d0: 801f 353e 0e1c 363e 1d2a 7c3e cc25 0fbd
000002e0: c246 8ebd 1086 7d3e 1ff4 493e c228 903e
000002f0: 95a4 4ebc 158b c13d 1a9a 2fbe 130a cebd
00000300: 1a31 32be 5f1c 833e c383 093e de80 713d
00000310: 1f66 023e cf2b 643e 3ee7 4cbe 891d 283e
00000320: aa15 24be 99d0 a2bd a8fc c53c 96f2 283e
00000330: 4690 2b3e 22b0 453d fe50 e8bd a823 683e
00000340: 8135 91bc 24a8 66bc 038d 073e 73e2 e03d
00000350: 474c 1c3e 8ce3 ee3c 6b8d 2dbd b506 033e
00000360: 95f3 52be 9c6b c8bd cb7c d0bd e7c9 5c3d
00000370: 414d 8bbe 1ea7 82bc 92f6 0d3e af76 37be
00000380: d649 0f3e 1076 3ebe 8b70 70bd e94f 143e
00000390: 022b d8bd d722 4dbe 90d9 04bd 9f78 1d3e
000003a0: 7c41 043e b530 473d f54b 3dbc 87fe babd
000003b0: de3c 8abe bbc2 b33d 7e6f 5fbd 7589 1abe
000003c0: 2fdf 273e 67df 0bbe 3905 4d3d d179 243e
000003d0: 9bc0 fe3a 7767 703d 9b57 83bd b413 a2bd
000003e0: f620 32be 906d 2e3e b5fd 373e 5fa2 7c3d
000003f0: 7b0c d63d 1eb4 543e eb3c 8b3d 35e0 003d
0.07670219 0.06996683 -0.084542446 -0.19784838 0.12710746 -0.12748478 0.17854518 -0.09121511
-0.11178804 -0.22668684 0.026191283 -0.04021973 0.14831622 0.15760711 0.015918925 0.16787572
0.20477915 -0.013668655 -0.18283087 0.24705184 0.06326536 -0.014084664 0.03947027 -0.09515761
0.041639354 -0.041520506 0.1921042 0.09847075 -0.1115084 0.051974766 0.019998748 0.12107687
0.23441413 0.0352506 0.17926006 -0.0764039 -0.15027073 0.155448 -0.114413254 0.2057
0.3279218 -0.10326781 0.19470328 -0.0009981558 -0.17108148 0.14205341 0.08960539 0.08288072
0.19240865 -0.2504447 0.15052278 -0.025877893 -0.24054965 0.09156757 0.023994094 -0.08157645
-0.22374332 -0.024855612 -0.053789157 0.08522637 0.15350756 0.17181094 0.0067684916 0.00048906216
-0.08972525 -0.051678125 0.012447023 0.16872811 -0.1357225 -0.17521757 0.057345152 -0.095830336
0.06034949 0.063523695 -0.16383414 0.038760293 -0.011188896 0.081859715 -0.14224812 0.0444938
0.18408056 0.00841472 -0.2112692 -0.13381645 -0.06248607 0.20031188 0.14210439 0.21143492
-0.0072061564 -0.18733862 -0.010013757 -0.13771142 0.14438576 0.01776302 -0.13872461 -0.1031897
-0.08435525 0.121014625 0.21767886 0.031596623 0.059292335 -0.28237954 0.032468364 0.21259467
0.1347411 -0.016659075 -0.23872478 -0.1514085 -0.0067760097 0.10784024 0.18384916 -0.04522201
-0.19686215 0.0590103 -0.17682002 0.013774719 -0.07624163 -0.24133447 -0.15030305 0.0716033
0.13524826 -0.2633583 0.1078676 -0.18839078 -0.21208121 0.1647448 -0.20364773 -0.107920624
0.09857431 0.15046874 -0.11334496 0.17062566 0.02701436 0.050845865 0.109992996 0.06827749
0.066133834 -0.16334847 -0.00040565646 0.13727626 0.23832844 -0.0802754 0.19542956 0.1625812
0.11855838 0.036174037 -0.066852994 -0.16536218 -0.18536848 0.04922954 0.023891404 0.21115634
0.1499683 -0.041547667 0.028948141 -0.085655294 -0.1927386 -0.07711873 0.1401948 0.2686521
-0.080712445 -0.0816775 -0.10129334 -0.19497752 -0.034301933 0.11199837 0.039135065 0.08877722
-0.026628137 -0.11430668 -0.15684372 -0.16769446 0.12211206 -0.12527956 -0.06289352 -0.034580622
-0.08948204 0.11796329 -0.0020150016 0.122291915 0.17687798 0.1778414 0.2462544 -0.034948155
-0.0694709 0.24758172 0.19722031 0.28156096 -0.012612482 0.09450356 -0.17148629 -0.10060515
-0.17401543 0.25607583 0.1342917 0.058960788 0.12734269 0.22282337 -0.20010087 0.16417517
-0.16023889 -0.07949943 0.024168327 0.16498789 0.16754255 0.048263676 -0.11343573 0.22669852
-0.017725708 -0.014078174 0.13237385 0.10980692 0.15263472 0.029161237 -0.042371195 0.12795527
-0.20600732 -0.0978615 -0.10180052 0.053903487 -0.27207378 -0.015948828 0.1386359 -0.17916368
0.1399301 -0.18599725 -0.05870108 0.14483608 -0.10555078 -0.20032822 -0.032434046 0.15378045
0.12915605 0.048630435 -0.011553754 -0.091305785 -0.26999563 0.08777376 -0.054549687 -0.15091498
0.16393732 -0.1365944 0.05005381 0.16062094 0.0019436063 0.05869242 -0.06413194 -0.07913914
-0.17395386 0.17033982 0.17967875 0.061678287 0.10451599 0.20771834 0.067987286 0.03146382

conv_out.bias f4 [32]
00000000: dc44 843b c3d8 b9bb 503d 533b 4d66 e73b
00000010: e93b aabb 176b 9b3b 6525 afbb ba7d b43b
00000020: bd39 a4bc 19fa 96bb 9d95 9bbb e4ed 94bb
00000030: 9489 323b 1fa8 0bba 11e2 803a c09a 443b
00000040: 1e7f a4bb 2a2c 55bb 5ead 943b 1dd4 a83b
00000050: b1d2 27bb b4c7 8bbb b55f f7ba ab46 a93b
00000060: ff77 95bb 8a65 b53b 9aff 49bb 508f 1fbc
00000070: 7d9c 963b a755 8c3b 23d9 eebb 3478 80bb
0.004036529 -0.005671592 0.003223259 0.0070617558 -0.00519513 0.0047429907 -0.005345034 0.005508152
-0.020047063 -0.0046074507 -0.00474806 -0.0045449603 0.0027242647 -0.0005327481 0.0009832998 0.0029999465
-0.0050200364 -0.0032527545 0.0045372685 0.005152239 -0.002560776 -0.00426575 -0.0018873127 0.005165895
-0.004561424 0.005535786 -0.0030822516 -0.009738758 0.0045962916 0.0042826715 -0.0072890683 -0.0039205793

conv_out.lin.weight f4 [32, 32]
00000000: 4f5d 273e dc3b 0f3e 700f 85be 4608 1c3e
00000010: 6745 43be 81cf 063d cf9b 9fbe 35d2 093d
00000020: 2fa0 773e c2a3 2b3e 4e10 87bc c3b5 2b3e
00000030: bdab d43d b9cd 1b3e 8b8b f83c d7b5 aabe
00000040: c313 1cbe 784e 6dbe 3182 0cbd 5113 5abc
00000050: 4ec1 78bd 297c fdbd d753 88be e092 48bd
00000060: 7f2b 3e3e 8d69 e3bd 5e45 1bbd 9353 283e
00000070: d181 f73d 9eef 4a3e 7cc5 4bbe e3a2 233e
00000080: d5f8 e3bd 83c8 0fbe f237 1fbe 6eea 4e3e
00000090: 41d8 093e 9846 26be 1a57 38be c41b 31be
000000a0: 9db3 ecbd c72b 78bc f954 d23d d46d 51bd
000000b0: 3302 4bbe 7d71 c7be 653e 0f3e 629f bb3d
000000c0: 1685 a2be adcd e3bc 9fdd 36be 7ec7 483e
000000d0: caab a33d e5b1 003e 2712 b63e bc16 c63d
000000e0: 3982 8c3e 8ce7 35be 8f24 2bbd 488c 5b3e
000000f0: 0ed1 263e 9c55 143e 66c0 41be c6ee 8fbc
00000100: 89aa 1d3e 05be 09be 44e4 673e adfc 40be
00000110: 9a43 cc3d e2e6 0fbe 6fd5 36be 2609 733e
00000120: 208e ad3d 3c47 5a3d 583d 4cbe 84dd 27be
00000130: 27c5 5dbd e01d 70bc 15e6 093e 080a 52be
00000140: 9aab 8f3d 07ba fdbd 6f51 6bbe 1bd3 cd3d
00000150: 381c 92be fa8f 26be 1245 a03d 6bae 3cbd
00000160: c3fd d13d a23e 45be 8caf 0dbe 6a36 b1be
00000170: e5f2 a03d 6441 69be c119 763d 0f26 893e
00000180: 91c1 8f3e 48ea 143e 846d bf3d 3ff6 d3bd
00000190: b358 673e 4fa6 fbbd 6a58 983d fe90 d33d
000001a0: 25fc 613e 82d7 80bd 14e5 16be fe43 c1bd
000001b0: 92b0 4abe 97a2 30be 1c65 9dbe 64e6 e0bd
000001c0: 9984 653e 581c b5be a1af 343e 5a1e 5abe
000001d0: b03f b6be d580 78be 467b 12be 170a e93b
000001e0: 3274 113e cb62 803e de44 c4bd 2dd4 0cbe
000001f0: 18fe ba3e a553 a43d 308a 6a3d d7be 8cbb
00000200: 6055 0bbe e892 59bd 1e5f 513e 8a23 273e
00000210: 0c00 1b3e 3e66 bb3c 9f5e a63d d220 77be
00000220: bcc7 8cbd d830 afbe c0f3 483d 8ef7 60bd
00000230: ba05 693d 834d abbe 2931 413d 1f81 3a3e
00000240: 7f30 b53b 9d26 333e a302 603e 16eb 59be
00000250: fbe2 a13e 1a0e 393e f515 583e d527 25bd
00000260: 53dc 133d 314a b6be fed1 793d e711 ffbd
00000270: d709 993c 51f4 893d 7071 1e3e dbc0 6cbe
00000280: bde0 283e 693a 12be 10c6 a33e 6394 8fbc
00000290: 737e ccbd e06e c93c a4ad f5bd 31b4 9c3e
000002a0: 6efd 85be d4df 70be 93ef df3d 89ee fb3d
000002b0: 3c8e 0b3e 0660 4e3d 92b9 5dbe 2007 37be
000002c0: caf8 3ebe 05e7 313e 0df8 e63d b9de 753e
000002d0: 2f46 5e3e c4a9 233e fbf8 3e3d 807a 16bc
000002e0: 28e2 4fbe 8a4c df3d df9a cfbd b0a7 7f3d
000002f0: b131 223d 9734 923e 49ff 013c 2c56 9fbe
00000300: 2151 98be e8a7 da3d ae87 553e aeb0 4ebd
00000310: 4d8a f3bd 3218 71bd 55c1 833e 7a8d 55be
00000320: 3d3f 2abe cba2 7abe 5222 7f3e 6045 da3d
00000330: 79c9 24be 3fa0 0c3e 6015 ba3d 9313 27bd
00000340: d645 88be ac78 60be d159 08bd bf9b fb3c
00000350: b8a0 db3d 5d2d 863e 57b0 873e 627c 7f3e
00000360: d34e f33d 6a60 e43d 2a13 80bd 192a 563e
00000370: 1104 91be 623e 433e 7e8e 08be 01a8 51be
00000380: 1367 b53e beaf 283e bb5d edbc 9d3c 813d
00000390: ba89 62be d78e 97be 3cbb 053c 5e47 ea3c
000003a0: e65d d53c 2b30 683e 131c 2e3e 0589 07be
000003b0: f8b9 af3e efed 06be 494a fabc 6865 53be
000003c0: 7fad 25be 6eac abbe 8b3c fa3d 3dc1 1cbd
000003d0: fd04 6b3e 1053 153e b75a f1bd 45a8 773e
000003e0: 74e3 7fbe ff55 273e fe47 313e 7276 073c
000003f0: 2ab2 6e3d ab61 77be d56a bc3d 2514 abbe
0.16344188 0.13987678 -0.2598834 0.15237531 -0.19069444 0.032912735 -0.3117356 0.033647735
0.24182199 0.16761687 -0.016487267 0.16768555 0.10384319 0.15215196 0.030339977 -0.33341858
-0.15241913 -0.23174465 -0.034303848 -0.013310269 -0.060731225 -0.12377197 -0.26626465 -0.048968196
0.1857128 -0.111041166 -0.03790795 0.16438131 0.120853074 0.19817969 -0.19899553 0.15980105
-0.11131445 -0.14041333 -0.15548685 0.20206615 0.134614 -0.16237867 -0.18001977 -0.17295748
-0.11557696 -0.015147156 0.102701135 -0.05113013 -0.19825058 -0.38953772 0.13988645 0.09161259
-0.31742162 -0.027808035 -0.17857979 0.1960735 0.079917505 0.12567861 0.35560724 0.09672305
0.27443102 -0.1776411 -0.041782912 0.21440232 0.16290686 0.14485782 -0.1892105 -0.01756991
0.15397085 -0.13451393 0.2264567 -0.18846388 0.099738315 -0.14052919 -0.17854856 0.23733959
0.08474374 0.05329059 -0.19945276 -0.16393095 -0.054143097 -0.01465556 0.13466676 -0.20511639
0.07015152 -0.123889975 -0.22980283 0.10050031 -0.28537154 -0.1626586 0.07825674 -0.046064775
0.10253479 -0.19262174 -0.13836497 -0.34611827 0.078588285 -0.22778851 0.060083155 0.2678685
0.28077367 0.14542496 0.0934706 -0.10349702 0.2259243 -0.1228758 0.07438739 0.103303894
0.22068842 -0.06291105 -0.14735824 -0.094367966 -0.19793919 -0.17249523 -0.30741203 -0.109814435
0.22413863 -0.35373187 0.17645122 -0.2130064 -0.35595465 -0.24267896 -0.14304838 0.0071117985
0.14204481 0.25075373 -0.09583448 -0.13752814 0.36521983 0.080237664 0.057260692 -0.004295211
-0.13606787 -0.053118616 0.2044644 0.16322151 0.15136737 0.022875901 0.08123516 -0.24133614
-0.06874034 -0.34216952 0.049060583 -0.054923587 0.056890227 -0.33457574 0.047166023 0.18213318
0.005529463 0.17495199 0.21876006 -0.21281084 0.31618485 0.18071786 0.21102126 -0.04032119
0.03609879 -0.3560348 0.06099128 -0.124545865 0.01868145 0.06736053 0.1547296 -0.23120444
0.16491981 -0.14280094 0.31987047 -0.017526811 -0.09985056 0.024589002 -0.1199601 0.30606225
-0.26169914 -0.23522884 0.10934367 0.12301356 0.13628477 0.050384544 -0.2165282 -0.17873812
-0.18649593 0.17373283 0.11277781 0.24010743 0.2170646 0.15982729 0.046624165 -0.00918448
-0.20301116 0.109032705 -0.10136961 0.06241578 0.03959817 0.28555748 0.0079344 -0.3112043
-0.29749396 0.10676557 0.20852539 -0.050461464 -0.11891613 -0.058860965 0.25733438 -0.2085475
-0.16625686 -0.24476163 0.24915436 0.106577635 -0.1609248 0.13733004 0.09086108 -0.04079015
-0.2661578 -0.21921033 -0.03328878 0.030713914 0.10724014 0.26206484 0.26501724 0.24949792
0.11880269 0.11151202 -0.06253655 0.20914496 -0.28323415 0.19066766 -0.13335606 -0.20474245
0.35430202 0.1647329 -0.028975358 0.06310389 -0.22122851 -0.29601166 0.008162316 0.028598484
0.02604575 0.22674625 0.17002897 -0.13235863 0.3432157 -0.13176702 -0.030553 -0.20644152
-0.16179465 -0.3352999 0.12218579 -0.038270224 0.22951122 0.14582467 -0.117848806 0.24185283
-0.2498911 0.16341399 0.17312619 0.008267986 0.05827538 -0.24158351 0.09200064 -0.33413807

fc.weight f4 [1, 32]
00000000: 2515 aabd 9621 b03d e380 23be 86d3 cebd
00000010: 639d b93d 88a6 40bd c5bf 9d3d e81b 85bd
00000020: 0fb3 033c dd48 b03d c73c 1c3e ce48 443e
00000030: fcc3 afbd fccc de3d fd89 0ebe edc3 1bbe
00000040: 318a 2a3e 3529 a53d 0403 0fbe 1ae2 00be
00000050: 53cc 8b3d b112 873d 3d32 b03d 41bb 1bbe
00000060: b8f5 633e 1b7b b7bd 9b8f a4bb b463 253d
00000070: dd9d 6dbe 74a5 efbd cc76 21bc 1db3 5a3d
-0.08304814 0.08600156 -0.15967135 -0.10098939 0.09063222 -0.047033817 0.07702593 -0.06499463
0.008038296 0.086076476 0.1525756 0.19168398 -0.08582303 0.108789414 -0.13919826 -0.15211459
0.16654278 0.080645 -0.13965994 -0.12586251 0.06826081 0.06595362 0.08603332 -0.1520815
0.22261703 -0.089590274 -0.005022002 0.040378287 -0.23204751 -0.117014796 -0.009854984 0.053393472
