atropos/trained_model/onehot/no_answer/4/best_acc.pt (torch, 11026 bytes, 5 tensors)

conv1.bias f4 [32]
0	0xbc8bf4e6	-0.01708455
1	0x3b2ead9d	0.0026653775
2	0xbcafe9c5	-0.021473775
3	0xbd63de61	-0.055632
4	0x3cc4501c	0.02396398
5	0x3d0198ca	0.03163985
6	0xbe27f148	-0.16400635
7	0xbe0845f4	-0.13307935
8	0xbe11c274	-0.14234334
9	0xbd425624	-0.04744543
10	0xbdc8a3b8	-0.09796852
11	0xbcd1f844	-0.025631078
12	0x3903fad8	0.0001258658
13	0xbe02de39	-0.12780084
14	0xbe17c172	-0.14819887
15	0x3b05d19a	0.0020419122
16	0xbe0a9100	-0.13531876
17	0x3c4f2dcc	0.012645196
18	0xbd596432	-0.05307407
19	0xbdeb7b94	-0.1149818
20	0x3c61baf8	0.013777487
21	0xbe10a9e0	-0.14127302
22	0x3c62f5d0	0.013852552
23	0x3c2778a3	0.010221633
24	0x3d2d1091	0.042252127
25	0xbe0e4389	-0.1389295
26	0xbc910862	-0.017704193
27	0xbd42734c	-0.047473237
28	0xbde3746f	-0.11106192
29	0xbd51d0d6	-0.051224552
30	0xbe014b04	-0.12626272
31	0xbc31c112	-0.010849254

conv1.lin.weight f4 [32, 27]
0	0x3dc713b3	0.09720554
1	0xbdc52fd0	-0.0962826
2	0xbe834fd7	-0.2564685
3	0xbed318b5	-0.41229787
4	0xbe6a9919	-0.22909965
5	0xbd81d058	-0.063385665
6	0xbe097550	-0.13423657
7	0xbee16be0	-0.44027615
8	0x3ecdf871	0.40228608
9	0x3e175f4a	0.14782444
10	0xbdb1f615	-0.086895145
11	0x3e6e1004	0.23248297
12	0xbdee8f3c	-0.116484135
13	0xbebe7192	-0.37196022
14	0x3e4907f0	0.19631934
15	0xbed56919	-0.41681746
16	0xbea30d9f	-0.3184633
17	0xbcda01fe	-0.026612278
18	0x3e22145f	0.15828083
19	0xbd19fa64	-0.037592307
20	0xbc422266	-0.011849022
21	0xbd824ee9	-0.06362707
22	0x3eb5b225	0.35487476
23	0xbe11348d	-0.14180203
24	0x3ca6fb47	0.02038349
25	0xbdc79fd5	-0.097472824
26	0xbe2dc31b	-0.16968958
27	0xbeb56dc3	-0.35435304
28	0x3e615488	0.22004902
29	0x3c21950f	0.0098621985
30	0x3ef61cc6	0.48068827
31	0xbe10e2ec	-0.14149064
32	0xbef0a7b9	-0.47002962
33	0x3da78089	0.08178813
34	0x3d4e090b	0.050301593
35	0x3eaaa002	0.333252
36	0xbe306d2a	-0.17229143
37	0x3e104c92	0.1409171
38	0xbea3ff3d	-0.3203067
39	0xbe1723b3	-0.14759712
40	0x3e0395b1	0.12850071
41	0x3e0edcdd	0.1395144
42	0xbdaa4818	-0.08314532
43	0xbb75769c	-0.003745473
44	0xbd1cdbd8	-0.038295597
45	0xbe441588	-0.19148839
46	0xbe9cb00f	-0.30603072
47	0x3e6fa92c	0.23404378
48	0x3e260064	0.16211087
49	0x3e36dd19	0.1785778
50	0x3e57a718	0.21059835
51	0x3f2ae6c9	0.667584
52	0xbec8b600	-0.39201355
53	0xbe85c0c9	-0.26123646
54	0xbd8ab0fd	-0.06772039
55	0x3d32634f	0.04355174
56	0x3e6b68a9	0.22989143
57	0xbe19c8bf	-0.15017985
58	0xbcdfdf98	-0.027328297
59	0x3e5e9619	0.21736945
60	0x3dbaeb6c	0.091269344
61	0x3e6fde3a	0.23424616
62	0xbdcc5d19	-0.099786945
63	0x3e145e50	0.14489102
64	0x3ea67552	0.32511383
65	0x3e539e9b	0.20665972
66	0x3de3c2b7	0.11121123
67	0x3da59bc3	0.0808635
68	0x3e24ed42	0.16106132
69	0xbe4b315a	-0.19843045
70	0xbee30e83	-0.4434701
71	0xbcaf67ae	-0.021411743
72	0x3e560d94	0.20903617
73	0x3f128745	0.57237655
74	0xbe81cbc0	-0.2535076
75	0xbf1ce099	-0.6128021
76	0xbf12a165	-0.5727752
77	0xbd5505d8	-0.052007526
78	0xbe930365	-0.28713527
79	0x3e6124c4	0.21986681
80	0x3f1f00e3	0.6211073
81	0x3dbb9243	0.091587566
82	0x3ebf94cd	0.37418213
83	0xbdf7d9d0	-0.12102091
84	0x3e2e259e	0.17006537
85	0xbd19206e	-0.037384443
86	0xbed6e3d5	-0.41970697
87	0xbe86e771	-0.2634845
88	0xbe30641f	-0.17225693
89	0xbd96e98c	-0.07368764
90	0x3e2f6a37	0.17130361
91	0xbc0dc43c	-0.008652743
92	0x3e760301	0.24024583
93	0xbd9619ce	-0.073291406
94	0xbe0ac73b	-0.13552563
95	0x3e5c6ba8	0.21525443
96	0x3e1859ee	0.14878055
97	0x3e8d026c	0.2754091
98	0x3e6b7a66	0.2299591
99	0x3c743219	0.014904522
100	0x3b2b700a	0.002615931
101	0xbcf9a1b6	-0.030472618
102	0x3cb77f5a	0.022399593
103	0xbb29c4b5	-0.00259046
104	0x3e68f80e	0.22750875
105	0x3e2cefa2	0.16888288
106	0xbe5a5c03	-0.21324162
107	0x3e455173	0.19269352
108	0xbe6d3440	-0.23164463
109	0x3cb2513f	0.021767257
110	0xbd93ae7d	-0.072110154
111	0xbeb24500	-0.34818268
112	0xbed3ca5e	-0.4136533
113	0xbeae761e	-0.3407449
114	0x3dd505a6	0.10401468
115	0x3e25da07	0.16196452
116	0x3dd59e28	0.104305565
117	0xbec8dc93	-0.39230785
118	0x3e225ecd	0.15856476
119	0xbd75f553	-0.060048413
120	0xbe7f1db4	-0.24913675
121	0xbdc784d5	-0.097421326
122	0xbe9c017b	-0.3046988
123	0xbe605e38	-0.21910942
124	0x3e936671	0.28789094
125	0x3df4ba1c	0.1194956
126	0x3e016343	0.12635522
127	0x3e42036b	0.18946616
128	0xbecb4c3f	-0.3970661
129	0xbd394dd7	-0.04524025
130	0x3f1a0f2f	0.6017942
131	0x3e4caaf7	0.19987093
132	0x3f24874c	0.64268947
133	0xbea4ecd7	-0.32211944
134	0xbbdd3e3f	-0.006751805
135	0x3d0efe33	0.034910392
136	0x3e895176	0.26819962
137	0x3d83f56f	0.06443297
138	0x3ebe21fa	0.37135297
139	0x3d840117	0.0644552
140	0x3e39cbcc	0.18144149
141	0xbd9aee23	-0.07564952
142	0xbe9ec25f	-0.31007668
143	0x3e979a3e	0.29609865
144	0xbdcf194b	-0.10112246
145	0xbe20d3a3	-0.15705733
146	0xbea2f383	-0.3182641
147	0xbe2146b7	-0.15749632
148	0xbd8dfadd	-0.06932614
149	0x3e91e54a	0.28495246
150	0x3e1ab501	0.1510811
151	0xbe8221de	-0.25416464
152	0x3e9e617b	0.30933747
153	0xbeb58c00	-0.35458374
154	0xbd19f853	-0.037590336
155	0xbd963727	-0.07334738
156	0x3e8724b2	0.26395184
157	0x3f0636e6	0.5242752
158	0x3ee5de73	0.44896278
159	0x3f15cc9e	0.58515346
160	0xbde606c7	-0.112317614
161	0xbeb1bb5c	-0.34713256
162	0xbdfdf8a1	-0.12400938
163	0xbeb7b819	-0.35882643
164	0xbe28314f	-0.1642506
165	0xbd7995ad	-0.060933758
166	0x3d5b5f56	0.053557716
167	0xbe137f60	-0.14404058
168	0x3ebce235	0.36891332
169	0x3e7c9923	0.24667792
170	0xbe3db2c7	-0.1852523
171	0x3e856df6	0.26060456
172	0xbe7b5c4a	-0.24546924
173	0xbc64e915	-0.013971587
174	0x3e91d85a	0.28485376
175	0x3bec8dca	0.007219051
176	0x3e38b000	0.18035889
177	0x3e90d754	0.28289282
178	0x3e2ce571	0.168844
179	0xbe855cb0	-0.26047277
180	0xbe5704d2	-0.20997933
181	0x3ead60ee	0.33863014
182	0x3ec6fa3b	0.38862786
183	0xbe3bd113	-0.18341474
184	0xbf025d42	-0.5092355
185	0xbdc012df	-0.093785994
186	0xbe7f9868	-0.24960482
187	0x3f05bc54	0.5224049
188	0x3f02b003	0.5104982
189	0xbe0e2eb8	-0.1388501
190	0xbca3351f	-0.019922791
191	0xbe2cf5fe	-0.16890714
192	0x3e8961e4	0.26832497
193	0x3b37520e	0.0027972492
194	0xbe17be93	-0.14818792
195	0x3ecfca1a	0.4058388
196	0x3eaafde2	0.33396822
197	0xbd7c8c93	-0.0616575
198	0x3e749343	0.23884301
199	0xbf2cd780	-0.67516327
200	0x3d6ebb06	0.05828383
201	0x3e2e879f	0.17043923
202	0xbe9d3321	-0.3070307
203	0xbd9a52e5	-0.07535342
204	0x3e4b60a9	0.19861092
205	0x3e6633b2	0.22480658
206	0x3b80c05d	0.0039291815
207	0x3e3ae640	0.18251896
208	0x3ee4999b	0.44648442
209	0x3e93e42b	0.28885016
210	0xbe55293d	-0.20816512
211	0xbf0c3ef2	-0.54783547
212	0x3daa490d	0.083147146
213	0xbdc65ee2	-0.09686066
214	0x3dd08cd4	0.10183111
215	0x3e5b7fe8	0.21435511
216	0x3e2f57ff	0.17123412
217	0x3dbcb656	0.09214465
218	0xbda750c3	-0.08169701
219	0xbe119a06	-0.14218912
220	0x3d7005db	0.058599334
221	0x3e64d013	0.22344999
222	0x3e9cc680	0.30620193
223	0xbe21cdc4	-0.1580115
224	0xbaa6ff8d	-0.0012740955
225	0xbd386d76	-0.045026265
226	0x3e9962a5	0.29958072
227	0xbea8d1e5	-0.32972637
228	0x3ed31523	0.41227064
229	0x3dc62fff	0.09677123
230	0xbec89757	-0.39177963
231	0xbeac57cc	-0.33660734
232	0xbe79ca03	-0.24393468
233	0xbd4fdbd1	-0.050746743
234	0x3e623ad3	0.22092752
235	0x3eaa5a8c	0.33272207
236	0x3e576c8e	0.21037504
237	0xbed1152c	-0.40836465
238	0xbe44bb1d	-0.19212003
239	0xbef9a9a8	-0.4876225
240	0x3d9aad3a	0.075525716
241	0x3e8861e7	0.26637194
242	0x3f423293	0.7585842
243	0xbe4fc406	-0.20289621
244	0x3e3b0595	0.18263848
245	0x3e6371fd	0.22211452
246	0xbeff4a65	-0.49861446
247	0xbdd62bf4	-0.10457602
248	0xbe8b5ea1	-0.27220634
249	0xbe9f3a63	-0.31099233
250	0x3ed6114d	0.41810074
251	0x3ef8f857	0.48626968
252	0xbf027b85	-0.50969726
253	0x3e19531a	0.14973107
254	0xbe883544	-0.26603138
255	0xbea6660d	-0.32499734

conv_out.bias f4 [32]
0	0x3d6df9b5	0.058099467
1	0x3d37eb7d	0.044902314
2	0xbd7e41c0	-0.062074423
3	0xbd4d0e2f	-0.050062355
4	0x3cf25301	0.029580595
5	0x3d66e5fa	0.056371666
6	0xbd49ba4d	-0.049249936
7	0x3d75678e	0.05991321
8	0x3d5b6901	0.053566936
9	0xbd430ab8	-0.047617644
10	0x3db421d9	0.087955184
11	0xbd3bd540	-0.045857668
12	0x3d56a021	0.052398805
13	0x3cb4e545	0.02208198
14	0x3d6442e4	0.055727854
15	0x3d4cfe85	0.050047416
16	0x3d57720a	0.05259899
17	0xbd4f9804	-0.050682083
18	0xbd49b3fe	-0.04924392
19	0x3d8fed55	0.07027689
20	0x3d82e1e0	0.063907385
21	0xbd713a3d	-0.05889343
22	0xbd2cafbe	-0.04215979
23	0x3d557aee	0.052119188
24	0x3d439cf0	0.04775709
25	0x3d66676c	0.056250975
26	0x3d379dcb	0.044828217
27	0xbd762603	-0.060094845
28	0x3d3c2313	0.045931887
29	0x3d47290a	0.048623122
30	0x3d4fcd9e	0.0507332
31	0xbd23144b	-0.039814275

conv_out.lin.weight f4 [32, 32]
0	0x3e4db9d2	0.20090416
1	0x3e570c88	0.21000874
2	0x3d94e52c	0.072702736
3	0x3e8d4cee	0.27597755
4	0x3f37ab10	0.71745396
5	0x3d11704a	0.035507478
6	0xbe8ad7a9	-0.2711766
7	0xbe8cb2cd	-0.27480164
8	0x3dff60c0	0.124696255
9	0x3d9de9cb	0.07710608
10	0xbeb98004	-0.3623048
11	0xbe739de7	-0.23790704
12	0x3e0dc3cd	0.13844223
13	0xbe964d9d	-0.2935609
14	0xbeac0a98	-0.33601832
15	0xbda638b2	-0.081162825
16	0xbccfaf6e	-0.025352206
17	0xbd077b2a	-0.033076443
18	0xbd61f33f	-0.05516362
19	0xbe676068	-0.2259537
20	0x3eadc94b	0.33942637
21	0xbe62c314	-0.22144729
22	0x3e7f09a2	0.24906018
23	0x3dd74ae5	0.10512332
24	0x3b27f8da	0.0025630505
25	0x3dd2b4be	0.1028838
26	0xbe983247	-0.2972586
27	0xbedb8067	-0.428714
28	0xbec06170	-0.3757434
29	0xbe8d13b9	-0.2755411
30	0xbda12352	-0.07868065
31	0xbbbef9eb	-0.0058281324
32	0xbe14f566	-0.14546737
33	0x3e2d1776	0.16903481
34	0xbcd128e3	-0.025532192
35	0xbd4b975a	-0.049704887
36	0x3ee51f95	0.44750658
37	0xbd667cb1	-0.05627126
38	0xbeadfbb3	-0.33981094
39	0xbe8bc76b	-0.2730058
40	0x3acc4154	0.0015583434
41	0x3eec3f6f	0.46142146
42	0xbe1ba958	-0.15201318
43	0x3df24c10	0.11830914
44	0xbd8b2eb6	-0.06796019
45	0xbe770cba	-0.24125949
46	0xbd00f28f	-0.031481322
47	0x3d0321a3	0.0320145
48	0xbcb4edef	-0.022086112
49	0x3e1fbf3d	0.15600295
50	0x3e5b1ad0	0.21396947
51	0xbcf6aee7	-0.030112697
52	0x3e558451	0.20851256
53	0xbe78669d	-0.24257894
54	0x3e1ed0c8	0.15509331
55	0x3e0287c0	0.12747097
56	0x3e8f11bb	0.27943215
57	0x3e0cba5f	0.1374297
58	0x3d74fd04	0.059811607
59	0x3d3afd59	0.045651767
60	0xbe896ecd	-0.26842347
61	0xbdf3c968	-0.119036496
62	0xbe689244	-0.22712046
63	0x3e65f171	0.22455384
64	0xbe7ea733	-0.24868469
65	0xbe926ed8	-0.28600192
66	0xbc2abf10	-0.010421529
67	0xbe528cd5	-0.20561536
68	0xbecbd5e6	-0.3981163
69	0xbe8c3ca7	-0.27390024
70	0x3e94d341	0.29067424
71	0x3e547965	0.20749433
72	0xbdf12675	-0.11774913
73	0xbf0aa331	-0.5415526
74	0x3ebd9b6a	0.37032634
75	0x3e8baac3	0.27278718
76	0xbd842285	-0.064518966
77	0xbe4dc463	-0.20094447
78	0x3d766422	0.060154088
79	0x3d9ee5dd	0.07758687
80	0x3eb9f84b	0.36322245
81	0xbddb5787	-0.10710054
82	0xbd63fc5e	-0.055660598
83	0x3d7ae079	0.06124923
84	0xbd8e657f	-0.069529526
85	0xbe0f7b96	-0.14011988
86	0xbf21e502	-0.63240063
87	0xbe6b9d25	-0.23009165
88	0xbc1e6268	-0.009667017
89	0x3da16238	0.07880062
90	0x3e2a66b8	0.16640747
91	0x3d9bcf51	0.07607902
92	0x3df28267	0.118412785
93	0x3e9cb604	0.30607617
94	0x3eb2d9b5	0.34931722
95	0xbdcca0e9	-0.09991629
96	0xbe63111e	-0.22174498
97	0xbf07ba0c	-0.5301826
98	0x3e61c8dd	0.2204928
99	0x3e781c8c	0.2422964
100	0xbe666cf5	-0.22502501
101	0xbe272ed6	-0.1632646
102	0x3db6b35f	0.08920931
103	0x3edd26d7	0.43193695
104	0x3e4c9c95	0.19981606
105	0xbf053154	-0.52028394
106	0x3df0d9bc	0.117602795
107	0x3dae6766	0.085158154
108	0x3e2b4445	0.16725262
109	0xbe4f5dc7	-0.20250617
110	0x3d20cfc7	0.039260652
111	0x3e6b22c1	0.22962476
112	0x3dbf74e4	0.09348467
113	0xbe0165b1	-0.12636448
114	0xbe7a9d53	-0.24474077
115	0x3e3f0065	0.18652494
116	0xbe02acc8	-0.12761223
117	0x3ca839c4	0.020535357
118	0xbd50e37c	-0.050998196
119	0xbe753d1c	-0.23949093
120	0xbe85b639	-0.26115587
121	0x3e862e63	0.26207265
122	0xbda014bc	-0.07816455
123	0x3d8828aa	0.06648381
124	0xbcc38fcd	-0.02387228
125	0xbdc2c24d	-0.09509716
126	0xbe30f0c5	-0.17279346
127	0x3e82a859	0.25519064
128	0x3ea04bd5	0.31307855
129	0x3ec5d4ee	0.38639015
130	0xbd883255	-0.06650225
131	0x3d2056b9	0.039145205
132	0x3ef6b4cc	0.48184812
133	0xbe29bd52	-0.16576126
134	0xbc746a15	-0.01491787
135	0xbe51b5b0	-0.20479465
136	0xbd9423de	-0.072334036
137	0x3cca68e7	0.024708224
138	0xbbe56018	-0.0069999807
139	0x3e4cb088	0.19989216
140	0x3e9d6af9	0.30745676
141	0xbe85f465	-0.2616302
142	0xbe9731e9	-0.29530266
143	0x3dc9a3df	0.09845709
144	0x3e3cbf8c	0.18432444
145	0x3dc30246	0.09521918
146	0x3dd15a8c	0.102223486
147	0xbe1fe7b9	-0.15615739
148	0xbe311e1b	-0.1729664
149	0x3dc9732e	0.09836422
150	0xbc4eb216	-0.012615701
151	0x3e99ee99	0.30064848
152	0xbcef03c7	-0.029176606
153	0x3e4ff708	0.20309079
154	0x3e24904e	0.16070673
155	0xbdb3e20d	-0.0878335
156	0x3e170d63	0.147512
157	0xbdedd83f	-0.11613511
158	0x3e5200be	0.20508096
159	0x3ddca5e2	0.10773827
160	0x3e386deb	0.1801068
161	0x3edbfb6c	0.42965257
162	0x3dfcf647	0.12351661
163	0xbe007d37	-0.12547766
164	0x3ee66158	0.44996142
165	0xbea9e36b	-0.3318132
166	0xbee5368f	-0.44768187
167	0xbe6dc1cb	-0.23218457
168	0xbe49c434	-0.19703752
169	0x3e93a68d	0.28838006
170	0x3e84bd01	0.2592545
171	0x3cb6f9a7	0.02233584
172	0x3e873425	0.2640697
173	0x3e73daa4	0.23813874
174	0x3c3dd58a	0.011586556
175	0x3d2342d1	0.039858643
176	0xbea332de	-0.31874746
177	0x3ea7ff0b	0.3281177
178	0xbe7c3cd7	-0.24632584
179	0xbe96cbd7	-0.29452392
180	0xbc4f1686	-0.012639647
181	0xbdd46fe6	-0.103729054
182	0x3f1491de	0.58035076
183	0x3e8bc46e	0.272983
184	0x3ea3f817	0.32025215
185	0x3e1da185	0.15393646
186	0x3d87e44f	0.06635343
187	0xbeaed77a	-0.3414877
188	0x3d51b00f	0.051193293
189	0xbe5e5421	-0.2171178
190	0xbea6fd21	-0.32614997
191	0x3e96cddd	0.29453936
192	0xbc9d9d1b	-0.019239953
193	0xbea3f733	-0.32024536
194	0xbe3a71dd	-0.18207498
195	0xbdf6273d	-0.12019203
196	0xbe9e59b6	-0.3092782
197	0xbe9d8e95	-0.30772844
198	0x3e3fa050	0.18713498
199	0x3e1807e1	0.14846756
200	0x3d8166a7	0.063184075
201	0xbecd8e39	-0.4014757
202	0x3e263a2b	0.16233127
203	0xbd0d7f10	-0.034545004
204	0x3e17dd01	0.148304
205	0xbd245f24	-0.040129796
206	0x3d783898	0.060600847
207	0xbd8fb5cc	-0.07017097
208	0xbd14f77f	-0.036368843
209	0x3e31bad3	0.17356424
210	0x3e91ac3f	0.28451726
211	0x3e0ce3ee	0.13758823
212	0x3e1e03f8	0.15431201
213	0x3e9389fb	0.28816208
214	0xbea1d276	-0.3160588
215	0x3d463883	0.048393738
216	0x3e2ae46e	0.16688702
217	0x3ec83e35	0.3910996
218	0x3e8795da	0.26481515
219	0x3cba9afa	0.022778977
220	0x3d7e96bc	0.06215547
221	0x3e503674	0.20333272
222	0xbd9005bb	-0.07032343
223	0xbd99ef6c	-0.07516369
224	0xbe278152	-0.16357926
225	0x3e3d2f9c	0.18475193
226	0xbde6b2f0	-0.11264598
227	0xbe5e4f48	-0.21709931
228	0x3f2d12f0	0.6760702
229	0x39e51f61	0.00043701663
230	0xbe8272a4	-0.2547809
231	0xbedf6f6b	-0.43639693
232	0xbe8d3403	-0.27578744
233	0x3eb43a02	0.35200506
234	0xbd9b633d	-0.075872876
235	0xbd2eadef	-0.042646345
236	0x3c2a302d	0.010387463
237	0xbe9438db	-0.28949627
238	0xbeb43cb4	-0.35202563
239	0xbe8c4614	-0.27397215
240	0xbe8dfeb4	-0.27733386
241	0x3cc975ff	0.024592398
242	0xbe773b3e	-0.24143693
243	0xbc4b9c8d	-0.012427461
244	0x3e1d4d90	0.15361619
245	0xbe0888b0	-0.13333392
246	0x3e7c82f6	0.24659333
247	0x3ec387bf	0.38189504
248	0x3be2f123	0.0069257184
249	0x3e305ad8	0.17222154
250	0xbeab2b6b	-0.33431563
251	0xbeb7b57e	-0.35880655
252	0xbe498c9c	-0.19682544
253	0xbd2ef65a	-0.042715408
254	0x3dace1a7	0.08441477
255	0x3d64b152	0.05583317

fc.weight f4 [1, 32]
0	0xbe6152ba	-0.22004214
1	0xbe80d33d	-0.25161162
2	0x3e39ac05	0.18132026
3	0x3e0cffc0	0.13769436
4	0xbd70e22a	-0.058809437
5	0xbe1867ff	-0.14883421
6	0x3dd083e4	0.10181406
7	0xbe149a0c	-0.14511889
8	0xbe38e55e	-0.18056247
9	0x3e4fe33c	0.20301527
10	0xbe26a6e7	-0.16274606
11	0x3e76b8f2	0.24093989
12	0xbe2f0740	-0.1709261
13	0xbdbb8391	-0.09155954
14	0xbe944dd6	-0.28965634
15	0xbe86223b	-0.2619799
16	0xbe91a5b8	-0.28446746
17	0x3e884924	0.26618302
18	0x3ea279d5	0.31733575
19	0xbdb382ad	-0.08765159
20	0xbe4eee26	-0.20208034
21	0x3e3f7901	0.18698503
22	0x3e2b692f	0.16739343
23	0xbe6ca44a	-0.23109546
24	0xbe8497ef	-0.25897166
25	0xbecad050	-0.39612055
26	0xbe1998f5	-0.14999755
27	0x3e57da4b	0.21079366
28	0xbe9cfd87	-0.30662176
29	0xbe875e47	-0.26439115
30	0xbeb21213	-0.34779415
31	0x3e698846	0.2280589
