atropos/trained_model/nhot/answer/add/3/best_acc.pt (torch, 16402 bytes, 5 tensors)

conv1.bias f4 [32]
000000 cd 35 7e bc 45 f2 02 be 31 75 dc 3b 98 9f a1 3d
       -0.015515757 -0.12787731 0.0067278375 0.07891768
000010 76 a1 3a bd 34 5e 5d bc c0 22 ac 3b 26 cd 0f bb
       -0.045564137 -0.013511229 0.005253166 -0.0021942346
000020 23 8a b9 bb e5 e5 04 3d 40 a2 5e bd 23 82 15 bd
       -0.005662219 0.032445807 -0.054353952 -0.03650106
000030 7d ae 81 bc ff d9 bf bd e6 22 d6 bc 2f 0c bd 3c
       -0.015830273 -0.09367751 -0.026139688 0.023077099
000040 7b e2 91 3d 28 3b 36 3d 41 4c 83 bd 62 e6 0b 3d
       0.07123276 0.04449001 -0.06411029 0.034155257
000050 68 ae 83 3c 59 a7 ff 3c e6 4a 23 bd 6b 29 9b bb
       0.016074374 0.031207727 -0.03986635 -0.004735162
000060 9c 3f 5e bd fa af 15 bd 33 6b 8e bc 8e 6a fe bd
       -0.05425988 -0.036544777 -0.017385101 -0.124226674
000070 7e 75 40 bd 45 c5 7b bc 30 9c 36 3c 2b 35 27 bc
       -0.04698705 -0.015366857 0.011145636 -0.010205547

conv1.lin.weight f4 [32, 69]
000000 20 24 5e 3d fb 33 8d bd 68 6c a8 bd 25 b1 1c bd
       0.05423367 -0.0689468 -0.08223802 -0.038254876
000010 94 66 b5 be 37 eb fa bc d4 3b 96 3d 21 ed a5 3e
       -0.35429823 -0.030629737 0.0733563 0.32407477
000020 14 d7 31 bd 4c 47 f1 bb 8b d4 88 be c9 4c 63 be
       -0.043418005 -0.0073632356 -0.26724657 -0.2219726
000030 32 24 05 bf 99 c9 67 3d 9a c1 ab be 8f 93 0a 3e
       -0.52008355 0.056588743 -0.33546144 0.13532852
000040 18 40 68 3e e1 a9 01 3e c9 73 23 bd 48 c3 ed 3d
       0.226807 0.1266246 -0.039905343 0.116095126
000050 75 08 96 3e e7 cc ac 3d b1 f6 0b 3e 36 87 72 3e
       0.29303327 0.084375195 0.13668324 0.23684391
000060 6a ff 7c 3b ee 1e 0f be 02 57 18 3e ee 66 46 be
       0.0038604387 -0.13976642 0.14876941 -0.19375202
000070 62 36 95 3e 95 55 33 bd 7e b6 7d be c6 34 f5 be
       0.29143053 -0.04378279 -0.24776646 -0.47891825
000080 7e 55 86 bd fe ab 59 3d 29 5c b1 3d d4 fe 41 be
       -0.06559275 0.05314254 0.08660156 -0.18944865
000090 7a 36 25 3d fd 62 7d be 8b ef 2b be f0 0e 52 bd
       0.040335156 -0.24744792 -0.16790597 -0.051283777
0000a0 70 9f 19 bd 17 52 2f 3e c4 0b 03 3e a1 7f 82 3e
       -0.037505567 0.17121159 0.12797457 0.25487998
0000b0 07 dd 53 3e a4 9b 0a 3b 01 40 31 3c f7 09 1f 3e
       0.20689784 0.0021149898 0.010818482 0.15531145
0000c0 2b 45 33 3e 8f 2d 05 be 62 a7 5a be 14 67 15 3e
       0.17506854 -0.1300566 -0.21352914 0.14590102
0000d0 97 24 f3 bd 91 d7 50 be df 60 4f be fe 79 0f 3e
       -0.11872213 -0.20394732 -0.20251797 0.1401138
0000e0 93 ac bd 3d d5 1c c1 3d 28 3e e6 bd 62 44 4d be
       0.092614315 0.094293274 -0.11242324 -0.20045617
0000f0 45 af ed bd 8e 00 da bd 0f 53 ca 3d 1a 8e 20 be
       -0.11605696 -0.10644637 0.098791234 -0.15679207
000100 23 ee 3b 3e b6 b1 b0 bd 17 61 4d bd b9 44 1e 3e
       0.1835256 -0.08627646 -0.05014142 0.15455903
000110 9c ab 0e 3e 41 5d c5 3d 41 3c 6f 3d 58 cc 66 3e
       0.13932651 0.096369274 0.058407072 0.22538888
000120 67 df 7f 3d 80 c0 03 3e 46 38 dd 3d 82 a2 37 3e
       0.062468912 0.12866402 0.10801749 0.17933086
000130 f7 ca b2 be 1c 7a 45 bd c5 16 e5 3d 54 a1 75 be
       -0.34920475 -0.048212156 0.111859836 -0.23987323
000140 5a 09 41 3d e0 62 52 3d 2c c9 83 bc c5 b6 14 bd
       0.04712806 0.051363826 -0.016087137 -0.036307115
000150 0f 70 7b be 52 6e 72 bd dc 22 69 bb 89 95 8d bd
       -0.24554466 -0.05918724 -0.0035573756 -0.06913287
000160 c9 9d 9f 3d c5 3e b3 be e2 84 4a 3d 06 83 97 3d
       0.07793767 -0.35008827 0.049443133 0.073980376
000170 b7 12 83 bb 7f 59 ea bd f1 c6 15 3f 1e db 6b 3b
       -0.0040000337 -0.11442851 0.58506685 0.0035988758
000180 ae 91 8a 3e be 58 22 3e b5 f4 b5 3d bc 02 96 be
       0.2706427 0.15854165 0.08884565 -0.2929896
000190 d9 02 21 be 9a 84 c9 bd 1e 0e a8 3e b9 63 47 be
       -0.15723743 -0.09839745 0.3282327 -0.19471635
0001a0 00 78 78 3e 4c a8 03 be 4a fa 36 3e 21 2c 78 be
       0.24264526 -0.12857169 0.17868915 -0.24235584
0001b0 66 d4 76 3d e7 7e b9 be fb 68 88 be be a0 88 be
       0.060261153 -0.3622963 -0.26642594 -0.26685137
0001c0 ff ba 2d be 19 10 37 be de c6 ef 3d b9 7c 5e 3e
       -0.16965865 -0.17877235 0.11707853 0.21727265
0001d0 61 a6 9b 3c d8 44 c5 be 0a 91 9e bd ec 43 a4 be
       0.019000234 -0.38529086 -0.07742508 -0.3208307
0001e0 c1 57 cd 3d 9b eb b4 be 18 72 b1 3d 7a 95 33 be
       0.10026503 -0.35336003 0.0866434 -0.1753749
0001f0 04 a1 23 be 13 32 77 bd 36 c9 eb bc 7c e4 8c bd
       -0.15979391 -0.06035049 -0.028782468 -0.068795174
000200 3d 1d 21 3d 5b 4d 07 be 78 61 8d bd f1 53 02 be
       0.039334524 -0.13213103 -0.06903356 -0.12727334
000210 fb 08 9c be 37 26 34 be fc 8e 5c be df c7 c3 be
       -0.30475602 -0.17592703 -0.21538919 -0.38238427
000220 98 f5 91 ba ee 4e b9 be 0f 02 bb 3c 37 05 b9 3d
       -0.0011135815 -0.3619303 0.02282813 0.09034198
000230 b3 64 6c be 47 34 d8 bd b7 77 d2 3d 3c 4d a5 3d
       -0.23085289 -0.10556846 0.1027674 0.08071372
000240 18 cc 1a be 0a a8 12 bd 3c 63 f7 bc ad aa 27 bd
       -0.15116918 -0.035804786 -0.030198686 -0.040934253
000250 fb 5b 50 3e e8 35 f6 bd a7 3d 18 be 4c d9 4c be
       0.20347588 -0.120220006 -0.14867269 -0.20004767
000260 d1 31 bf bd 7b 70 2a be 66 41 9b bd 56 90 53 3e
       -0.093356736 -0.1664447 -0.07580833 0.20660529
000270 84 42 2f 3d 99 b7 c7 3d fb 44 7f 3e 8e 38 dc bd
       0.042788044 0.09751815 0.24928658 -0.107529745
000280 93 34 df be 70 e3 76 3e 4f 77 18 3e 8f 2b ca be
       -0.43594798 0.24110198 0.14889263 -0.39486358
000290 93 f6 dc 3d 2f 6d 83 be 49 e2 8f be 8a 4a fb 39
       0.10789218 -0.25669238 -0.2810233 0.00047929987
0002a0 73 23 77 be 17 4d 01 be db 9a 9d 3d 26 e4 5e be
       -0.24134617 -0.12627064 0.07695552 -0.21766719
0002b0 6e c4 1c 3e 90 a7 ca 3c 82 82 59 be 8e 31 5a 3d
       0.15309307 0.024738103 -0.21241191 0.053269915
0002c0 d3 1b 83 3c 01 41 4e be 5d c4 0c 3e f8 25 8f 3e
       0.016004479 -0.20141985 0.13746782 0.27958655
0002d0 75 7a 5a 3e 46 13 4e 3e 89 42 33 be 35 e4 8d be
       0.21335776 0.2012454 -0.1750585 -0.2771317
0002e0 19 f7 e0 3d 2b 6f ec 3c 7b 97 c9 3e 0a 00 09 3e
       0.1098463 0.028861603 0.39373383 0.13378921
0002f0 e7 2a 80 bc b6 ac 2b 3e d2 1f 59 ba 0e b4 7e 3c
       -0.015645457 0.16765103 -0.00082826347 0.015545858
000300 7d b4 8f 3e a0 6f 4d 3e 30 84 79 bc a0 88 53 3e
       0.2806739 0.20062113 -0.01522927 0.20657587
000310 37 8e cb 3d 26 27 8a bd 4e cb 5d bd 15 72 4e bd
       0.09939235 -0.06745748 -0.054148965 -0.050401766
000320 63 62 2e 3e a7 ca 74 3e d8 f6 c1 3e 80 0b ac 3e
       0.17029719 0.2390543 0.3788364 0.33602524
000330 09 c6 8b bd 0b 31 98 3e 8c e7 b4 3e 9d 2b 85 be
       -0.068248816 0.29724917 0.35332906 -0.26009837
000340 05 2d 1a 3e 85 ea 97 bc a0 32 94 bd 30 7f 7d bd
       0.15056236 -0.018544445 -0.072362185 -0.061888874
000350 19 8b aa bd 94 14 4e bd 8c 41 19 be 03 86 ce bd
       -0.08327312 -0.050312594 -0.1496641 -0.100841545
000360 35 2f 11 be 70 44 48 be b0 48 9f 3e 27 51 7d 3e
       -0.14178164 -0.19557357 0.31110144 0.24737988
000370 13 22 74 3d eb ba 57 3e 96 cf 3f 3d 88 1a 26 3c
       0.05960281 0.21067397 0.04682883 0.0101381615
000380 9e f4 33 be 5e be 3d be ec 0f 2e be c5 2e 0b be
       -0.17573783 -0.1852965 -0.16998261 -0.1359206
000390 6a e4 98 be cd bf 40 3d df 76 e3 bd 70 35 ae bd
       -0.29861766 0.047057915 -0.11106657 -0.08506286
0003a0 c0 7a 95 3d 4a 15 b0 be a2 5e cd be 92 9f 05 be
       0.07298803 -0.34391242 -0.40111262 -0.13049152
0003b0 61 ba 02 bd d1 80 60 be 10 6f b6 3c 55 0a 5f bd
       -0.031916026 -0.2192414 0.022269756 -0.054453213
0003c0 6e 3a 45 be f1 a8 ee 3e ea 59 6f be cf b8 91 3e
       -0.1926057 0.46613267 -0.23374143 0.2846131
0003d0 1d fd af 3c b4 27 c0 3e 00 bd a1 3d 2a 85 28 be
       0.021482999 0.3753029 0.07897377 -0.16457048
0003e0 68 f4 5e be 4b 67 a9 3d 25 8e 55 be b0 4e 1d be
       -0.21772921 0.08271655 -0.20855005 -0.15362048
0003f0 c6 f0 1f be 23 73 2b be e9 fb 01 be fa 19 3e be
       -0.15619192 -0.1674314 -0.12693752 -0.18564597

conv_out.bias f4 [32]
000000 d7 26 99 3c 34 b8 82 bc da 1d ce 3c 50 6c 9a 3c
       0.018695278 -0.015956976 0.025160719 0.018850476
000010 52 89 ce bc 9a 43 b1 bc 63 88 ae bc 08 54 bd 3c
       -0.025211964 -0.02163868 -0.021305269 0.023111358
000020 95 17 86 3c e9 4a 94 bc 94 2a 9c 3c 99 09 ad 3c
       0.016368667 -0.018102126 0.019063272 0.02112274
000030 2e 69 95 bc 67 bf c2 bc b3 64 b6 bc ca 58 9f bc
       -0.01823863 -0.023772908 -0.022264814 -0.019451518
000040 19 07 70 3c 4d b1 b3 bc ca b0 a8 bc fc 1d 9c 3c
       0.01465013 -0.02193513 -0.020592112 0.019057266
000050 0a 39 b3 bc 41 51 a3 3c ba 5f 9f bc 38 96 d8 bc
       -0.021877784 0.019936206 -0.019454826 -0.026438817
000060 3d e3 a2 bc 70 dc 9f 3c 66 5a a6 bc 8a 99 69 3c
       -0.019883746 0.019514292 -0.020306777 0.014257798
000070 f3 e7 b5 3c bc 76 38 bd fc a0 b6 bc d1 74 8d 3c
       0.022205329 -0.04503511 -0.02229356 0.017267616

conv_out.lin.weight f4 [32, 32]
000000 8f 29 bb bc 83 29 80 be 19 29 f8 bd 4c ac 83 bc
       -0.022846965 -0.2503167 -0.12117214 -0.016073368
000010 ef a6 19 3c 30 05 a6 3e 3b 35 4c be 1f d6 85 be
       0.009378179 0.32425833 -0.19942181 -0.26139924
000020 10 90 2f 3d b9 8c 3d be da 52 05 3d 14 30 93 3e
       0.042861998 -0.18510713 0.032549717 0.28747618
000030 32 28 57 be 9e dd a6 bd 8c a6 60 be d8 be 70 3e
       -0.21011427 -0.08147739 -0.21938533 0.23510301
000040 5e 1d 9d 3e dc 11 39 be 0d 31 a6 3d 1a 4b 69 be
       0.30686468 -0.18073219 0.081148244 -0.22782555
000050 e1 4a 97 3d af ad 33 3e 04 15 91 be 95 ce 33 be
       0.07387329 0.17546724 -0.28336346 -0.17559274
000060 01 b3 25 3e 26 98 b0 3e 5a dc 92 bd bc e5 62 be
       0.16181566 0.3449108 -0.07170935 -0.22157949
000070 51 af a0 bc 5a 34 82 be 14 11 a2 bb a5 5d 97 3b
       -0.019614847 -0.25430566 -0.0049458835 0.0046193176
000080 fb e1 f7 3d d2 96 95 be 70 3a c7 3d cc 06 38 3e
       0.12103649 -0.2921663 0.09727943 0.17971343
000090 3a a8 c5 bd 7d e1 5c be 7e 48 1d 3d c6 ab 73 be
       -0.09651227 -0.21570392 0.038399212 -0.23795995
0000a0 55 ec 0f be 28 49 5f 3e 06 05 9d 3d e4 de af 3a
       -0.14054997 0.2180525 0.07666974 0.0013417867
0000b0 66 e1 2e 3c 55 c5 56 3e 4f 26 2a be 16 d0 fd bd
       0.010673856 0.20973714 -0.16616176 -0.12393205
0000c0 6c 27 a1 be 9c 3f 90 3e 72 13 18 be d5 7b 28 3e
       -0.3147539 0.2817353 -0.14851168 0.16453488
0000d0 bf 3a 14 3e 91 f2 53 be ee 6c ad 3e f0 64 75 be
       0.14475535 -0.20698 0.3387217 -0.23964286
0000e0 ef cf 4c 3c 03 53 4b be fa 88 6e 3e bd bc 88 be
       0.012500747 -0.19855885 0.2329444 -0.26706496
0000f0 c0 81 c0 3d 5a dd 26 be 9f d4 20 be 35 04 19 3e
       0.09399748 -0.16295376 -0.15706109 0.14943011
000100 25 90 ff bc 5b 4a 6f 3e eb 98 6d be 68 ca e8 be
       -0.031196663 0.23368208 -0.23202865 -0.45466924
000110 b0 b2 13 bd 04 02 a8 bb 85 f5 a1 be d3 19 59 3e
       -0.03605908 -0.0051271934 -0.3163263 0.21201257
000120 4b a2 25 3e d7 54 6f 3e 52 19 bc be 32 59 3e be
       0.16175191 0.23372208 -0.36738068 -0.18588713
000130 f0 0d bb bd ba c4 62 bd 56 06 0d 3e 26 ae ea 3d
       -0.09133518 -0.055363394 0.13771948 0.114589974
000140 8c c4 6c 3e 2e 5d a9 be 32 40 75 3e b6 94 d8 bb
       0.23121852 -0.33078903 0.2395027 -0.0066095246
000150 2d f2 a3 be 11 b3 e7 3d 59 6a a9 be 93 bc 71 be
       -0.32020703 0.11313451 -0.3308895 -0.23607092
000160 07 e5 fe bd f0 69 5a 3e 37 e0 67 3e 71 85 61 be
       -0.12446027 0.21329474 0.22644125 -0.2202356
000170 08 4d ff bd 06 e8 5f be 1e c2 43 bd 0c e0 85 be
       -0.124658644 -0.21865854 -0.047792546 -0.26147497
000180 9b 6d ab be a3 8d 59 3d 39 c1 fd 3d 68 3a d6 be
       -0.3348206 0.05311359 0.1239037 -0.41841435
000190 4b aa 79 3e 0b 0f 8d 3e ea 32 00 be 4d e2 cd bd
       0.24381368 0.2755054 -0.12519422 -0.10052929
0001a0 bf 72 69 be d5 3b 49 3e eb e3 96 be 7a f2 2f 3e
       -0.22797678 0.1965173 -0.29470763 0.17182341
0001b0 0f 04 48 3d 28 42 a7 3e 73 52 e5 3d 93 82 e9 bd
       0.048831996 0.3266766 0.111973666 -0.11401858
0001c0 8a 73 cd 3e 48 8c c2 be 6e 99 4a 3e 01 ca d2 bd
       0.40127212 -0.3799765 0.19785091 -0.102924354
0001d0 d4 32 2c be 93 19 6e 3d 49 5f d1 3c 7e 43 1e be
       -0.16816264 0.05812986 0.02555813 -0.15455434
0001e0 49 53 ea 3c b7 e0 99 3d 14 c4 9c be 46 8b 8f 3e
       0.028604167 0.07513564 -0.30618346 0.28035945
0001f0 c1 5e c2 be b7 1b 02 be d0 64 c7 3d 99 1a 2c 3e
       -0.37962916 -0.12705885 0.09736025 0.16807021
000200 dd d9 b8 3d 3d ef 51 3d 24 63 7f 3e 61 07 a9 3d
       0.09025929 0.051253546 0.24940163 0.082533605
000210 b8 8e 0d be b8 2d 15 3c 0e b8 41 3e 08 fb a5 bd
       -0.13823974 0.0091051385 0.18917868 -0.08104521
000220 37 81 84 be c2 34 3b 3e cf 3e 9f 3e 13 c2 6d 3e
       -0.25879833 0.18281844 0.31102607 0.23218565
000230 96 b5 51 3e e6 ec 6e 3d 2b 04 9f bc fe ca e7 bd
       0.20479426 0.058331393 -0.019411167 -0.113180146
000240 a1 18 05 bc 5d f2 cf 3e e2 03 78 bd e3 f0 26 3e
       -0.008123548 0.40614596 -0.060550578 0.16302828
000250 ad 9c a2 3d ff d1 a0 3e 8c 67 67 3d 83 bb e8 3d
       0.0794004 0.31410214 0.056495234 0.1136389
000260 8d 5f 4b be ed 07 80 bd 2e cf ac 3e 10 9f d3 3d
       -0.19860668 -0.06251512 0.33751816 0.10333073
000270 35 bc d8 3e 49 c2 8e 3e 86 1f a1 3e af 6d 02 be
       0.4233109 0.27882603 0.31469363 -0.12737153
000280 7e 11 45 3e bc 5b d7 3b 56 a2 08 3e bc 36 1c 3e
       0.19244954 0.006572215 0.13343176 0.15255255
000290 27 62 52 be a5 da 08 3e df 0a 71 3e 47 6f b5 3c
       -0.20545255 0.13364656 0.23539303 0.022147788
0002a0 52 0a 9f be e0 cd 0c 3e d4 01 ad 3e cb c9 d0 3d
       -0.3106256 0.1375041 0.33790457 0.10194739
0002b0 22 19 32 bd c2 66 4f 3e c6 de 49 3e 73 98 12 3e
       -0.043481 0.20254043 0.19713888 0.14315967
0002c0 4f e4 76 be ae 2f 1d 3e fc 14 b6 be 7a c2 40 3e
       -0.2411053 0.1535022 -0.35562885 0.18824187
0002d0 4b a6 ed 3d a6 3f 3b be 14 d4 ba 3d 8e 19 d5 3c
       0.116039835 -0.18285999 0.09122482 0.026013162
0002e0 ab 61 e7 bd 8b 07 c2 be 36 a1 57 3c 48 c0 32 3e
       -0.112979256 -0.3789638 0.013160994 0.17456162
0002f0 38 6d 93 3e 11 16 46 3d 22 68 89 3e 7c 55 91 be
       0.28794265 0.048360888 0.2683726 -0.28385532
000300 90 0d 9f bc b8 94 a8 be 59 c7 4d 3e 1a 5b 5b 3d
       -0.019415647 -0.32925963 0.20095576 0.053553678
000310 57 0d be 3d 98 63 9e 3d 21 8a a5 3e 20 de 1b be
       0.09279888 0.0773384 0.32331946 -0.15221453
000320 72 f3 b4 3d e0 9a 43 bd 38 d8 89 3e 0e 23 1e 3e
       0.08835496 -0.047755122 0.26922774 0.1544306
000330 ef 39 13 3e b9 75 80 3e c9 44 08 3e b5 5e 20 3e
       0.14377569 0.25089815 0.1330749 0.15661128
000340 33 f1 81 bd a0 88 22 bc f7 f9 e6 bd 29 68 4b 3e
       -0.06344833 -0.009920269 -0.11278146 0.19863953
000350 7e e3 5c 3e ef 4b 0c 3e 43 6c c7 3d 4e 9b b7 3e
       0.21571156 0.13700841 0.09737446 0.35860676
000360 50 a0 26 be 5a a3 9e be 69 24 1b 3d d1 99 92 be
       -0.16272092 -0.30984002 0.03787652 -0.28632978
000370 26 68 c1 3d d5 d6 86 bd 5a 15 a9 3e 93 2c e0 3b
       0.09443693 -0.06583945 0.33024102 0.006841251
000380 a4 0b 65 be 6e e0 59 3e 0f 9c c7 be a9 16 53 be
       -0.22367722 0.2127702 -0.3898625 -0.20614113
000390 02 71 7b 3d f5 1d 75 bd d5 6e 3c be 1c 88 cb 3d
       0.06138707 -0.059843022 -0.18401654 0.0993807
0003a0 cd 7b e9 bd 36 37 2d be 87 44 8c be c9 e2 2b 3e
       -0.11400566 -0.16915593 -0.27396032 0.1678573
0003b0 0e 88 83 3d a2 76 a4 3e 4c e9 be be ed 56 8f bb
       0.06422435 0.3212176 -0.37287366 -0.004374376
0003c0 5a 57 0b bd f1 ad a8 bd f7 1b 94 bc 81 0d 28 be
       -0.03401885 -0.08236302 -0.01807974 -0.16411401
0003d0 be 10 09 bd c9 b0 d6 bc 26 22 1e be 4c 4d a9 be
       -0.033463232 -0.026207345 -0.15442714 -0.33066785
0003e0 5a e2 a4 3e 19 1b 7a 3d e5 47 a6 be b3 0e c9 3d
       0.32203943 0.061061 -0.32476726 0.09817257
0003f0 c8 09 5e be 7b 4a e4 3d 6f 13 b1 be 3a df 63 3d
       -0.21683419 0.111470185 -0.3458514 0.055632807

fc.weight f4 [1, 32]
000000 b0 28 5c be 60 f3 a4 3d ad e6 cd bd 68 97 67 be
       -0.21499896 0.080542326 -0.100537635 -0.2261635
000010 dc 4b a3 3d 48 ee 7f 3e 61 d6 0e 3e 77 05 40 be
       0.079734534 0.24993241 0.13948967 -0.18752085
000020 8e a4 2d be c5 81 5f 3e 4e b6 fe bd ef 95 cc bd
       -0.16957304 0.21826847 -0.124371156 -0.09989535
000030 ee 76 38 3e 97 b7 a2 3d 10 b9 a3 3d 23 c5 47 3e
       0.18014118 0.07945173 0.07994282 0.19508795
000040 7a f5 78 bd d1 0e b8 3d 23 80 10 3e 13 56 f9 bd
       -0.06078098 0.08987201 0.1411138 -0.121746205
000050 3f 7b 43 3e 59 ad 02 be be 3b 74 3e b0 70 a6 3d
       0.19089983 -0.1276144 0.23850915 0.08126962
000060 8f df 2a 3e a2 e7 9e be 05 01 77 3e 96 0f bb bd
       0.16686843 -0.31036097 0.24121483 -0.09133832
000070 de 93 03 be 5a ad 92 3d b8 9b 20 3e 19 a8 00 be
       -0.12849376 0.071619704 0.15684402 -0.12564124
