atropos/trained_model/nhot/no_answer/add/15/best_acc.pt (torch, 17298 bytes, 5 tensors)

conv1.bias f4 [32]
0.023856012 -0.009560637 -0.050034776 -0.06936616 0.03192342 -0.050882313 -0.17461753 0.0443017
0.0064100944 -0.12808941 0.0059678247 -0.063629605 -0.0063323276 0.0009968821 -0.17573664 0.05441743
0.05759309 -0.08396102 0.0642785 -0.09502446 -0.1280667 0.0019832738 -0.030047813 -0.042051475
-0.020916248 -0.017297117 -0.01801448 -0.037462838 0.04322494 -0.040797867 -0.06475786 0.014509705
00000000: af6d c33c 38a4 1cbc 44f1 4cbd d80f 8ebd
00000010: 22c2 023d f969 50bd f0ce 32be b375 353d
00000020: c50b d23b df29 03be be8d c33b 3d50 82bd
00000030: 6a7f cfbb d0a9 823a 4ef4 33be d0e4 5e3d
00000040: bbe6 6b3d c1f3 abbd 72a4 833d 2f9c c2bd
00000050: eb23 03be d0f9 013b d526 f6bc 2b3e 2cbd
00000060: 8d58 abbc afb2 8dbc 1a93 93bc a272 19bd
00000070: a20c 313d aa1b 27bd c59f 84bd 1dba 6d3c

conv1.lin.weight f4 [32, 76]
-0.24264123 0.030717162 0.012720458 0.0058714617 0.061805192 -0.06326466 0.19387418 0.1500993
-0.41372693 0.17441359 0.00084548304 0.22760648 -0.15117574 -0.042749483 -0.03426705 0.071678236
-0.009002852 0.058799397 0.061594844 -0.045209244 -0.20912464 0.09627689 -0.4623849 0.23047304
0.28887957 -0.33988425 -0.19201271 0.013122735 0.009597817 -0.16800767 -0.2802013 0.21823746
0.1287065 0.306292 0.23047999 -0.40467057 -0.09425962 -0.23783973 0.15526429 -0.22263344
0.25237903 -0.026634548 0.08917677 0.62333983 0.35698918 0.19656156 0.5570333 0.13232885
0.38100162 0.32614362 0.20546748 0.31417346 0.22839858 0.25799745 0.02690813 0.09725117
0.49479267 0.24974681 0.33333 0.26464197 0.16610539 0.2183379 0.17696503 0.19971958
0.3579702 0.18231156 0.20951249 -0.07233253 0.32353625 0.040549427 0.07416314 0.16041324
0.35618994 -0.09939195 0.2292819 0.35085636 -0.028998995 -0.22208096 -0.15644072 0.14917813
0.08206485 -0.0444743 0.06414261 0.0011510453 -0.3350851 -0.005097458 -0.30532035 0.087094374
-0.01682773 -0.2159359 -0.46980137 0.1089968 -0.1946876 -0.20591931 0.19560915 0.25398815
0.040390767 0.25550503 0.027981604 0.23840553 -0.4207608 -0.5178091 0.0049780705 -0.21841446
0.08834253 0.024034984 0.09182925 0.10706377 0.046501566 0.04991749 -0.05181045 -0.07750842
-0.2624792 -0.10392258 0.3513942 -0.15245868 -0.0963176 0.09698134 0.508881 0.5679851
0.033499863 0.2506562 0.3217105 0.052373327 0.37252802 0.18107739 0.22478661 0.12158565
0.51442844 0.32827306 0.04061353 0.37213933 0.35569888 0.45955625 0.3696683 0.37485197
-0.058488946 0.057246745 0.35388935 0.032655872 0.015600995 -0.033130996 0.2894046 0.24093322
0.3119608 0.044500478 0.09297559 0.091208346 0.3984918 0.08324052 0.29815215 -0.04290404
-0.2968535 0.010215451 0.075953506 -0.09392781 -0.17103595 0.06236698 0.13006385 0.02218931
-0.08035778 -0.060415156 -0.087593146 -0.006899851 0.25524148 0.21516469 -0.011748235 -0.054422524
0.09448379 0.07345394 -0.08257469 0.006589974 0.16370322 -0.33978233 -0.14426987 -0.138319
-0.15792984 -0.29565483 0.0571626 0.21421579 -0.23438178 -0.17579666 0.3160286 0.2620408
0.41863167 0.07593977 0.051280096 0.0033899269 -0.31453535 -0.0075653195 -0.042750366 -0.08482532
0.025208922 0.28667277 0.51394033 0.2592909 0.02537597 0.389344 0.47060794 -0.034606412
0.33018026 0.35087267 0.22591265 0.09197698 0.33149546 0.38540006 0.10033154 0.19941163
0.44577068 0.35884064 0.04099969 -0.04055682 -0.07758017 0.23751414 -0.07874433 0.15169048
0.26771623 -0.032811824 -0.08297422 0.31581387 0.20107865 0.33452007 0.3160872 0.10281117
0.21996397 0.3171036 0.24319397 0.2501761 -0.17468467 0.1692623 -0.250271 0.008028199
-0.0038720092 -0.16128024 0.046449814 0.08141788 0.49626705 -0.074869834 0.0810117 0.08955525
-0.020575395 0.22536488 -0.32759866 -0.062435556 0.19990285 -0.32928714 -0.16309965 -0.116730005
0.105207 0.115551084 0.1365808 -0.03336036 0.08134916 0.5149291 0.21203269 0.50380164
00000000: f176 78be 8fa2 fb3c 7869 503c 6465 c03b
00000010: 7127 7d3d e790 81bd f486 463e a2b3 193e
00000020: 04d4 d3be 7a99 323e 68a3 5d3a ac11 693e
00000030: d0cd 1abe 151a 2fbd 9b5b 0cbd 0acc 923d
00000040: b380 13bc a3d7 703d e04a 7c3d 542d 39bd
00000050: c524 56be d12c c53d b7bd ecbe 2001 6c3e
00000060: 06e8 933e 4f05 aebe fb9e 44be bd00 573c
00000070: 2a40 1d3c 340a 2cbe 8b76 8fbe a479 5f3e
00000080: a3cb 033e 4ed2 9c3e f202 6c3e fb30 cfbe
00000090: 300b c1bd 428c 73be 9afd 1e3e 05fa 63be
000000a0: d337 813e b230 dabc 4fa2 b63d 3393 1f3f
000000b0: 49c7 b63e 6f47 493e bc99 0e3f 3781 073e
000000c0: a512 c33e 4cfc a63e 1166 523e 58db a03e
000000d0: 51e1 693e 3e18 843e 706e dc3c 9f2b c73d
000000e0: 7755 fd3e a1bd 7f3e 3baa aa3e 277f 873e
000000f0: 8817 2a3e f893 5f3e 5236 353e 4a83 4c3e
00000100: df47 b73e e2af 3a3e 718a 563e 1423 94bd
00000110: 8ba6 a53e 2817 263d d8e2 973d 5e43 243e
00000120: 875e b63e 028e cbbd e0c8 6a3e 72a3 b33e
00000130: 4d8f edbc 3169 63be ff31 20be 27c2 183e
00000140: 9e11 a83d af2a 36bd 335d 833d acde 963a
00000150: 4690 abbe 9408 a7bb f352 9cbe 895e b23d
00000160: 4fda 89bc 4d1e 5dbe ce89 f0be b739 df3d
00000170: 305c 47be 83dc 52be c44d 483e bc0a 823e
00000180: ca70 253d 8ed1 823e ad39 e53c 9420 743e
00000190: f66d d7be 238f 04bf 151f a33b 0aa8 5fbe
000001a0: eeec b43d 04e5 c43c f910 bc3d 4044 db3d
000001b0: 6d78 3e3d 4876 4c3d 3237 54bd bcbc 9ebd
000001c0: ac63 86be 5dd5 d4bd f1e9 b33e 211e 1cbe
000001d0: 2942 c5bd 279e c63d 0646 023f 7967 113f
000001e0: 2737 093d 0256 803e 3db7 a43e 6a85 563d
000001f0: febb be3e 5a6c 393e 762e 663e e601 f93d
00000200: 95b1 033f 6813 a83e 5f5a 263d 0c89 be3e
00000210: 2a1e b63e f54a eb3e 2a45 bd3e 99ec bf3e
00000220: 1b92 6fbd 907b 6a3d fc30 b53e 2ac2 053d
00000230: 519b 7f3c 5eb4 07bd d72c 943e 33b7 763e
00000240: 53b9 9f3e 2246 363d fc69 be3d 71cb ba3d
00000250: 1e07 cc3e 017a aa3d 66a7 983e 26bc 2fbd
00000260: 2ffd 97be b55e 273c 838d 9b3d 395d c0bd
00000270: 0c24 2fbe 8574 7f3d 752f 053e 5bc6 b53c
00000280: 9f92 a4bd e275 77bd 0964 b3bd 2518 e2bb
00000290: 03af 823e 2254 5c3e ab7b 40bc 27ea 5ebd
000002a0: b880 c13d 056f 963d eb1c a9bd b5f0 d73b
000002b0: d1a1 273e f3f7 adbe 7bbb 13be 7fa3 0dbe
000002c0: 5cb8 21be 1260 97be 5523 6a3d 625b 5b3e
000002d0: c701 70be 0a04 34be 80ce a13e 362a 863e
000002e0: e456 d63e 4f86 9b3d 140b 523d 8929 5e3b
000002f0: c70a a1be 80e6 f7bb 021b 2fbd e6b8 adbd
00000300: f182 ce3c c6c6 923e 9891 033f c7c1 843e
00000310: 44e1 cf3c 1958 c73e 86f3 f03e 74bf 0dbd
00000320: 630d a93e 95a5 b33e a555 673e 6d5e bc3d
00000330: c6b9 a93e 2853 c53e 9f7a cd3d 9032 4c3e
00000340: 0e3c e43e f6b9 b73e 4aef 273d e81e 26bd
00000350: 5ae2 9ebd e836 733e b544 a1bd c054 1b3e
00000360: 1a12 893e b165 06bd 63ee a9bd 5bb2 a13e
00000370: 90e7 4d3e 3746 ab3e 2ed6 a13e aa8e d23d
00000380: 3c3e 613e 675b a23e d707 793e 1517 803e
00000390: 8ae0 32be 1953 2d3e 8523 80be b588 033c
000003a0: 89c1 7dbb a626 25be 2942 3e3d 6bbe a63d
000003b0: b716 fe3e 5b55 99bd 76e9 a53d be68 b73d
000003c0: bb8d a8bc 0dc6 663e 03bb a7be 6dbc 7fbd
000003d0: 55b3 4c3e 5398 a8be 9803 27be 2410 efbd
000003e0: c576 d73d 0ca6 ec3d d6db 0b3e dfa4 08bd
000003f0: 639a a63d 65d2 033f 191f 593e 25f9 003f

conv_out.bias f4 [32]
-0.03236354 -0.027746474 0.027914383 0.03157376 0.03261818 0.021617334 0.026856326 -0.027611317
-0.025134983 0.033625875 -0.032886893 0.025750259 0.02833243 0.029442918 0.028237784 -0.030182363
0.028090177 0.02681047 0.035135727 0.040309455 -0.02719062 -0.028720666 -0.03074277 0.028699914
-0.026998442 0.029473135 -0.030747684 -0.030425573 -0.007301925 0.028573694 0.028591802 0.044824507
00000000: a28f 04bd 934c e3bc b4ac e43c 7d53 013d
00000010: a49a 053d d616 b13c cc01 dc3c 2131 e2bc
00000020: e1e7 cdbc 49bb 093d 68b4 06bd 35f2 d23c
00000030: 6a19 e83c 4632 f13c ed52 e73c 0141 f7bc
00000040: 5f1d e63c a1a1 db3c 7bea 0f3d 871b 253d
00000050: ddbe debc 9a47 ebbc 43d8 fbbc 151c eb3c
00000060: d62b ddbc a571 f13c 91e2 fbbc 0d3f f9bc
00000070: fd44 efbb 6113 ea3c 5b39 ea3c e799 373d

conv_out.lin.weight f4 [32, 32]
-0.054519776 -0.09804546 -0.24975745 0.47931653 0.3892539 -0.020050531 0.21958362 -0.02036654
-0.38857973 0.11837607 0.08689895 0.23514876 0.18382245 -0.31314766 0.3236322 0.24581318
-0.07736854 -0.036470715 0.030780736 0.35423407 0.050423082 0.42597833 -0.10835376 -0.03519098
0.47965103 0.21797849 -0.17398056 -0.05135637 -0.35317236 0.031194378 0.27724573 -0.23612624
0.11825256 -0.024326969 -0.23433857 0.014533225 -0.012421836 0.10442008 0.30312616 0.066702664
0.113139376 -0.14025271 0.021671835 -0.06648272 -0.09855917 -0.53598434 0.25580546 0.43297285
0.15939313 -0.12517944 -0.22434352 0.30766 0.14341839 0.3424744 -0.3436355 0.15056874
0.035689294 -0.25328025 0.17794204 -0.17873797 0.15269169 -0.115931354 -0.066548124 -0.47083023
0.10061847 -0.054909423 0.26793334 0.015919918 0.039505098 0.10609127 -0.3647211 0.24307775
0.19893157 0.2649812 0.10278368 -0.056691248 -0.19689593 -0.060481783 -0.17512348 -0.32635254
0.23593614 0.012244871 0.11338402 0.086688034 0.16160783 -0.11591387 0.23784988 -0.07755435
0.07457567 0.2515262 -0.18498977 0.020417333 0.27133414 0.31698176 0.039781284 -0.08520926
-0.080850475 -0.12328639 -0.14664376 -0.1641246 0.07607345 0.20523848 -0.5005097 0.051082876
-0.063338615 -0.21881072 -0.24970354 0.022896914 -0.23449177 -0.052386094 -0.05322175 0.08943446
-0.16006221 0.021238027 0.28580293 -0.12741192 -0.15344824 -0.08791096 0.34099486 -0.28422627
0.1131259 0.018935803 -0.20500344 0.28786787 0.12617628 0.09990084 -0.2583846 0.0579616
0.12850796 0.1478436 0.30410212 -0.13221648 -0.25996253 -0.28268346 -0.21759799 0.3488164
-0.053986687 0.115677945 -0.13758788 -0.1593352 0.36038512 0.3068618 -0.20291916 -0.38986576
0.07371921 -0.262321 0.08538167 -0.08745031 -0.26717043 -0.21340784 0.3641357 -0.077364415
-0.44379196 0.24470577 0.005730074 0.11680614 -0.119095296 0.048897114 -0.35887703 0.11330556
0.19604771 0.034479707 0.1253019 -0.33414707 -0.20166475 0.2460927 -0.24971378 0.21052672
0.30009106 -0.06741256 -0.31789353 -0.27190366 -0.17236397 0.052082755 -0.23786382 -0.22429566
0.109940216 -0.22444862 -0.122414365 -0.2011737 0.12497557 -0.24784486 0.3787135 -0.056665275
0.0061475965 0.08456973 0.09933402 0.3639603 0.18638802 -0.023759503 0.09847765 -0.09273527
0.2693018 0.0027429115 -0.14550382 -0.3935444 -0.23052278 -0.1809467 -0.16962095 0.1439138
0.3603452 -0.34161648 -0.107078925 -0.24751256 -0.23037988 0.19047916 0.19107996 -0.13481107
0.21176754 0.008929994 0.07964878 -0.022370951 0.05457363 -0.58225864 0.20249602 0.007384247
-0.1550293 0.25363204 -0.105865486 0.0005956856 0.01713883 0.3990046 -0.24738145 0.1349041
-0.21060263 -0.0013706362 0.12260918 0.3217413 0.38202354 0.00087700685 0.016921276 -0.32865933
-0.17991771 0.21198522 0.11952231 0.25752926 -0.29665262 -0.4769666 -0.12884906 -0.046838872
-0.030699331 -0.011377467 0.0033550477 0.14061248 0.103493825 0.2540965 0.04201338 -0.14924929
-0.07818522 -0.29458103 -0.33865383 -0.06773542 0.22345366 -0.37604254 -0.20857117 -0.35574868
00000000: 2150 5fbd 0fcc c8bd 6bc0 7fbe fa68 f53e
00000010: 4a4c c73e 0341 a4bc 87da 603e bbd7 a6bc
00000020: ecf3 c6be 276f f23d 14f8 b13d d6ca 703e
00000030: f43b 3c3e e454 a0be 1fb3 a53e 73b6 7b3e
00000040: 6673 9ebd 5162 15bd e227 fc3c 2b5e b53e
00000050: 6f88 4e3d d519 da3e 93e8 ddbd 6b24 10bd
00000060: d294 f53e c135 5f3e f627 32be 0f5b 52bd
00000070: 02d3 b4be 5a8b ff3c 27f3 8d3e 14cb 71be
00000080: 662e f23d 5a49 c7bc 73f6 6fbe c41c 6e3c
00000090: f584 4bbc 32da d53d 5a33 9b3e 689b 883d
000000a0: 9eb5 e73d 689e 0fbe 2289 b13c 1828 88bd
000000b0: 64d9 c9bd 4536 09bf eff8 823e 9eae dd3e
000000c0: f437 233e 0a2f 00be 4fba 65be 9d85 9d3e
000000d0: 45dc 123e ce58 af3e fef0 afbe b12e 1a3e
000000e0: f02e 123d f3ad 81be 7036 363e 1607 37be
000000f0: 365b 1c3e 6b6d edbd 624a 88bd a910 f1be
00000100: 0e11 ce3d b4e8 60bd 8f2e 893e 7d6a 823c
00000110: 19d0 213d 6146 d93d b9bc babe 60e9 783e
00000120: b8b4 4b3e 9eab 873e 4080 d23d 1535 68bd
00000130: 169f 49be bfbb 77bd 9253 33be ae17 a7be
00000140: 3e99 713e b69e 483c e235 e83d 7f89 b13d
00000150: 867c 253e 4064 edbd eb8e 733e d1d4 9ebd
00000160: 21bb 983d 0bc8 803e f56d 3dbe 4042 a73c
00000170: 4fec 8a3e 6f4b a23e b3f1 223d 3182 aebd
00000180: ef94 a5bd 937d fcbd c829 16be 4710 28be
00000190: 66cc 9b3d 092a 523e 6721 00bf 473c 513d
000001a0: adb7 81bd eb0f 60be 49b2 7fbe 4f92 bb3c
000001b0: 9c1e 70be cd92 56bd 0dff 59bd 6a29 b73d
000001c0: 59e7 23be 5ffb ad3c c354 923e 4578 02be
000001d0: 8921 1dbe a90a b4bd e196 ae3e 1b86 91be
000001e0: 8dae e73d 421f 9b3c 6cec 51be 6b63 933e
000001f0: 5b34 013e d098 cc3d fc4a 84be 2569 6d3d
00000200: 9797 033e 5064 173e 46b3 9b3e c263 07be
00000210: cf19 85be e3bb 90be 02d2 5ebe 1098 b23e
00000220: 2521 5dbd 8fe8 ec3d d6e3 0cbe c428 23be
00000230: 6684 b83e fd1c 9d3e 0aca 4fbe 7c9c c7be
00000240: 19fa 963d f04e 86be 96dc ae3d 2619 b3bd
00000250: 90ca 88be 9687 5abe ff6f ba3e 3c71 9ebd
00000260: b338 e3be 2694 7a3e 58c3 bb3b 0f38 ef3d
00000270: 3ce8 f3bd 5748 483d bbbe b7be bf0c e83d
00000280: bbc0 483e 983a 0d3d 244f 003e 5315 abbe
00000290: 3481 4ebe baff 7b3e f8b4 7fbe 5194 573e
000002a0: 89a5 993e 990f 8abd f1c2 a2be f536 8bbe
000002b0: 2e80 30be ba54 553d 9392 73be c3ad 65be
000002c0: 5628 e13d dcd5 65be 62b4 fabd 7a00 4ebe
000002d0: 31f3 ff3d 0bcb 7dbe bce6 c13e d919 68bd
000002e0: c771 c93b e532 ad3d a26f cb3d 0159 ba3e
000002f0: 80dc 3e3e 4aa3 c2bc a6ae c93d fdeb bdbd
00000300: ede1 893e 6bc2 333b f4fe 14be a77e c9be
00000310: 2a0e 6cbe 174a 39be 1db1 2dbe 245e 133e
00000320: 2b7f b83e 5be8 aebe 324c dbbd ef73 7dbe
00000330: b4e8 6bbe f80c 433e 77aa 433e ea0b 0abe
00000340: 97d9 583e 1c4f 123c e61e a33d 4943 b7bc
00000350: 9988 5f3d e70e 15bf 1e5b 4f3e 8ef7 f13b
00000360: 00c0 1ebe 0fdc 813e 01d0 d8bd c927 1c3a
00000370: bb66 8c3c 554a cc3e 9051 7dbe 4d24 0a3e
00000380: 37a8 57be eba6 b3ba 861a fb3d 47bb a43e
00000390: 9798 c33e efe6 653a 7d9e 8a3c 0946 a8be
000003a0: 593c 38be a712 593e 1dc8 f43d e0da 833e
000003b0: dae2 97be f734 f4be 02f1 03be 1eda 3fbd
000003c0: 2a7d fbbc 8e68 3abc 5ce0 5b3b b8fc 0f3e
000003d0: 92f4 d33d f018 823e 3916 2c3d ced4 18be
000003e0: 931f a0bd 53d3 96be 0964 adbe deb8 8abd
000003f0: 09d1 643e a688 c0be ae93 55be b124 b6be

fc.weight f4 [1, 32]
-0.27140647 -0.15237601 0.17033505 0.16678931 0.34091106 0.19132617 0.25830635 -0.24990861
-0.14471246 0.16640167 -0.44712886 0.13140742 0.2260247 0.0771842 0.27320015 -0.23262928
0.24031927 0.15372811 0.20258117 0.27316472 -0.21289174 -0.3272568 -0.2506195 0.25669467
0.15727042 0.38596386 -0.26072854 -0.030668825 -0.24045756 0.24510132 0.28449342 0.29235554
00000000: caf5 8abe 7508 1cbe 506c 2e3e d1ca 2a3e
00000010: e58b ae3e 02eb 433e bb40 843e 0be8 7fbe
00000020: 812f 14be 3365 2a3e 13ee e4be ab8f 063e
00000030: 0573 673e c012 9e3d e4e0 8b3e 5f36 6ebe
00000040: 4116 763e e76a 1d3e 7071 4f3e 3fdc 8b3e
00000050: 4b00 5abe 348e a7be 3351 80be 7c6d 833e
00000060: 7f0b 213e 0e9d c53e 367e 85be 303d fbbc
00000070: 823a 76be d7fb 7a3e 1fa9 913e a0af 953e
