atropos/trained_model/onehot/no_answer/9/best_acc.pt (torch, 13330 bytes, 5 tensors)

conv1.bias f4 [32]
000000 6d a9 9b 3c 19 0d 01 bc a9 51 f1 3c 6e b1 8a 3c
       0.019001687 -0.007876658 0.029457884 0.016930308
000010 cf d9 c1 bc fe 39 16 bd 80 05 2c 3d a9 8e 31 bd
       -0.02366343 -0.0366764 0.041997433 -0.043348942
000020 ca 3a 3f 3b 93 38 d4 3c 17 4b ec bc 06 d2 13 3c
       0.0029179328 0.025905883 -0.0288444 0.009022241
000030 3b 44 0d bc a7 ed 0c bd 85 e6 93 bc 06 f6 a0 3c
       -0.008622224 -0.03440633 -0.018054256 0.019648563
000040 92 56 c3 bc d7 cf bb 3c d0 93 dc 3a 88 1d c4 3d
       -0.02384499 0.022926254 0.001682872 0.09575945
000050 51 fb 17 bd 03 c5 86 bd 52 21 17 bc ab 6d 38 3c
       -0.03710491 -0.06580546 -0.009224253 0.011256616
000060 89 fa 79 bc d6 b8 ea bc 18 a3 1d bd fc 14 78 3c
       -0.015257486 -0.02865259 -0.038485616 0.015141722
000070 76 81 03 bd ec e2 1a 3d 7a 2e 06 bb 46 02 63 bc
       -0.032105885 0.037814066 -0.002047448 -0.0138555225

conv1.lin.weight f4 [32, 45]
000000 f3 53 3f bd d0 fe 9a bd d2 44 4e 3e af 79 b6 bd
       -0.04671092 -0.07568133 0.2014344 -0.08909928
000010 01 7e 05 bd 71 86 c1 3c 1d e3 d8 bd 3d 9d 1f 3d
       -0.03259087 0.023623677 -0.105901934 0.038968313
000020 9f 7e 03 be 49 eb 16 3e 05 19 86 3e ea cb b4 bd
       -0.12841271 0.14738192 0.26190963 -0.08827956
000030 6c ca 8a 3e 37 c4 da bd 1b d9 cd bd 56 dd 99 3c
       0.2710756 -0.10681956 -0.10051175 0.018782299
000040 6d 5d c6 3d 59 4f 8a 3e 9b 6c 80 bd 3d 38 8e be
       0.09685788 0.27013662 -0.06270715 -0.2777728
000050 4f aa 81 3d d4 37 b9 3d c6 ce a1 3d 49 37 c1 3d
       0.06331312 0.090438515 0.07900767 0.09434373
000060 37 8f 83 be 1d cc e2 be 1d df 0d be 5d bf 8b be
       -0.25695202 -0.4429635 -0.13854642 -0.27294436
000070 da c4 60 be 68 2f 93 bd eb 10 14 bd ef d7 55 be
       -0.21950093 -0.071867764 -0.036148947 -0.20883153
000080 ce 40 17 3d 74 f7 c1 bd 9a 32 ef bb e3 d2 07 be
       0.036927037 -0.09471026 -0.0072997333 -0.1326404
000090 bf 58 fa bd 7c 33 14 3e 34 94 87 bd df 56 a0 3e
       -0.12223958 0.14472765 -0.066200644 0.31316277
0000a0 e2 af 87 be 98 bb b7 bd c6 6b fc bd 6d c4 a3 3e
       -0.26501375 -0.089713275 -0.12325244 0.31985798
0000b0 91 3e ad 3e 21 89 09 3e 99 f2 d4 3d 05 16 66 be
       0.33836797 0.13431217 0.10397834 -0.22469337
0000c0 3c c8 46 be ad 2e 3d 3e 94 2b a6 be 5d c2 a7 3c
       -0.19412321 0.18474837 -0.32455122 0.020478422
0000d0 0e fe 3b be 0d 33 27 3c 36 cd b1 bd 26 d8 86 3e
       -0.18358633 0.010205043 -0.08681719 0.26336783
0000e0 88 ad 0c 3e ee 23 c5 3d 45 a4 82 3d 47 2d 11 3e
       0.13738072 0.09625994 0.06378988 0.14177428
0000f0 68 20 ec 3d 3a 81 54 bb 0d 10 81 bd 22 3c 91 bd
       0.115296185 -0.0032425658 -0.063018896 -0.070915475
000100 83 d2 2e 3e 25 45 9c 3c d5 58 04 3e 53 07 1f be
       0.17072491 0.01907594 0.12924512 -0.15530138
000110 f8 23 54 bd ba 70 f3 bd a7 84 24 bd 99 c9 86 3e
       -0.051792115 -0.11886735 -0.04016557 0.26325682
000120 28 dd ca bb 08 59 e8 bd f6 9d 7a 3d 5f 97 8b 3e
       -0.0061909147 -0.11345106 0.0611858 0.27263924
000130 6f 0a 2a be bb 63 4d bd 18 6f 05 be 62 ec 73 3e
       -0.16605543 -0.05014394 -0.1303066 0.23820642
000140 dc e6 93 3d ba d6 74 3d 29 16 2c 3a ef 88 0c 3e
       0.07221767 0.05977509 0.00065645814 0.13724111
000150 b7 b6 fe 3b 29 02 78 be 84 aa af 3e 76 cb c9 bc
       0.007773246 -0.24219574 0.3430978 -0.02463315
000160 07 f8 ca 3d 70 80 32 be da 1c df 3c dc 74 d0 3d
       0.09910589 -0.17431808 0.027235437 0.10178539
000170 ce 8d 88 3d a7 e4 8a 3e 9e c7 3c be dc 92 a2 3c
       0.06667672 0.27127573 -0.18435523 0.019845419
000180 e5 7d 01 3e c5 1e 3f 3d 1a 5e 89 3e 64 48 3c 3e
       0.12645681 0.046660203 0.26829606 0.1838699
000190 b6 75 4a bd 88 73 eb bd dc bc a2 be fc 62 63 bd
       -0.049428664 -0.11496645 -0.31784713 -0.05551432
0001a0 54 f3 1c 3e d9 de 1e 3e 61 ec 51 3c 6a 73 99 bd
       0.15327197 0.15514697 0.012812705 -0.074927166
0001b0 25 f5 87 3d 3f 35 22 3e bd 37 b1 3c 8b b8 53 bd
       0.066385545 0.15840624 0.021633023 -0.051689666
0001c0 49 41 8b 3e 87 fd a3 3e 70 e5 a5 3e db ef 9a 3d
       0.27198246 0.32029364 0.3240161 0.0756528
0001d0 ca 30 67 be a1 66 13 3f ac cb 0c 3e 75 ce 06 be
       -0.22577205 0.57578474 0.1374957 -0.13164695
0001e0 42 f9 31 be 8b b9 01 3c 00 ad d3 be bd 6e df bd
       -0.1738024 0.007917772 -0.41342926 -0.109097935
0001f0 90 5d dc bc ab fe c5 bc e5 14 b2 3e 16 00 82 bd
       -0.026900083 -0.024169287 0.34781566 -0.06347673
000200 26 f3 4d be 61 f5 b6 3d 71 24 f1 bd 88 3c 3e 3e
       -0.20112285 0.08933521 -0.11774529 0.18577778
000210 3d 46 32 be 7e 50 67 3c 36 67 fc 3d 0a c9 53 3e
       -0.17409606 0.014118312 0.123243734 0.20682159
000220 91 e9 56 be 49 50 66 3e 08 5f 29 be c0 7f 92 be
       -0.20987536 0.22491564 -0.16540158 -0.2861309
000230 fe 22 8d bb 76 2f 57 be 5c 8a 82 bd 38 5f 88 be
       -0.00430715 -0.21014199 -0.06374046 -0.26635146
000240 90 bd 16 be 9d 5f 17 be 97 f2 3a be 03 6b 56 3e
       -0.1472075 -0.14782567 -0.18256603 0.20939259
000250 e8 c2 41 be 42 52 ec bd 43 cc 31 bb 43 9e 0e bc
       -0.18922007 -0.11539127 -0.0027129806 -0.008704725
000260 e2 38 66 ba 95 48 69 bc f0 5f 84 bd 82 f9 66 be
       -0.000878228 -0.014238496 -0.06463611 -0.22556117
000270 d6 b4 7a 3d ec 08 21 be 3f c2 ae 3e 9e 40 97 3e
       0.061207615 -0.1572606 0.34132573 0.29541487
000280 53 01 05 3f dd c8 a9 be eb 6d 80 3e 46 dc 6a 3e
       0.51955146 -0.3316106 0.2508386 0.2293559
000290 23 9c 5b 3e 3b fe 80 be 8a c0 65 3d 67 e2 f7 bd
       0.2144628 -0.25193962 0.056091823 -0.1210373
0002a0 76 c3 9b be 78 6d 07 3c 64 fa c1 bd 16 a1 9d be
       -0.30422562 0.0082658455 -0.09471586 -0.3078696
0002b0 90 9e 8a bc f8 03 b4 bd 94 0e bf 3d 5b 9b eb bd
       -0.016921312 -0.087898195 0.093289524 -0.11504241
0002c0 a5 d7 d6 bd 2e 11 77 be d7 d4 49 be e6 3c 33 3e
       -0.1049035 -0.24127647 -0.19710098 0.175037
0002d0 0b 3a 2e 3d 46 2f a1 3e 48 72 75 3e dd b0 90 3e
       0.042535823 0.3148138 0.23969376 0.28259936
0002e0 ec 0b 58 3e 18 a9 30 3e 37 4a 68 be 1a 0f 8b bd
       0.21098298 0.17252004 -0.2268456 -0.0678999
0002f0 fe 20 66 bc d3 d7 a8 be 7f 8f c0 bd 8a 99 a8 bc
       -0.014045952 -0.3297716 -0.0940237 -0.020581026
000300 41 8d 5c be ce dc b9 bb 76 d4 5c 3e 8c 9b fc 3c
       -0.21538259 -0.005672074 0.21565422 0.03083589
000310 9f 6b 06 3e 4e a4 22 3d bd 72 3f 3e 63 58 02 3e
       0.13126992 0.039707474 0.18696113 0.1272903
000320 b3 bc 80 3d 05 9c e6 3d f2 a8 0f 3e 0d dd ac 3e
       0.062859915 0.11260227 0.14029291 0.33762398
000330 a7 28 61 3e f8 f6 0f 3e ea 4d 6e bd 7f 58 12 3f
       0.21988164 0.14059055 -0.058179773 0.57166284
000340 2d e3 1e 3d 01 2b f0 bd 9a c4 92 be 11 3a 1b be
       0.03879087 -0.11726952 -0.2866562 -0.1515887
000350 04 1e 88 bd b2 16 12 be 32 70 a9 be 01 f7 9d be
       -0.0664635 -0.1426647 -0.3309341 -0.30852512
000360 c2 00 d2 3d 80 90 82 3e e5 af 9c 3e f9 3f b0 3e
       0.10254051 0.2550087 0.30602947 0.34423807
000370 75 86 6f bd 39 50 70 be c2 18 d1 bc f8 1d b9 bd
       -0.058477838 -0.23468103 -0.0255245 -0.09038919
000380 a3 f8 81 3d c1 77 32 3e 7e 2f 71 be b9 ee 6f 3d
       0.06346252 0.17428495 -0.23553273 0.058577273
000390 f6 9f fa bd 3d 58 ac 3c 5f f6 f1 3d 32 45 0d 3e
       -0.122375414 0.021038169 0.1181457 0.13795927
0003a0 cc 3a e8 bd aa 78 59 be da c6 75 3d 97 f5 5e 3e
       -0.113393396 -0.21237436 0.060004093 0.21773373
0003b0 27 26 d5 be 1e 8d 05 be 75 f7 03 3d 56 2b 50 3e
       -0.4163067 -0.13042113 0.032218415 0.20329031
0003c0 22 3e d0 3b de ca 39 bd 3c fd 50 bd 8b ea b5 3d
       0.006355063 -0.045359485 -0.051022753 0.08882626
0003d0 24 05 36 3e a1 03 f2 3d 87 6d ef 3d 39 bf 19 bd
       0.17775398 0.118170984 0.116908126 -0.03753588
0003e0 0e 99 7e be 30 3e e6 3d 11 43 5e 3d 95 dc 87 3e
       -0.24863073 0.1124233 0.05426318 0.26535478
0003f0 3f 39 26 be c5 41 ac be 51 fe 7d 3e 95 69 1f 3e
       -0.16232775 -0.33643928 0.24804045 0.1556762

conv_out.bias f4 [32]
000000 e2 4a ee bc 99 e8 f9 3c 28 a3 88 3c 44 a6 ec 3c
       -0.029088441 0.030506419 0.016679361 0.028887875
000010 de e4 e1 bc f2 ad fc 3c 27 4b 32 3d a0 98 b9 bc
       -0.027574953 0.030844662 0.043528702 -0.022655785
000020 e7 f6 0a bd 90 6b 04 bd de 6a 01 bd ba 9b 13 bd
       -0.03392687 -0.032329142 -0.031596057 -0.036037184
000030 49 b6 34 3d e0 3d 25 3d c6 c5 2f bd 1e 29 04 bd
       0.044119153 0.04034221 -0.04291322 -0.032265775
000040 ce 77 02 bd ee e2 f9 bc 21 96 09 bd 09 35 f1 bc
       -0.031852536 -0.030503716 -0.03359044 -0.029444234
000050 2a f6 a4 3c ad 8c 0f bd 43 22 06 bd 7e ea fe bc
       0.020136911 -0.03504627 -0.03274752 -0.031117674
000060 40 0b de 3c 4f f8 ff 3c cb c6 b8 bc 8e 4d 0d bd
       0.027104974 0.031246332 -0.02255573 -0.03449779
000070 7d 84 ba 3c ec 32 e2 bc 65 f9 16 bd bd 9d fc 3c
       0.022768253 -0.027612172 -0.036858935 0.030836934

conv_out.lin.weight f4 [32, 32]
000000 d4 80 3d 3e 88 09 da bc db cb 66 be 54 d4 05 3c
       0.18506175 -0.026615873 -0.22538702 0.008168299
000010 ea da 65 3e 3b 5e 63 3d d9 11 6b 3d cd 6b 24 3e
       0.2244679 0.055509787 0.057390068 0.16056748
000020 f2 ee 29 3e 04 4c b9 be 77 bc f9 3d 07 d1 e6 3d
       0.16595057 -0.36190808 0.1219415 0.112703376
000030 5e 80 86 bd 26 55 7f bd 97 c2 51 be 2e 42 8e be
       -0.06567453 -0.062337063 -0.20484386 -0.27784866
000040 f4 04 07 3e 18 17 8b 3e bc 2d 64 3d 9f c2 48 be
       0.13185483 0.27166057 0.05570768 -0.19605492
000050 ce 88 ed 3d b0 07 1d be 96 db 08 3e 55 9c ff 3d
       0.11598359 -0.15334964 0.13365015 0.1248099
000060 e5 a0 50 be 2f 11 3f bd 0a b2 02 be d7 92 1c 3e
       -0.20373876 -0.046647247 -0.12763229 0.1529039
000070 19 53 6e 3e 92 85 98 be 4c 39 67 3d 85 1d 84 3d
       0.23273887 -0.29789406 0.056451127 0.06450943
000080 fc 58 aa bd 26 7b 97 be cf 8d 09 be aa 6b fd bd
       -0.08317754 -0.29586142 -0.13433002 -0.12374051
000090 da b8 44 be cf a3 6e be 9d f3 50 3e 0e bc aa 3d
       -0.1921114 -0.23304676 0.20405431 0.0833665
0000a0 53 93 24 be 5d 28 3d 3e ca 23 7f be 47 ef 0b 3e
       -0.16071825 0.18472429 -0.24915996 0.13665496
0000b0 ec 98 46 3e 94 14 60 3e 2c 6d f3 bc 41 cb 4d be
       0.19394273 0.2188285 -0.029715143 -0.20097066
0000c0 5b c8 f5 3d b3 e3 9c 3d 77 f7 9e 3e c7 06 df 3e
       0.120011054 0.07660618 0.31048176 0.43559858
0000d0 5b f8 16 3e 0e 2e 19 bc 61 24 8a 3e 03 af dd bc
       0.14743178 -0.009349359 0.2698088 -0.027060991
0000e0 22 89 e3 bd de d2 03 3e 60 41 af be e5 e7 a5 be
       -0.111101404 0.12873408 -0.34229565 -0.32403484
0000f0 6c 02 3b bd 7a e9 a6 3e 31 34 84 3e 3d 39 5f be
       -0.045656607 0.32600003 0.2582107 -0.21799178
000100 5b 22 a9 3d 0d be 9d be fd 56 8c 3e 0a d1 d2 3d
       0.08258506 -0.3080906 0.27410117 0.10293777
000110 58 61 3a 3e eb 7d 31 3e 76 c1 12 3e 31 25 b2 3d
       0.18201196 0.1733319 0.14331612 0.086985
000120 9e ca 38 3e 8b a3 6c 3d 6c 57 d3 bd 6b f3 56 3e
       0.18046042 0.057773154 -0.10319409 0.20991294
000130 27 1c 4e bd 9d 4d 2e be 06 8b 43 3e 1c dd 1c 3e
       -0.050319817 -0.17021795 0.19096002 0.15318722
000140 78 7b 34 3e a6 c8 9f bd dd bb 08 3e 45 8d 42 3e
       0.17625225 -0.078019425 0.13352914 0.18999203
000150 c6 27 ea bc b7 40 83 bd 28 8a bb bd e3 35 5e 3e
       -0.028583419 -0.06408828 -0.091572106 0.21700244
000160 52 82 3a be 9e ad 00 be fa 9a 39 3e 0d 2f fa 3d
       -0.18213776 -0.1256623 0.18125525 0.122160055
000170 8b ab 67 3e 12 33 df 3e 22 82 00 be 3a 74 85 be
       0.22624032 0.4359365 -0.12549642 -0.26065236
000180 18 6c a0 be 99 68 0a bd d4 0f 4d 3e df 6d 30 be
       -0.3133247 -0.03379116 0.20025569 -0.17229412
000190 b4 25 7c be 6e 89 b1 3c 27 34 db 3c 6f 3a 72 be
       -0.24623758 0.021671977 0.026758267 -0.23655103
0001a0 b0 52 59 be 3f 85 27 be 59 91 05 3e e5 77 ac 3e
       -0.21222949 -0.16359423 0.13043727 0.33685222
0001b0 a2 6a d0 bd 51 1c 20 3e 0d 5a 74 3e c9 4f f8 3d
       -0.101765886 0.15635802 0.23862477 0.12124593
0001c0 d1 34 59 3d bc 1a f5 3d ca 3a a9 bd 9c aa a6 3e
       0.053028885 0.1196799 -0.08263166 0.3255204
0001d0 48 e9 56 be cb 9c 36 3e 38 d0 69 3d 8b bf 93 3c
       -0.20987427 0.1783325 0.05708334 0.01803567
0001e0 4e 61 38 3e 15 57 89 3e 89 24 28 bd d7 ab 1b 3e
       0.18005869 0.2682425 -0.041050468 0.1520227
0001f0 e7 bf 4f bd 56 54 d8 bd 49 99 89 be 6b 7b 8b be
       -0.05072012 -0.10562961 -0.2687476 -0.27242598
000200 91 6e 1b be 52 a5 24 3e 43 8a 6f 3e 8e d8 29 3e
       -0.15178896 0.1607869 0.23392586 0.16586515
000210 e5 66 34 be cc a7 8f 3e 4d 81 85 be 53 87 0f be
       -0.17617376 0.28057706 -0.2607521 -0.14016466
000220 2f 1a e2 bd 09 11 30 bd 7f 0f de 3d d6 5a f8 bd
       -0.110401504 -0.042984996 0.108427994 -0.121267006
000230 f6 1d 8e bc 2b 43 4f bd bc c4 5a be 33 27 9a 3c
       -0.01734827 -0.050601166 -0.2136411 0.01881752
000240 ed b3 60 3e 35 ed 0b bd b5 1e 95 3c d8 ea 56 be
       0.21943636 -0.034161765 0.018203119 -0.20988023
000250 2a 82 2f be f6 e6 96 3e 30 9e b9 3d c4 be 94 bd
       -0.17139497 0.29473084 0.09063375 -0.07262948
000260 b8 e5 0a be f7 80 bc bd 1c 2e ab bd f7 9b ac 3e
       -0.13564193 -0.092042856 -0.08358404 0.33712742
000270 90 6b 0b be 45 4b d8 be 78 62 06 3e 80 0b 1e be
       -0.1361525 -0.42244926 0.131235 -0.15434074
000280 41 b8 33 3e 03 39 f1 bd 87 28 07 be fa 31 4f 3e
       0.17550756 -0.11778452 -0.13199054 0.20233908
000290 2e 43 06 3c 86 6f 73 3e db c9 4f 3e 55 14 62 be
       0.008194728 0.23773012 0.20291846 -0.22078069
0002a0 80 da 48 be 82 f5 aa 3e af b9 31 be 07 d1 20 be
       -0.19614601 0.33390433 -0.17355989 -0.15704738
0002b0 9e 95 e0 bd 03 e3 80 be 95 29 25 3e 5b c5 56 bd
       -0.10966037 -0.25173196 0.16129144 -0.052434307
0002c0 c5 32 95 bd c8 36 d9 bd b4 95 5d 3e b6 e3 8c 3e
       -0.07285074 -0.10606152 0.21639138 0.2751748
0002d0 d2 63 46 bd 10 62 09 3e 7d d3 70 3e 08 75 ac bd
       -0.04843504 0.13416314 0.23518176 -0.084207594
0002e0 4c 40 ae be 75 2b 81 bd e8 6e 51 bd d3 82 98 be
       -0.3403343 -0.06307117 -0.05113116 -0.2978731
0002f0 74 3a c3 3d 64 19 88 3e 99 92 ed 3d 00 fa 19 3e
       0.095326334 0.26581872 0.11600227 0.15036774
000300 6a 12 d6 3d 07 43 02 be 22 85 f3 3d 60 50 66 be
       0.10452731 -0.12720881 0.118906274 -0.22491598
000310 af 2e 13 be 94 fb 23 be 51 33 6d 3e 3d 3a bd bd
       -0.14373277 -0.16013938 0.23164107 -0.09239624
000320 b9 96 8f be 46 49 71 be 96 1a 2a be 89 a9 8b 3e
       -0.2804468 -0.23563108 -0.16611704 0.27277783
000330 79 d7 33 3e 3d 5e 5e be 87 24 9b bd a1 32 0c 3c
       0.17562665 -0.21715637 -0.075753264 0.008556993
000340 1c 14 48 be 4a 0d 54 3e f8 94 b7 3e bb bb 27 3e
       -0.19538921 0.20708194 0.35855842 0.16380207
000350 90 9f 17 be 5b a3 96 bd de a9 58 3e 95 f1 70 be
       -0.14806962 -0.07355376 0.21158549 -0.23529656
000360 27 78 84 be 80 3d 66 3d b2 7d a4 be 1e c3 04 3e
       -0.2587292 0.056210995 -0.32127148 0.12965056
000370 a2 1a 15 3e d5 25 02 3f eb cb 83 bd 6b 8b 26 3e
       0.14560941 0.5083898 -0.06435379 0.16264121
000380 8e 77 2e be 9c f5 7b 3e 5a d8 23 3d cf ad 8c be
       -0.17037794 0.24605411 0.04000125 -0.27476355
000390 c7 67 59 be ef 35 21 3e e8 3b b0 be b9 13 65 3c
       -0.21230994 0.1574323 -0.34420705 0.013981753
0003a0 07 49 9e 3d 6a 7a 5d 3e 33 5b ba bd 85 c4 b6 bc
       0.077287726 0.21628729 -0.09099426 -0.022310505
0003b0 2a 0c 8b be b7 80 ef 3d c7 20 98 be 4d a8 47 3e
       -0.27157718 0.11694472 -0.29712507 0.19497795
0003c0 f9 b4 ae 3e 8d 90 3e be aa 9a b6 be 1e d6 50 3b
       0.34122446 -0.18609829 -0.35664874 0.0031865905
0003d0 77 73 8f be e1 b6 54 3e 4f f0 e9 bc f1 14 08 be
       -0.2801778 0.20772888 -0.02855697 -0.13289239
0003e0 79 76 33 3e ac 00 89 3d 9c 0b 6f be 6f 59 59 be
       0.17525662 0.06689581 -0.23344272 -0.21225522
0003f0 6a 1a b6 3d dd 86 05 3d 17 7e 06 3e 1c 3b 93 3e
       0.08891757 0.03259932 0.13134037 0.28756034

fc.weight f4 [1, 32]
000000 14 d5 30 3e f9 5a ee bd 03 32 20 bd 36 0f 5a bd
       0.17268783 -0.116384454 -0.039110195 -0.053237163
000010 fe 75 cd 3d 9f d5 63 be c0 41 26 bd 60 d7 8c 3d
       0.10032271 -0.22249459 -0.040590048 0.06877017
000020 b3 00 d2 3d 33 f9 aa 3e b5 af 75 3e 6f 8d 3d 3e
       0.102540396 0.3339325 0.23992808 0.18510984
000030 9b 2e dc bd c7 ed f4 bd 19 4a f7 3d df 10 6e 3e
       -0.10751077 -0.11959415 0.1207468 0.23248623
000040 1d 78 6d 3e 34 40 37 3e 35 1b 59 3e b6 63 ac 3d
       0.23190351 0.17895585 0.21201785 0.08417456
000050 f6 4e dd bc 0d 8d 25 3e e9 d7 14 3e 33 4a 71 3e
       -0.02701519 0.16167088 0.14535488 0.23563461
000060 6f 9b 2e be e8 7e 92 be 51 fe 46 3d f3 e3 1c 3e
       -0.1705148 -0.28612447 0.04858238 0.1532133
000070 fb 9e 38 bd 89 3e 22 3e 5d 10 af 3d ee e5 86 be
       -0.04507349 0.15844168 0.08548043 -0.26347297
