atropos/trained_model/nhot/no_answer/not_add/2/best_acc.pt (torch, 13842 bytes, 5 tensors)

conv1.bias f4 [32]
00000000: 92d4 65bd 8e03 43bd 6ccb 53bc 35ba 6f3c
00000010: 82c6 ccba d4d2 b1bb bd33 fe3c d8d9 943c
00000020: 6677 53bd de2e 5bbd 22ce a23c 74b7 a33c
00000030: 0755 0ebc 978b 0cbd 7380 94bd 75d5 7a3c
00000040: 5582 42bc de41 8cbd 46dc c4bc eff8 da3c
00000050: f58b a13c da18 a63b 2883 513b e375 b2bd
00000060: 6099 c5bc 3019 6ebd 6341 16bc f9f0 563d
00000070: 73b9 fe3c 7ecf 933d d69e 8f3c 6e89 f1bc
-0.056110926 -0.047610812 -0.0129269175 0.014631798 -0.0015623125 -0.005426744 0.03103053 0.018170282
-0.05162754 -0.053511493 0.019873682 0.019984938 -0.008687264 -0.03431281 -0.07251062 0.015309681
-0.011871894 -0.06848501 -0.024030816 0.026730029 0.019720057 0.0050688805 0.0031969044 -0.08713891
-0.024120986 -0.05812949 -0.009170863 0.052475903 0.031094288 0.0721731 0.017531794 -0.029484477

conv1.lin.weight f4 [32, 49]
00000000: 0120 463e 5a34 83be 257a 20be 01c6 743e
00000010: a09a 99be 5610 f33b 17f6 823d e123 6c3e
00000020: bd90 bcbe 4bc5 48be afbe 263e 27fb 763d
00000030: b4f7 83bd 7c73 a43d 5cd8 2abd 49cc 473e
00000040: c58f 4cbc a26e 5f3e 00ea 5a3c e68c e03d
00000050: 6cda 60bd 651e 043e 8855 4ebe 1d34 03be
00000060: 7332 92be dbfd b3bc 8281 463e 1172 3cbe
00000070: 5378 32be 582e a6bd 80f3 d3bd f0f8 1c3c
00000080: afa3 88be a250 063e e4cd 02be d4af 14be
00000090: 9cd5 153e 5a3f 82bd 5d39 b83e 4141 8b3e
000000a0: 3a97 603b ef61 543d 6159 32be 6747 79bd
000000b0: 23bc bfbd b8f1 5bbe f0be 863e 3610 89bd
000000c0: 633a 063e a35e 703e dc61 cabd 7008 11bd
000000d0: 271d c2bd 1b6f dfbd 483e 3ebd abcc acbd
000000e0: 9791 d6be d9c1 cc3e 990b 683d 393a e63d
000000f0: a76b a5bd 17f6 7bbe 69e1 50bd 165d 893e
00000100: df14 093d 8ba5 543e 5cd4 243e 6606 55bd
00000110: c7d6 c33d 5de4 6c3e 3d66 2bbe 855b 073f
00000120: 936e 1bbe 4619 2b3d d57e 493e 6b46 07bc
00000130: 5707 c23e b54c 2dbc 3297 0b3e 8fe8 f7bc
00000140: b8e9 32bd b1c8 c8bd d5d0 ba3d 52e7 833e
00000150: 4854 a23d bc2a 443e cfd7 ac3e b930 b13d
00000160: dba8 c0be 7fb6 95bc 9861 93be b966 c53d
00000170: f4c0 e4bd 6f7a 503d f064 83be 69de e4bd
00000180: 5da3 a0bb 6686 fbbd 6d5f b5bd 88c8 66be
00000190: d8fa 1b3e 3572 873e 1c76 c23d eb6f 013e
000001a0: d05e 84be c861 22be 9a05 96be 9969 403e
000001b0: 18fb 213c 1ec2 e03d b5be d13d d462 29bd
000001c0: 1a75 783d 4f05 5b3e 8f60 d33d 9325 373e
000001d0: 0857 0c3e f884 163e 6166 113e a19e a83d
000001e0: daf1 46be e5fc 5d3d a43d 87bd 9573 6dbd
000001f0: d348 293e 89f1 2d3d e0a3 70be dad7 7abe
00000200: 9494 663e 4644 3d3e 0b7a 433b 09d5 50be
00000210: 397e 073e 1b92 363e a0e6 f3bd 65ca 36be
00000220: 1861 fabd 8a90 033e 413e e6bd b2ea 843e
00000230: 53f6 1e3e 280d 093e b9ab 853e 05e4 20bd
00000240: 779f 913e 7d4f 8c3d 3d95 34bd 672b 9abe
00000250: a4c0 053e 236e 82be f46e 9c3d 6208 893d
00000260: 457c 513c 3cf2 2dbe 5f17 043e c504 593d
00000270: d4e2 213e 39e9 0d3c 08c7 d0bc 01a8 56be
00000280: 8a99 4fbe f555 f93d fdb8 443e 9a52 08bc
00000290: bfcc 153e d14e 44be 635f 72bd 8cda 28be
000002a0: cc9a 7d3e 0858 a6bc 8952 97bc 4b9f cb3d
000002b0: dec9 19bd 632f 68be 7aab 243d c7fb 603e
000002c0: 8de8 5fbd 5e8a dc3c bb44 b33e 8947 68be
000002d0: fce2 e83d 67cd 0e3d 7097 363e a2fc 5f3d
000002e0: 10b5 73be 4246 17be 39e2 efbd 1743 193e
000002f0: 36f3 a83e dcc1 12be d960 ed3c e21e 48be
00000300: b0b8 8dbd ddad 34be 6065 0f3d aeda 2d3e
00000310: 40d6 aebe 3ce7 7abd 9980 003b 02a3 01be
00000320: 6c93 5f3e a93b 733c d874 2e3e d1e4 c2bd
00000330: 3b46 88bc 31a4 cf3d 4c8c 8e3b e913 273e
00000340: 079c 2cbe 6360 433e cd56 6abe 62e5 a9be
00000350: f2b6 d4bd 3029 75be 44f0 0f3e 3f6b 853d
00000360: 850b 51bc dd89 523e 02ad 8bbd 321e 1cbe
00000370: 9b2c da3d 2c31 1fbe 9228 e2bc e48f 52be
00000380: fe82 91be 8c65 d4be 9c45 31bd 6d03 67be
00000390: 468c 0cbe 96b6 b13d 9e4d 5c3d 568d 6abe
000003a0: 193b 153e 0ae4 663e 0aa0 393e 127b 9b3d
000003b0: e8e7 813d 8157 2e3e a89b 7cbd 19b3 ac3e
000003c0: e734 b63d 4061 133e db44 a23e dff0 833e
000003d0: 40a5 9fbd 3ef1 793e e5bb d93d a787 d0bd
000003e0: eaad a7be d1a6 473e 2f15 52be bfc1 5e3e
000003f0: cb23 d33d 9bd2 923e 2763 003e fdc1 5fbc
0.19348146 -0.2562588 -0.15671594 0.23903657 -0.30000782 0.007417719 0.06394594 0.23060562
-0.36829177 -0.19606511 0.16283678 0.06029811 -0.0644373 0.080298394 -0.041710243 0.19511522
-0.012485449 0.21819547 0.013361454 0.10964374 -0.054895803 0.1290222 -0.20149815 -0.12812848
-0.28554115 -0.021971634 0.19385341 -0.18402888 -0.17428713 -0.08114308 -0.10349178 0.009580836
-0.2668738 0.13116696 -0.12773854 -0.14520198 0.14632267 -0.063597396 0.35981265 0.27198222
0.0034269826 0.05185121 -0.17416908 -0.06085911 -0.09362056 -0.21478927 0.2631755 -0.06692545
0.1310821 0.23473601 -0.098819464 -0.035408437 -0.094782166 -0.109098636 -0.046446115 -0.08437475
-0.4190795 0.39991644 0.056651685 0.11241574 -0.08077174 -0.24605595 -0.050996218 0.2682883
0.03346717 0.20766275 0.16096634 -0.052008055 0.0956245 0.23133989 -0.1673822 0.5287402
-0.151789 0.04177215 0.19677289 -0.008256535 0.37896225 -0.01057737 0.13631895 -0.03026226
-0.043679923 -0.09803904 0.09121863 0.2576242 0.079262316 0.19156927 0.337584 0.08651871
-0.37628826 -0.018275497 -0.28785396 0.096387334 -0.111696154 0.05089801 -0.25662947 -0.11175234
-0.004902287 -0.12281494 -0.08856092 -0.22537434 0.15232408 0.2645432 0.09495184 0.1264035
-0.25853586 -0.15857613 -0.2930115 0.18790282 0.009886526 0.10974525 0.102414526 -0.041354015
0.06065855 0.21388744 0.103211515 0.17885427 0.13705075 0.14699161 0.1419921 0.08233381
-0.19428197 0.054196257 -0.06603554 -0.057971556 0.16531686 0.042466674 -0.23500013 -0.24496403
0.22517616 0.18483075 0.0029827382 -0.20393766 0.13231744 0.17829172 -0.119092226 -0.17850645
-0.122255504 0.12848106 -0.11242343 0.25960308 0.15523653 0.13383925 0.26107576 -0.039279956
0.28441975 0.06851099 -0.044087637 -0.30111238 0.13061768 -0.25474653 0.0763835 0.06691052
0.012785976 -0.16986936 0.1289954 0.052983064 0.15809184 0.008661562 -0.02548553 -0.20962526
-0.20273414 0.12174598 0.19211192 -0.008320475 0.14628886 -0.19170691 -0.059173 -0.16489619
0.24766082 -0.020305648 -0.018471973 0.09942492 -0.03754603 -0.22674327 0.040202595 0.21971045
-0.054665137 0.026921447 0.35013375 -0.22683538 0.11371419 0.034863856 0.17831206 0.05468429
-0.23799539 -0.14772895 -0.117130704 0.14966999 0.32998055 -0.14331764 0.028976845 -0.19543031
-0.06919992 -0.17644449 0.035008788 0.16977951 -0.34147835 -0.06125568 0.00196079 -0.12659839
0.2183358 0.014845767 0.1703676 -0.095162995 -0.016635051 0.10138739 0.004350221 0.16316189
-0.16856395 0.19079737 -0.22884674 -0.33182818 -0.103864565 -0.23941493 0.14056498 0.06514596
-0.012759094 0.20560403 -0.06820108 -0.15245894 0.10653039 -0.15546101 -0.027607236 -0.20562702
-0.28420252 -0.41483724 -0.043279275 -0.225599 -0.13725385 0.08677404 0.05378496 -0.22905478
0.14573325 0.22547927 0.18127456 0.07591833 0.06343061 0.17025568 -0.061671883 0.3373039
0.08896809 0.14392567 0.31693158 0.25769708 -0.07795191 0.24408433 0.10631541 -0.10182124
-0.32749873 0.19497229 -0.20515893 0.21753596 0.10309561 0.28676304 0.12537824 -0.01365709

conv_out.bias f4 [32]
00000000: d3bc df3c 44a0 ed3c 8c11 ec3c f35e eabc
00000010: fbc0 f83c 1781 f1bc 1a6e e03c 7294 e53c
00000020: dc74 e53c 0009 e93c 9416 ea3c 0902 0fbd
00000030: 9ab3 eb3c 7a9f f5bc bd04 fabc 6e8e f1bc
00000040: 6e4a 0fbd 1ee1 f73c 66c0 ed3c 727a e2bc
00000050: 3da7 15bd 7ae7 ed3c 8c0b e03c 4493 eb3c
00000060: 310f efbc 1906 ffbc efce 063d 800f e6bc
00000070: de0d e3bc b9fd fcbc b722 d9bc ef80 e2bc
0.027311718 0.029007085 0.02881696 -0.028609728 0.030365458 -0.0294805 0.02739625 0.028024886
0.028009824 0.028446674 0.02857522 -0.03491405 0.028772164 -0.02998327 -0.030519838 -0.029486861
-0.03498309 0.030258711 0.029022407 -0.027646277 -0.036536444 0.02904104 0.027349256 0.028756745
-0.029182049 -0.031130837 0.03291219 -0.028083563 -0.027716573 -0.030882703 -0.026505811 -0.027649371

conv_out.lin.weight f4 [32, 32]
00000000: 29ab 813e 0c84 85bd c52d f83d ec87 60be
00000010: 546e 913e c489 a8be ca67 17be 3978 1cbd
00000020: 4fdd 073e e29d 4abd 337f a73d 8f2d 683e
00000030: b8a5 a03d 2538 08be 6e33 13be aeeb 77be
00000040: bc28 173e 59aa 8e3e 76f5 71be 1acd 143e
00000050: e7df be3e d283 623e a205 8e3e 82d5 363e
00000060: 3d66 ff3b 8c42 bb3d 5425 59be a4dc 033e
00000070: 7e68 2c3e 01c2 113e 5038 b7bd b335 0a3e
00000080: 01ae 893e c137 86be 75a2 da3d b0f6 9d3e
00000090: 8ff8 253e 5729 f1bd 5d48 643d 6bb4 4cbd
000000a0: b7cb 27be 5c2b 90bc 2b5a 373d 4f12 a9bd
000000b0: bc9b 233d 1e06 f33d 000a 99be ec34 0dbe
000000c0: b170 503e 97b9 76be 43e3 61be fc8a 5d3e
000000d0: e36c 4cbe d2fc b23c 5060 91bd 35c1 57be
000000e0: 405e 973d f080 e8bc 3c98 2ebe 199d 6e3e
000000f0: f8b5 083e a196 fbbd 7153 403e 8a2b 98be
00000100: 715e 9f3e e9e5 cbbd 9f3e 8bbe 30b0 48be
00000110: 01dc 033e 9df4 6cbe e00c ff3c ef20 1abe
00000120: 103c 833d 0cea 833e 0486 c9be 09f7 58be
00000130: 6080 21bd e5cd 813d 439e 743e 6fdd 533e
00000140: 4723 1cbe f810 f0bd 3e52 ee3a 2754 633e
00000150: 64ef a93e e47d 8fbe b410 92be 3b00 0d3e
00000160: 0ec0 bebd 6e33 473d b81c aa3d c8d5 e4bc
00000170: 8d15 913e 7b11 4ebe ceea 4cbe cb8c 84be
00000180: c123 8cbe c3e3 ba3d 9902 ddbd 29cf ea3d
00000190: f759 94be 84e5 323e 2bc8 58bd 9b22 bdbc
000001a0: 3355 d2bd 811d 07be 7e2c 9f3e cd85 523d
000001b0: a673 953d caac c13e d38d 94be 5b9a 853e
000001c0: cdfd 553e 7cce ba3c 17cb 853e 5f90 5c3d
000001d0: 8e4e 163e c91e 5abc 7632 1b3e 3844 c2bd
000001e0: b557 d53c 2593 753c 0534 9b3d 45d2 0e3e
000001f0: 74dd e6bd ad40 39be 741b 193c ee23 56be
00000200: 60d0 c7bc f4a2 b53d 8c1f 8bbe e34c 4bbe
00000210: 416f 9d3e 6795 f4bc d874 7c3e 6958 fc3d
00000220: 37fd 773c c25b 1e3b 94d3 40bc 2f93 afbd
00000230: 4b27 4cbd aa71 6dbe 316d a03d 6547 773e
00000240: 14af 4f3e 1a55 e4bd a93d 533e 2e7e c93e
00000250: 2a93 e1bc 1583 f2bd d529 8bbe 3358 45be
00000260: c1f4 c0be b84d 19be 8394 1dbd 44d2 dbbd
00000270: 69a3 21be 13ad 14be 4187 733e a628 713e
00000280: cb60 20be 82c3 4abe f3ac 5f3e 80b6 32be
00000290: dd6c 10be 7c00 563c 2b1d 2e3b 20cd f13d
000002a0: 8cd0 96be f6d9 6ebc 6e3a 1c3b a4bd 653e
000002b0: 3ae6 c83d 0903 8a3e b322 11bd a767 3d3e
000002c0: 8b5a 8abe f914 f63d bc86 5e3e a3f7 8e3d
000002d0: aaed b9bd fa98 6fbe 4eef 57be fb9b 06be
000002e0: 67f0 a1bd dfd2 673e 88dc 84be 9141 003b
000002f0: a90d 51bd e7f9 b5bd 6ac0 5c3e 2cf3 e9bd
00000300: b913 75bc 833d 5c3e 648f c4b9 3468 abbd
00000310: 74ef 1f3c b57e 233e a543 d93d d1ad 2dbe
00000320: 7d20 803e e098 87be ffe5 fabe bb35 533e
00000330: 974e 2dbe e2b4 363e 2d29 863d ef6a 933e
00000340: 6b6c ae3e 5c38 943d 13ef 463e 90cb 853e
00000350: dad6 6d3e bc89 29be 7853 353e cecc a0be
00000360: 746c 93ba 0ac4 fdbd 7179 4ebe d9a5 c93d
00000370: 854f 1dbe 128e f2bd bf1c 7f3c f903 433e
00000380: 4226 b5bb a2c1 9abe 454d b33d 531b 853e
00000390: 563e 153e d988 8abe ee12 71be e141 9e3e
000003a0: 15c8 66be 3b95 5abe 41f6 4ebe aedf c23d
000003b0: a30b 403e 1bf9 bb3d 031e 9b3d b95d b5bd
000003c0: a442 5b3e ab87 a53d a0e3 5dbe b997 b1bd
000003d0: 0fd1 6a3e ca6b 293c c839 81bd bb77 d33d
000003e0: 41bf 08be 5e02 223e e474 483e 2ca0 11be
000003f0: 69f0 983e 3935 913e 523b 483e fbe8 fc3d
0.25325897 -0.065193266 0.12118105 -0.2192685 0.28404486 -0.32917607 -0.14785686 -0.03820059
0.13268016 -0.049466975 0.08178558 0.22673629 0.07844108 -0.13302667 -0.14375088 -0.24210998
0.14761633 0.2786434 -0.23628792 0.14531365 0.372802 0.22120598 0.27738672 0.17854884
0.00779417 0.09143552 -0.21205646 0.12877136 0.16836736 0.14234163 -0.08946288 0.13497047
0.26890567 -0.26214412 0.106755175 0.3085227 0.16208099 -0.11775463 0.055733074 -0.049976747
-0.16386305 -0.0175988 0.044763725 -0.08255445 0.03994344 0.11866401 -0.29890442 -0.1378972
0.20355488 -0.24094234 -0.2205935 0.2163505 -0.19963412 0.02184907 -0.07098448 -0.21069796
0.07391024 -0.028381795 -0.1705026 0.23302115 0.13350666 -0.122845896 0.1878183 -0.29720718
0.3112674 -0.09955961 -0.27196214 -0.1959846 0.12876894 -0.23140188 0.031134069 -0.15051626
0.064079404 0.257645 -0.39360058 -0.21187986 -0.03942907 0.063380994 0.23888497 0.20689939
-0.15247832 -0.117219865 0.0018182469 0.2220007 0.33190453 -0.28025734 -0.28528368 0.13769619
-0.09313975 0.04863303 0.08306259 -0.02793397 0.28336754 -0.20123856 -0.20011446 -0.25888667
-0.27371028 0.09125473 -0.10791511 0.11465294 -0.28974888 0.17470366 -0.05292527 -0.02308779
-0.10270157 -0.13194849 0.31088632 0.051397134 0.07297449 0.3782714 -0.29014453 0.26094326
0.20897599 0.022803538 0.26131508 0.05384862 0.14678404 -0.013313004 0.15155968 -0.09485668
0.026042799 0.014988695 0.07578281 0.13947399 -0.112727076 -0.18091078 0.009344924 -0.20912144
-0.024391353 0.088689715 -0.27172506 -0.19853549 0.30748942 -0.029856397 0.24653947 0.123215504
0.015136055 0.0024163579 -0.011769194 -0.08572995 -0.04984216 -0.2318789 0.078333266 0.24148329
0.20281631 -0.11149044 0.2062899 0.3935408 -0.027535994 -0.11841408 -0.27180353 -0.19271927
-0.37686732 -0.14971054 -0.03847171 -0.10733464 -0.15784992 -0.14519148 0.23782064 0.23550662
-0.15661924 -0.19801143 0.21843319 -0.1745243 -0.14104028 0.013061639 0.0026567678 0.118067026
-0.29455984 -0.014578333 0.0023838538 0.22435623 0.09809537 0.2695544 -0.035433482 0.18496571
-0.27022204 0.12015719 0.21731085 0.06980827 -0.09078534 -0.233982 -0.21087381 -0.1314544
-0.07907181 0.22639035 -0.25949502 0.001957033 -0.051038418 -0.08885556 0.21557775 -0.114233345
-0.0149583155 0.2150784 -0.00037490868 -0.083694845 0.00976168 0.15966304 0.10608605 -0.16960837
0.25024787 -0.26483822 -0.49003598 0.20625965 -0.16924511 0.17842439 0.065508224 0.2879252
0.3406709 0.07237312 0.19427137 0.26131868 0.2322649 -0.16556448 0.17707622 -0.31406254
-0.0011247532 -0.12390907 -0.20163514 0.09846086 -0.15362366 -0.11843504 0.015570818 0.19044484
-0.0055282423 -0.30225855 0.08754972 0.2599741 0.1457456 -0.2705753 -0.23542377 0.30909637
-0.22537263 -0.2134599 -0.20211126 0.0951532 0.18754439 0.091783725 0.07574084 -0.08855767
0.2141214 0.08082517 -0.21668863 -0.08671517 0.22931312 0.01034064 -0.06309849 0.10325571
-0.13354208 0.15821216 0.1957584 -0.14221257 0.29870918 0.28360918 0.19553879 0.12349125

fc.weight f4 [1, 32]
00000000: 907e 143e 102d 333e 65b0 283e 2c08 3cbe
00000010: 6690 353e 966b b0bd 0752 2d3c 4907 243e
00000020: 426c f53d d012 273e 39f6 d53d ac4b 3dbc
00000030: 5be7 3f3e 07fb 6fbe 019b 28be 438b 03be
00000040: bd34 03be 124d c63d 39ef 8e3d ca05 33bd
00000050: d76b 8dbd 4bdb 3a3e 4cf0 5c3d bd8a 463e
00000060: fe25 18be 4946 d7bd 72cb 933d 482b febd
00000070: 3437 e7bd bb56 06be ece5 8bbd 4a75 78bd
0.14501405 0.17497659 0.16473539 -0.18362492 0.17730865 -0.086142704 0.010578639 0.16018404
0.11983539 0.1631577 0.10447354 -0.011553686 0.18740599 -0.23435603 -0.1646538 -0.12846093
-0.12813087 0.09682669 0.06979222 -0.043706693 -0.069053344 0.18247716 0.053940102 0.19388862
-0.14858243 -0.10511453 0.072165385 -0.12410599 -0.11289826 -0.13119023 -0.068309635 -0.06065873
