atropos/trained_model/nhot/no_answer/add/7/best_acc.pt (torch, 17298 bytes, 5 tensors)

conv1.bias f4 [32]
0	0x3db92787	0.09040742
1	0x3cf2d5da	0.029642988
2	0x3d564197	0.052308645
3	0x3d33d738	0.04390642
4	0x3c38f8de	0.011289803
5	0x3d49f34f	0.049304303
6	0xbd6b7713	-0.057486605
7	0x3db8b81c	0.09019491
8	0xbca92e89	-0.020652073
9	0xbd495f9d	-0.04916345
10	0x3e00fef9	0.12597264
11	0xbdc8f247	-0.09811836
12	0x3da17a83	0.078846954
13	0xbe15da7c	-0.14634126
14	0x3c00a3b9	0.0078515345
15	0xbcd45158	-0.025917694
16	0xbdda2f20	-0.1065352
17	0xbcb81276	-0.02246974
18	0x3da8085b	0.08204719
19	0xbd193364	-0.037402526
20	0xbc3e9598	-0.011632346
21	0xbdaf187f	-0.08549594
22	0x3d183af8	0.037165612
23	0x3e18755a	0.14888516
24	0x3bc76d31	0.0060860147
25	0x3d8e86c3	0.069592975
26	0xbd2bc4ca	-0.04193572
27	0xbcc2462e	-0.023715105
28	0xbce95ac8	-0.02848567
29	0xbd0c75d3	-0.034292053
30	0xbc835c87	-0.016035331
31	0x3c8abb65	0.01693506

conv1.lin.weight f4 [32, 76]
0	0xbd3496ac	-0.044089004
1	0xbe88991a	-0.26679307
2	0x3df8851d	0.12134764
3	0xbdc72e24	-0.097255975
4	0xbe5ebeee	-0.21752521
5	0x3e011bb5	0.12608226
6	0x3dfb1b70	0.12261093
7	0xbe379d36	-0.17931065
8	0xbecd75f5	-0.40129057
9	0xbd000c64	-0.031261817
10	0x3dc60c9b	0.09670373
11	0xbddc365d	-0.107525565
12	0x3e3e87ed	0.18606539
13	0x3dcade8c	0.09905729
14	0xbd4f539e	-0.050616853
15	0xbe738df1	-0.23784615
16	0xbe08c98b	-0.13358133
17	0xbe3929da	-0.18082371
18	0xbe9ebb2e	-0.31002182
19	0xbe04e0cc	-0.12976378
20	0x3ebb904e	0.36633533
21	0xbeaf7fdd	-0.3427724
22	0xbeba8fd8	-0.3643787
23	0xbd95342e	-0.07285343
24	0xbe45aed2	-0.1930497
25	0xbdc01c70	-0.09380424
26	0xbe2c48c3	-0.16824631
27	0xbc557da8	-0.013030447
28	0xbea6d2f8	-0.3258283
29	0xbdc0deb3	-0.094174765
30	0xbb9fd6d6	-0.0048779054
31	0x3e8c28cc	0.27374876
32	0x3e05e604	0.13076025
33	0x3ea3a9e7	0.31965563
34	0x3e9017a1	0.28143027
35	0x3dbef5c6	0.09324221
36	0xbe1ad3cb	-0.15119855
37	0xbeaae2e9	-0.33376244
38	0x3ea4189e	0.3205003
39	0xbeb0ddec	-0.34544313
40	0xbe7fc48e	-0.24977323
41	0x3c1f30d3	0.00971623
42	0xbe39df9f	-0.18151711
43	0x3e2859a3	0.16440444
44	0x3e8e890c	0.27838933
45	0x3eab6d98	0.3348205
46	0x3c9cd421	0.01914412
47	0x3e82df28	0.2556088
48	0xbcc12c4b	-0.02358069
49	0xbd16ddf5	-0.03683277
50	0x3eb73108	0.35779595
51	0x3cfd3248	0.030907765
52	0x3ecd3060	0.4007597
53	0x3e804956	0.2505595
54	0x3cfebe65	0.031096647
55	0x3dba1614	0.09086242
56	0xbe0ad809	-0.13558973
57	0xbe671073	-0.22564869
58	0x3c2b12e5	0.0104415165
59	0x3e4feab2	0.20304373
60	0x3db49e4a	0.08819254
61	0x3e3bed05	0.18352135
62	0x3e3a8edb	0.18218558
63	0xbdf74f4f	-0.12075674
64	0xbdbe6773	-0.09297075
65	0xbd9689d6	-0.07350509
66	0xbe2ba72a	-0.16762987
67	0x3df6f912	0.12059225
68	0x3e51d141	0.2048998
69	0xbe4ee110	-0.20203042
70	0xbe308148	-0.17236817
71	0x3d66261c	0.056188688
72	0xbd79891e	-0.06092178
73	0xbcd4a635	-0.02595816
74	0x3e0d4dfc	0.1379928
75	0x3e702481	0.23451425
76	0xbd878cd8	-0.06618661
77	0xbe3ff4eb	-0.18745773
78	0x3d6ecb06	0.058299087
79	0xbc854e03	-0.01627255
80	0x3d4206dc	0.047369823
81	0x3e24ea81	0.16105081
82	0xbd4ad925	-0.04952349
83	0xbd175c07	-0.036953
84	0xbd5dabf2	-0.054119058
85	0x3e34c270	0.17652297
86	0xbbb62380	-0.005558431
87	0xbe49aec6	-0.19695577
88	0x3e86db89	0.26339367
89	0xbe1f3d1a	-0.15550652
90	0xbd90936c	-0.070593685
91	0xbcbda28f	-0.023148803
92	0x3c043068	0.008068182
93	0xbe083a16	-0.13303408
94	0xbe932a3e	-0.28743166
95	0x3e288af1	0.16459252
96	0x3dc8c95b	0.098040305
97	0xbe64431a	-0.22291222
98	0x3e18b222	0.14911702
99	0xbd90d5d7	-0.07072037
100	0x3c5a2c72	0.013316261
101	0xbea63c01	-0.32467654
102	0xbc9932e1	-0.018701019
103	0xbe5a74a1	-0.21333553
104	0x3e159502	0.14607623
105	0x3e07f5d9	0.13277377
106	0x3dd24d1e	0.10268615
107	0xbc2a0a66	-0.010378456
108	0xbda44621	-0.080211885
109	0x3d8448c3	0.06459191
110	0x3e30b927	0.1725813
111	0x3d54beaa	0.051939644
112	0xbde1eb6c	-0.11031231
113	0xbeb2bb7e	-0.3490867
114	0x3e82c9f9	0.25544718
115	0xbdc95186	-0.098300025
116	0x3e67b8b0	0.22629046
117	0x3d9d693d	0.07686088
118	0x3d45c05e	0.04827916
119	0x3e7e990f	0.24863075
120	0x3e7f0f70	0.24908233
121	0x3e9ce135	0.3064057
122	0x3da901cc	0.08252296
123	0x3dd70a86	0.10500054
124	0x3e3ac8ad	0.18240614
125	0x3e22d570	0.15901732
126	0x3e99a0c0	0.30005455
127	0x3da1b505	0.07895855
128	0x3e650a16	0.22367129
129	0x3dc1a48c	0.09455213
130	0xbc54fae7	-0.012999273
131	0x3e02931a	0.12751427
132	0x3e5779e1	0.21042587
133	0x3e312f60	0.17303228
134	0x3e058057	0.13037239
135	0x3b57df39	0.0032939448
136	0x3e31eeef	0.17376302
137	0x3d538aec	0.051646158
138	0xbdf56abb	-0.11983248
139	0xbd22f2e1	-0.03978241
140	0xbd6f7ff6	-0.058471642
141	0x3e20bfd7	0.15698181
142	0x3e70cfa7	0.23516713
143	0x3d69ab70	0.05704826
144	0xbd700404	-0.05859758
145	0xbda6ea20	-0.081501245
146	0x3e2a1335	0.1660889
147	0x3c184106	0.009292847
148	0x3e69213a	0.22766581
149	0xbd55e4b3	-0.052220058
150	0x3c4b799c	0.012419131
151	0x3e5dab67	0.21647416
152	0xbeb720a2	-0.35767084
153	0xbc04863f	-0.008088647
154	0x3db50a6a	0.08839877
155	0xbd5eaccc	-0.05436401
156	0x3d4b5a87	0.04964688
157	0x3df3918f	0.118929975
158	0x3db94e00	0.090480804
159	0x3e9003a2	0.28127772
160	0xbea1cb23	-0.31600294
161	0x3e20c4ff	0.15700148
162	0x3e2748e8	0.16336405
163	0x3cd4a058	0.025955364
164	0x3c87ae39	0.016562568
165	0x3ddffcd5	0.10936896
166	0x3ccd14c4	0.025034316
167	0xbea2cee5	-0.31798473
168	0x3d30b163	0.04313792
169	0xbc72d032	-0.014820145
170	0xbe89c798	-0.2691009
171	0xbdd735e9	-0.105083294
172	0xbe8a72ab	-0.2704061
173	0xbed06282	-0.40700155
174	0x3dbc4591	0.09192956
175	0x3d38f75c	0.045157775
176	0x3e82a3e6	0.2551567
177	0xbe847203	-0.25868234
178	0xbc87e984	-0.016590841
179	0x3d4824fb	0.048863392
180	0xbe8f74ce	-0.28018802
181	0x3d364251	0.044496838
182	0xbd7259fd	-0.05916785
183	0x3e6fd0f1	0.23419549
184	0xbd485183	-0.04890586
185	0x3e07890c	0.13235873
186	0xbc4feaaa	-0.012690226
187	0x3de8dbf6	0.11370079
188	0xbc07ed9b	-0.008296396
189	0x3d541326	0.051776074
190	0x3e44d2fa	0.19221106
191	0x3c674064	0.014114473
192	0x3d879517	0.066202335
193	0xbe55635b	-0.20838682
194	0x3f0152f0	0.5051718
195	0x3ec6de18	0.3884132
196	0x3eb9e11c	0.36304557
197	0x3d01173c	0.0315163
198	0x3e014622	0.1262441
199	0x3ed2d1bf	0.4117565
200	0x3df26ba1	0.11836935
201	0x3ea78571	0.32718995
202	0x3e4d872e	0.20071098
203	0x3e740d46	0.23833188
204	0x3d953830	0.072861075
205	0xbcadd017	-0.021217389
206	0x3eae4f30	0.3404479
207	0xbe128895	-0.14309914
208	0x3d6b3544	0.057423845
209	0xbdfdc94f	-0.12391912
210	0x3d4e7b72	0.050410695
211	0x3985246f	0.00025394882
212	0xbdd141c7	-0.10217624
213	0xbe61e970	-0.22061706
214	0x3e4945f3	0.1965559
215	0xbd9baa7e	-0.07600878
216	0x3e1ba864	0.15200955
217	0x3d559d8c	0.0521522
218	0x3debb79c	0.1150963
219	0xbdf9e46c	-0.12201771
220	0xbd7d534c	-0.061847016
221	0x3d4275d2	0.047475643
222	0x3e4e3416	0.20137057
223	0x3e22768c	0.15865535
224	0xbe1529d2	-0.14566734
225	0x3e4b58b9	0.19858064
226	0xbd2e545e	-0.042560928
227	0xbe373876	-0.17892632
228	0xbe1aa9b5	-0.151038
229	0x3cd37219	0.025811242
230	0xbe0be78d	-0.13662548
231	0xbe813821	-0.25238135
232	0xbd9e6552	-0.07734169
233	0x3d8baae2	0.06819703
234	0x3e0a9734	0.13534242
235	0xbd2e83e8	-0.042606264
236	0xbeb133c6	-0.34609812
237	0x3e3c9b0a	0.18418518
238	0x3d76e1eb	0.060274046
239	0x3e0060d1	0.12536933
240	0x3e1495d9	0.14510287
241	0x3db86fc7	0.09005695
242	0x3c97e949	0.018543856
243	0xbe4bc518	-0.19899404
244	0xbe3922a0	-0.18079615
245	0x3e2c9298	0.16852796
246	0xbecbef1b	-0.3983086
247	0xbdb20a46	-0.08693366
248	0xbea64501	-0.3247452
249	0xbc6a4338	-0.014298253
250	0xbd99bc17	-0.075065784
251	0xbe805b80	-0.2506981
252	0x3cb893df	0.022531448
253	0xbddc4530	-0.10755384
254	0x3c3ab81d	0.011396435
255	0xbcd029cf	-0.02541056

conv_out.bias f4 [32]
0	0xbcea11be	-0.028572913
1	0xbce07495	-0.02739934
2	0xbd025f42	-0.031829126
3	0x3cf86b0c	0.030324481
4	0x3cf0729f	0.02935153
5	0xbcec5569	-0.02884932
6	0xbcf4dc4c	-0.029890202
7	0x3cc540bd	0.024078721
8	0x3cebe829	0.028797226
9	0x3cec0b31	0.02881393
10	0xbcf48c59	-0.02985208
11	0x3d09a607	0.0336056
12	0xbcecf8cd	-0.028927231
13	0xbd253e69	-0.040342722
14	0x3cea42f8	0.028596386
15	0xbcfc78d9	-0.030819343
16	0x3d10d83b	0.035362463
17	0xbc69eeea	-0.014278153
18	0xbcf2e06f	-0.029648034
19	0x3cf9244e	0.03041282
20	0x3cee8fd9	0.029121326
21	0x3cda5558	0.026652023
22	0x3cfaf0d3	0.030632412
23	0x3cf13b7b	0.029447308
24	0x3ce5d320	0.028054774
25	0xbcf8f452	-0.030389939
26	0x3cf1ca74	0.029515482
27	0x3cf2e21d	0.029648835
28	0xbd21988c	-0.03945212
29	0x3cf2bbc7	0.029630555
30	0xbcfe0a14	-0.031010665
31	0x3cdce6a2	0.026965443

conv_out.lin.weight f4 [32, 32]
0	0xbed5f4bf	-0.4178829
1	0x3dd7c0cd	0.10534821
2	0xbd37b9bb	-0.04485486
3	0xbea04ec6	-0.313101
4	0xbe157d69	-0.14598621
5	0x3dcd616b	0.10028347
6	0x3de05550	0.10953772
7	0xbe4eb8db	-0.20187704
8	0x3c494d0c	0.012286436
9	0xbe5fb4a8	-0.21846259
10	0xbc9e4c16	-0.01932339
11	0xbe4277b3	-0.18990974
12	0xbea34955	-0.31891885
13	0x3c82aa4a	0.01595034
14	0x3e996287	0.29957983
15	0x3e2e8280	0.1704197
16	0x3e257b4b	0.16160314
17	0x3dc49f70	0.09600723
18	0xbe2aa059	-0.1666273
19	0x3d866a12	0.065632
20	0xbcb81519	-0.022470998
21	0x3e40c5f3	0.18825512
22	0xbd365aee	-0.04452031
23	0xbee432d9	-0.44570044
24	0x3d1b1eb7	0.03787109
25	0x3e9159b5	0.28388754
26	0x3e9efa1d	0.31050196
27	0x3eb13223	0.34608564
28	0xbe8c19f6	-0.27363557
29	0xbd52e872	-0.05149121
30	0xbdd31467	-0.10306626
31	0xbe73ebae	-0.23820373
32	0xbebd238f	-0.36941192
33	0x3de16620	0.11005807
34	0xbdb4ba88	-0.088246405
35	0x3e195079	0.14972104
36	0xbe95364c	-0.29142988
37	0x3d41075d	0.047126163
38	0xbb922267	-0.0044596675
39	0x3d331023	0.04371656
40	0xbe44336e	-0.19160244
41	0x3e340793	0.17581014
42	0xbe12e1ce	-0.1434395
43	0xbdd7aa8c	-0.10530576
44	0x3db78bdc	0.08962223
45	0x3e17d418	0.14827001
46	0x3d583fe6	0.052795313
47	0xbd43fd3f	-0.047848936
48	0xbd0cb742	-0.034354456
49	0x3d6531a4	0.055955544
50	0x3db2a6b8	0.08723205
51	0xbe5f12ef	-0.21784566
52	0xbdc24e47	-0.094875865
53	0x3d854cc0	0.065087795
54	0x3e113268	0.14179385
55	0xbebf2cdc	-0.37338912
56	0x3e22a365	0.15882643
57	0x3df43179	0.11923499
58	0x3e93b7a3	0.2885104
59	0x3e9f5c55	0.3112513
60	0x3e606fae	0.21917602
61	0xbe8019c2	-0.25019652
62	0xbe32f357	-0.1747564
63	0xbe2d8d6f	-0.16948484
64	0xbedbc4fc	-0.42923725
65	0x3b186072	0.0023250845
66	0x3e632f99	0.22186126
67	0xbe93a1d8	-0.28834414
68	0xbe7fee3c	-0.24993223
69	0xbe9d41e5	-0.30714336
70	0x3e8ae1a3	0.27125272
71	0xbecd7b23	-0.40133008
72	0x3e8e8197	0.27833244
73	0xbdfa53be	-0.12223004
74	0xbe59a58f	-0.21254562
75	0xbe873fb7	-0.26415798
76	0xbea0cbbc	-0.31405437
77	0x3e2464f5	0.16054137
78	0xbccef4e3	-0.025263255
79	0xbeb2e855	-0.3494288
80	0x3eac8291	0.33693364
81	0xbe884fce	-0.26623386
82	0xbe79a173	-0.24377994
83	0x3e58dfee	0.21179172
84	0x3d602a23	0.054727685
85	0x3ad097ce	0.0015914382
86	0xbe1c721f	-0.15277909
87	0xbec2044a	-0.37893897
88	0x3e960785	0.29302612
89	0xbe877132	-0.2645355
90	0x3e781a5b	0.24228804
91	0xbc92513b	-0.017861
92	0x3e640caa	0.22270456
93	0xbd2fa1f2	-0.042879052
94	0xbe5a4cee	-0.21318409
95	0xbe894174	-0.2680775
96	0x3e236926	0.1595808
97	0xbc097066	-0.008388614
98	0x3eacb352	0.3373056
99	0x3e76a027	0.24084531
100	0x3d9d357e	0.076762185
101	0x3df1fc26	0.118156716
102	0xbe0a8b45	-0.1352969
103	0x3eb8b681	0.3607674
104	0xbdcad825	-0.099045075
105	0x3da3994a	0.07988222
106	0x3e93f1bd	0.2889537
107	0x3da612e8	0.08109075
108	0x3e8b5667	0.27214357
109	0xbe9dd944	-0.30829823
110	0x3e09d39b	0.13459627
111	0x3c99fd44	0.018797524
112	0xbe3342d1	-0.17505957
113	0x3ec0be2a	0.37645084
114	0xbd883918	-0.06651515
115	0xbd83abd5	-0.06429259
116	0x3e6b12c1	0.22956373
117	0x3e9f8a53	0.3116022
118	0xbe76065e	-0.24025866
119	0x3e69c4cc	0.22828978
120	0x3e628d4b	0.22124211
121	0x3e65cbde	0.2244105
122	0xbead502b	-0.33850226
123	0xbd0c9104	-0.034317985
124	0x3d84aac9	0.06477887
125	0x3d0d593e	0.034508936
126	0x3e717e24	0.23583275
127	0xbd0fcc02	-0.035106666
128	0x3ee04133	0.43799743
129	0x3e9f94cb	0.31168208
130	0xbe2f1cd0	-0.17100835
131	0xbe3a02db	-0.18165152
132	0x3d3fd787	0.046836402
133	0x3cd8220b	0.02638342
134	0xbd4875cc	-0.048940465
135	0xbbbda918	-0.00578798
136	0x3e5a519d	0.21320195
137	0xbd575339	-0.0525696
138	0x3eb16c23	0.34652814
139	0xbe011b4e	-0.12608072
140	0xbdd17541	-0.102274425
141	0xbdec1a14	-0.115284115
142	0xbd209241	-0.03920198
143	0x3e088956	0.1333364
144	0x3e6e7321	0.23286106
145	0xbe4ab97f	-0.19797324
146	0x3e54aab3	0.20768242
147	0xbecca4c2	-0.3996945
148	0x3d7695a4	0.060201302
149	0x3e5488d1	0.20755316
150	0xbe815e6a	-0.25267345
151	0x3eaca851	0.33722165
152	0xbe9bd951	-0.30439237
153	0xbe3daf5f	-0.1852393
154	0xbda33d4e	-0.07970677
155	0xbe826ae4	-0.25472176
156	0x3e4be118	0.19910085
157	0x3c8c4c5a	0.017126251
158	0xbe1d395b	-0.1535391
159	0x3deed0d0	0.116609216
160	0xbdd2a728	-0.10285789
161	0xbe9e11b6	-0.30872887
162	0xbe31b977	-0.17355905
163	0xbe67a97e	-0.2262325
164	0x3e102041	0.14074804
165	0x3e00e8ba	0.12588778
166	0x3e98da3a	0.29853994
167	0xbe94dbfc	-0.29074085
168	0x3e938266	0.28810424
169	0xbe3d4a28	-0.1848532
170	0x3d6549d3	0.055978607
171	0x3e9321b2	0.28736645
172	0x3e133fa4	0.14379746
173	0x3ec28e25	0.37999073
174	0xbe349f4c	-0.17638892
175	0x3e5bd7e0	0.21469069
176	0x3ea2ec29	0.318208
177	0x3dddf02d	0.108368255
178	0xbea6452d	-0.32474652
179	0x3e94424d	0.28956833
180	0xbe8965de	-0.2683553
181	0x3e755ee1	0.23961975
182	0x3e8e4a68	0.27791142
183	0xbe7aa3a2	-0.24476483
184	0x3e600d3c	0.21880049
185	0x3e5fa19e	0.21838996
186	0xbe24bba1	-0.160872
187	0xbd4e5fa5	-0.050384182
188	0xbe3144cd	-0.17311402
189	0xbdbf4544	-0.09339383
190	0xbda6bc85	-0.08141426
191	0xbce11402	-0.02747536
192	0xbe9b6449	-0.3034995
193	0xbe6a2d4f	-0.22868846
194	0xbe4b27d6	-0.19839415
195	0x3d1c68b4	0.03818579
196	0x3dcb5e43	0.09930088
197	0xbe96b687	-0.29436132
198	0x3e964dab	0.2935613
199	0xbe8e65bd	-0.27811995
200	0x3e07ee99	0.13274612
201	0xbe65529f	-0.22394799
202	0xbe0fff28	-0.14062178
203	0xbd23ee25	-0.040022034
204	0xbe0b24f3	-0.13588314
205	0x3def36c6	0.11680369
206	0xbe53e290	-0.20691895
207	0x3e456ae6	0.1927906
208	0x3d076f1f	0.033064958
209	0xbe788d4b	-0.24272649
210	0x3daf0d63	0.08547475
211	0x3e991db4	0.29905474
212	0xbdf7e3f7	-0.12104028
213	0x3e2ad134	0.16681367
214	0x3e671c94	0.22569495
215	0xbdfe23bc	-0.124091595
216	0x3e3d1c71	0.18467881
217	0xbe76c518	-0.24098623
218	0x3e24c86d	0.16092081
219	0x3d467eee	0.048460893
220	0xbcd5e3f2	-0.02610967
221	0x3deaff32	0.11474456
222	0x3dedf065	0.11618117
223	0xbdad5710	-0.084638715
224	0x3da27cf5	0.0793399
225	0x3c7f18af	0.01556985
226	0x3dbce53b	0.0922341
227	0xbd325903	-0.04354192
228	0x3c9998f1	0.018749686
229	0x3e6ff320	0.23432589
230	0xbd55cfc0	-0.05220008
231	0xbd80227e	-0.06256579
232	0xbd7b202e	-0.061309986
233	0xbe390520	-0.18068361
234	0xbdd975fb	-0.10618206
235	0xbb829e7b	-0.0039861775
236	0x3e8d4c70	0.2759738
237	0xbc815f21	-0.015792431
238	0xbdcf0d00	-0.101099014
239	0xbdff1e83	-0.124569915
240	0x3c4cbb17	0.012495778
241	0x3e5d8f9f	0.21636818
242	0x3e05e016	0.13073763
243	0xbe162a76	-0.14664635
244	0x3e470abe	0.19437692
245	0x3e1b416e	0.15161678
246	0xbd3d9b12	-0.046290465
247	0x3dc72aee	0.09724985
248	0x3e881b7b	0.26583466
249	0x3ea16819	0.31524733
250	0x3e50c0cf	0.2038605
251	0xbe72a00c	-0.23693866
252	0x3e80b681	0.2513924
253	0x3e4ef4b6	0.20210537
254	0x3e92dcf8	0.2868421
255	0x3cf2676b	0.02959033

fc.weight f4 [1, 32]
0	0xbe2f686e	-0.1712968
1	0xbe0136b3	-0.12618522
2	0xbdf49020	-0.11941552
3	0x3de559eb	0.11198791
4	0x3d95e221	0.07318521
5	0xbd1f4b47	-0.03889015
6	0xbe5c838d	-0.21534558
7	0x3d045c98	0.032314867
8	0x3ded85fd	0.11597822
9	0x3df1ac5b	0.11800452
10	0xbe00bc12	-0.12571743
11	0x3dee73af	0.11643159
12	0xbdeab473	-0.11460199
13	0xbc8da128	-0.01728876
14	0x3da6fa0c	0.081531614
15	0xbdba4fa3	-0.09097221
16	0x3def0693	0.11671176
17	0x3d94b478	0.07260984
18	0xbe40a0b1	-0.18811299
19	0x3e498980	0.19681358
20	0x3dcdd425	0.10050229
21	0x3d2bb7ba	0.041923262
22	0x3e78b3b5	0.24287303
23	0x3e5ba50f	0.21449684
24	0x3df620be	0.12017964
25	0xbd374c7e	-0.044750683
26	0x3e2b092c	0.16702718
27	0x3e31fbe8	0.17381251
28	0xbdac4e90	-0.08413422
29	0x3e699284	0.22809798
30	0xbe7245bd	-0.23659416
31	0x3daf9165	0.08572654
