atropos/trained_model/nhot/no_answer/add/9/best_acc.pt (torch, 17298 bytes, 5 tensors)

conv1.bias f4 [32]
0	0xbda2a831	-0.07942236
1	0xbd50ac4e	-0.050945573
2	0xbdbdc89b	-0.09266778
3	0x3d26fa1e	0.040765874
4	0x3d31a89e	0.043373697
5	0xbdcbbc85	-0.099480666
6	0x3d97e337	0.07416385
7	0x3bd59de8	0.006519068
8	0x3bb7b745	0.005606564
9	0x3c079795	0.008275886
10	0xbd3bccbb	-0.045849543
11	0xbdf3d50f	-0.11905872
12	0x3cac19e9	0.021008449
13	0x3d13c8d0	0.03608018
14	0xbbd02c86	-0.006352964
15	0x3ca44443	0.020052081
16	0xbda37c6b	-0.07982715
17	0xbdbf9459	-0.09354467
18	0xbdf2b3d7	-0.11850708
19	0xbc99885e	-0.018741783
20	0x3e0816de	0.13289973
21	0xbd42bf63	-0.0475458
22	0x3d6f774d	0.058463383
23	0xbcb4c598	-0.022066876
24	0x3a9c7bd4	0.0011938759
25	0xbe06c2f3	-0.13160305
26	0xbd763f9b	-0.060119253
27	0xbb963155	-0.0045835176
28	0xbd3bd037	-0.045852866
29	0xbd576f91	-0.052596632
30	0xbd7d1cda	-0.061795093
31	0x3b61c2d6	0.0034448407

conv1.lin.weight f4 [32, 76]
0	0xbc5ecf4d	-0.013599229
1	0x3c94bcbe	0.018156406
2	0x3e106077	0.14099298
3	0x3e070cf2	0.13188532
4	0x3da5a973	0.080889605
5	0xbda9c32a	-0.08289178
6	0xbd7c67cb	-0.061622422
7	0xbe3e836b	-0.1860482
8	0xbe97d085	-0.29651275
9	0xbe0b0ef1	-0.13579918
10	0x3e56b9cd	0.20969315
11	0xbe0d710f	-0.1381266
12	0xbd0f2eb6	-0.034956656
13	0xbcd04dc0	-0.0254277
14	0x3d1a725b	0.037706714
15	0x3d209a08	0.039209396
16	0xbe96a7a8	-0.29424787
17	0xbcbf8c65	-0.023382375
18	0xbe0c25dc	-0.13686317
19	0x3e93f9c0	0.28901482
20	0x3e7fd456	0.24983343
21	0x3e9f5666	0.31120604
22	0x3dea8b12	0.11452307
23	0xbdbe6547	-0.09296661
24	0x3e4fecba	0.20305148
25	0xbe29e9ca	-0.1659309
26	0xbe3ecf40	-0.18633747
27	0xbd9a0db2	-0.075221434
28	0x3e3e8d96	0.18608698
29	0xbe7615f2	-0.24031809
30	0xbd26a1c8	-0.04068163
31	0xbebdd640	-0.37077522
32	0x3e0ea7c8	0.13931191
33	0xbd1f64b1	-0.038914386
34	0x3ee5c3c8	0.44875932
35	0x3d720ab4	0.05909224
36	0x3dc3358f	0.095317
37	0xbe581f18	-0.21105611
38	0xbc833677	-0.016017182
39	0xbc69c87f	-0.014268993
40	0x3e2fefb6	0.17181286
41	0xbd462e90	-0.04838425
42	0xbd3cf648	-0.04613331
43	0x3e7c6bf1	0.24650551
44	0x3ec05920	0.37567997
45	0xbe25c3c9	-0.16187967
46	0x3e31d623	0.17366843
47	0x3d564c5d	0.05231892
48	0x3ea25f59	0.3171337
49	0x3e968f1b	0.29406056
50	0xbd528bbe	-0.0514028
51	0x3e45cf2d	0.19317313
52	0x3e853dd5	0.26023737
53	0x3db2039a	0.08692093
54	0x3eafd879	0.34344843
55	0x3d1befde	0.038070552
56	0x3db9f352	0.09079613
57	0x3e1348d9	0.14383258
58	0x3e46f083	0.19427685
59	0xbb9bcad5	-0.004754404
60	0x3e2a3ea3	0.16625457
61	0x3de1f8a3	0.11033752
62	0xbe0a27f7	-0.13491808
63	0x3dd3a71a	0.103346065
64	0x3e945a44	0.28975117
65	0x3e87be1e	0.26512235
66	0xbdb285cf	-0.08716928
67	0x3d98e823	0.074661516
68	0xbe3a09c2	-0.18167785
69	0xbda05148	-0.07828003
70	0x3dadecf1	0.084924586
71	0xbdad5719	-0.08463878
72	0x3e1b25e8	0.15151179
73	0x3e54e76e	0.20791408
74	0x3e94f250	0.2909112
75	0xbcdfe231	-0.027329536
76	0x3d357817	0.04430398
77	0x3e4d16f6	0.2002829
78	0x3df33f9a	0.118773654
79	0x3e10e215	0.14148743
80	0x3e841db5	0.25803915
81	0x3cd0fbdf	0.025510726
82	0xbe2123a6	-0.15736255
83	0xbe2ea7da	-0.17056218
84	0x3e792239	0.24329461
85	0xbdf72571	-0.12067688
86	0xbe58db21	-0.21177341
87	0xbe1afc21	-0.15135242
88	0xbe76a7a3	-0.24087386
89	0x3e6cad48	0.23112977
90	0x3dfc359a	0.12314911
91	0xbe0822d4	-0.13294536
92	0x3d6e9b9c	0.05825387
93	0x3d6ddb5b	0.05807052
94	0xbcc38db2	-0.023871277
95	0x3c8ebbf0	0.0174236
96	0x3cf46aa2	0.029836003
97	0xbe7ebf27	-0.24877606
98	0xbe41e97e	-0.18936726
99	0x3bdf44f3	0.0068136393
100	0x3e094c01	0.134079
101	0x3e2679cd	0.16257401
102	0x3e99ac44	0.3001424
103	0x3dc98aca	0.09840925
104	0xbe69940b	-0.2281038
105	0x3eb74d61	0.35801223
106	0xbde60bb4	-0.11232701
107	0xbe9ff9a1	-0.3124514
108	0x3cdb52d3	0.026772892
109	0xbe5c370c	-0.21505374
110	0xbe95fdea	-0.29295284
111	0x3d32d814	0.0436631
112	0x3dae0890	0.08497727
113	0xbcdd70c7	-0.027031315
114	0xbdcdb2fa	-0.10043903
115	0xbd6abb50	-0.05730754
116	0xbe640c6e	-0.22270367
117	0x3c964a2b	0.018345913
118	0xbe0691e4	-0.1314159
119	0xbe03c6d5	-0.12868817
120	0xbe0d273e	-0.13784501
121	0xbdb32627	-0.08747511
122	0xbda3deec	-0.08001503
123	0xbebbe6dc	-0.3669957
124	0xbe3901ec	-0.1806714
125	0xbea3a24e	-0.31959766
126	0xbe9d1532	-0.30680233
127	0xbed2212c	-0.41040933
128	0xbc52b4a6	-0.012860453
129	0xbe923929	-0.28559235
130	0xbc7a99fe	-0.015295504
131	0xbdbd5bbb	-0.09246012
132	0xbeae4807	-0.34039328
133	0xbe8f7998	-0.28022456
134	0x3c9b3dbb	0.018950334
135	0xbe1ef34b	-0.15522496
136	0xbe326a2a	-0.17423311
137	0x3d6ee9e6	0.05832853
138	0xbe308666	-0.17238769
139	0x3d98856d	0.07447324
140	0x3cdb5d6f	0.026777951
141	0xbe40bba6	-0.18821582
142	0xbe91d4fb	-0.28482804
143	0xbdceca5b	-0.1009719
144	0xbe64a32b	-0.22327869
145	0xbd49a30e	-0.049227767
146	0xbe576f73	-0.21038608
147	0xbec72eab	-0.38902792
148	0x3d72ec7a	0.059307553
149	0xbdb94ba9	-0.09047634
150	0x3d8d5965	0.06901816
151	0xbd860c84	-0.06545356
152	0xbe2a8323	-0.16651587
153	0x3e45a780	0.19302177
154	0x3e64fae5	0.22361334
155	0x3e04f388	0.12983525
156	0x3d7bfca8	0.06152025
157	0xbd563158	-0.05229315
158	0xba6e65b6	-0.00090941356
159	0xbe800734	-0.25005496
160	0x3ea6a8f0	0.32550764
161	0x3c25563c	0.010091361
162	0xbe5b157b	-0.21394913
163	0x3d00fe19	0.031492326
164	0x3c839957	0.01606433
165	0xbe9b5899	-0.30341032
166	0x3e408d04	0.18803793
167	0xbd96b423	-0.07358577
168	0xbbba0de0	-0.0056779236
169	0xbe74415d	-0.23853059
170	0xbc8c21f2	-0.01710603
171	0x3e1ac6ad	0.15114851
172	0x3dce289d	0.1006634
173	0x3cce4e74	0.025183894
174	0xbd8bec5f	-0.068321936
175	0xbc7b7d0f	-0.0153496405
176	0x3e8613b6	0.26186913
177	0x3ee2de4b	0.4431022
178	0x3e808866	0.25104064
179	0x3dc03d6e	0.09386717
180	0x3db894fe	0.09012793
181	0x3eb69a93	0.35664806
182	0xbe797ab8	-0.2436322
183	0xbe06cb22	-0.13163427
184	0xbe86b9e6	-0.26313704
185	0x3e00e2fb	0.12586586
186	0xbde04556	-0.10950725
187	0x3eaa7d2b	0.3329862
188	0x3e7a4ae3	0.2444263
189	0x3e990f02	0.29894263
190	0x3def9988	0.11699206
191	0x3e61fb17	0.2206844
192	0x3e31301f	0.17303513
193	0xbd9f69bb	-0.07783838
194	0xbdef3c6b	-0.11681446
195	0x3d1bc938	0.038033694
196	0xbedf0be7	-0.43563768
197	0xbe9d611a	-0.30738145
198	0x3dc4dbbb	0.09612223
199	0xbe431bac	-0.19053525
200	0xbcb185e7	-0.021670295
201	0xbe71d22f	-0.23615335
202	0x3db5b9e4	0.088733464
203	0xbe0f17b0	-0.1397388
204	0xbebf0f57	-0.3731639
205	0x3e212e26	0.1574026
206	0xbe7c7e6e	-0.24657604
207	0xbe3079fb	-0.17234032
208	0xbd9cb194	-0.07651058
209	0xbe3fac32	-0.18718031
210	0xbe8a5e7c	-0.2702521
211	0xbbb859c3	-0.005625935
212	0x3e307d4d	0.17235298
213	0x3d8359d3	0.06413617
214	0x3dacfdf5	0.08446876
215	0x3daed484	0.08536628
216	0xbdbd68fc	-0.0924854
217	0xbd15d95b	-0.03658424
218	0xbd35a2ee	-0.044344835
219	0x3d8f7454	0.0700461
220	0xbe2af0bb	-0.16693394
221	0x3dbf2d96	0.09334867
222	0x3db93973	0.09044161
223	0x3df09558	0.11747235
224	0x3e1c3d46	0.15257749
225	0xbe333ac6	-0.17502889
226	0xbe3ae2ef	-0.18250631
227	0xbe480266	-0.19532165
228	0x3de54a9c	0.11195871
229	0x3dd21847	0.10258537
230	0x3e0812e3	0.13288455
231	0x3daab360	0.08334994
232	0xbde25441	-0.110512264
233	0xbcfc57e2	-0.030803625
234	0x3e58006a	0.21093908
235	0x3d215859	0.039390896
236	0xbea9d36e	-0.3316912
237	0xbd9848f5	-0.074357904
238	0x3e089f6e	0.13342068
239	0x3ceb75fa	0.028742779
240	0x3dd30f89	0.103056975
241	0xbd8d76bc	-0.069074124
242	0xbe2e854e	-0.17043039
243	0x3dd95a01	0.1061287
244	0xbe042914	-0.12906295
245	0x3df8447a	0.12122436
246	0xbdb2d774	-0.08732501
247	0x3e902632	0.2815414
248	0x3d7f21d7	0.06228813
249	0xbdde98ed	-0.10869012
250	0xbaa004c1	-0.0012208448
251	0xbd92f551	-0.07175697
252	0xbe695ab6	-0.2278851
253	0xbe06449b	-0.13112108
254	0xbdf4fbc7	-0.11962085
255	0xbe340393	-0.17579488

conv_out.bias f4 [32]
0	0xbd4d82d8	-0.05017361
1	0xbd702d72	-0.05863709
2	0x3a0b6f0c	0.00053189765
3	0x3d9e30dd	0.07724164
4	0x3d5d110b	0.05397133
5	0xbd16e5a0	-0.03684008
6	0xbd72dcac	-0.05929248
7	0xbd68faa4	-0.056879655
8	0xbd6a35a2	-0.057180054
9	0xbd6921d5	-0.05691703
10	0xbd379885	-0.04482319
11	0x3c8fa0a7	0.01753266
12	0x3d71368b	0.058889907
13	0x3d7083c2	0.058719404
14	0xbd823817	-0.063583545
15	0xbd0d250d	-0.034459163
16	0x3d768d41	0.060193304
17	0xbd3f64f7	-0.046727147
18	0x3d6dcd4a	0.058057107
19	0xbd715a2d	-0.05892389
20	0x3d6c03f9	0.057620976
21	0xbd6b1097	-0.05738887
22	0xbd655fba	-0.055999495
23	0xbd621fd5	-0.05520614
24	0xbcbbbd21	-0.022917332
25	0x3d64f7f2	0.05590052
26	0xbd81e050	-0.06341612
27	0x3d7b2f2e	0.06132429
28	0x3d5fd36d	0.05464499
29	0xbc201eb6	-0.009772947
30	0x3d685c0c	0.056728408
31	0xbd75a87b	-0.05997513

conv_out.lin.weight f4 [32, 32]
0	0xbe824d15	-0.25449434
1	0xbcf8b80f	-0.030361203
2	0xbde1463e	-0.10999726
3	0x3e1c0c22	0.15239003
4	0x3d43785d	0.04772221
5	0x3dd9af67	0.106291585
6	0x3df673b9	0.12033791
7	0x3d88d68e	0.06681548
8	0x3dae200a	0.08502205
9	0x3e652ba3	0.22379927
10	0xbe5f7fc0	-0.21826077
11	0xbd072494	-0.032993868
12	0xbeafd427	-0.34341547
13	0x3e21a03a	0.15783778
14	0x3c9b5786	0.018962633
15	0xbcb5ec32	-0.022207353
16	0x3e4b283e	0.1983957
17	0xbc5711f8	-0.013126843
18	0xbe17bb49	-0.14817537
19	0xbdc791dd	-0.09744618
20	0xbe811f30	-0.25219107
21	0x3e9ac899	0.3023117
22	0xbdaeee48	-0.08541542
23	0x3e4607de	0.19338939
24	0x3e0e3249	0.1388637
25	0x3e45d4e3	0.19319491
26	0x3bc2c326	0.0059436737
27	0xbeb81e91	-0.3596082
28	0xbbfa8ea9	-0.007646401
29	0xbe4b749c	-0.19868702
30	0x3e00a160	0.1256156
31	0xbd5143d3	-0.051090073
32	0xbd9da942	-0.07698299
33	0xbe3535c3	-0.1769629
34	0x3e9a845c	0.30179107
35	0xbc240478	-0.010010831
36	0xbe00f5aa	-0.12593713
37	0x3e91e0dc	0.28491867
38	0x3dcea178	0.100893915
39	0x3d26308f	0.040573653
40	0xbe0c3f58	-0.13696039
41	0x3e4c02d4	0.19922954
42	0x3e7462a3	0.23865752
43	0x3d70a467	0.058750536
44	0xbea67e4c	-0.32518232
45	0xbec1d29a	-0.3785599
46	0x3d49513e	0.049149744
47	0xbe20a425	-0.15687616
48	0x3f001004	0.5002444
49	0x3ec725a0	0.38895893
50	0x3e0a36f9	0.13497533
51	0x3c80114b	0.015633246
52	0xbe4d7e91	-0.20067813
53	0x3cf27561	0.029596986
54	0xbd0fc37c	-0.035098538
55	0x3d384ab1	0.044993106
56	0x3e6d1b92	0.23155048
57	0xbcec5214	-0.028847732
58	0x3d00e476	0.031467877
59	0x3e0457a6	0.1292406
60	0x3e98dccc	0.29855955
61	0xbe6e9b2c	-0.23301381
62	0xbe637e07	-0.22216044
63	0x3d0a81c1	0.03381515
64	0xbec28474	-0.3799168
65	0xbe219e2e	-0.15782997
66	0x3e93e503	0.2888566
67	0x3e956079	0.29175165
68	0x3e302160	0.17200232
69	0x3e88287f	0.26593396
70	0xbe074b8d	-0.13212414
71	0xbdd1b2f9	-0.102392145
72	0x3e58535e	0.21125552
73	0x3d1ea27a	0.03872917
74	0xbdbef0d5	-0.09323279
75	0x3cd2c8c6	0.025730502
76	0xbc38d728	-0.011281766
77	0x3e52ddae	0.20592377
78	0x3f240667	0.6407227
79	0xbe93dd0c	-0.28879583
80	0x3f117a11	0.56826884
81	0x3e7bc83d	0.24588104
82	0xbdc96694	-0.09834018
83	0xbe379272	-0.17926958
84	0xbe348fae	-0.17632934
85	0xbe08f5ff	-0.1337509
86	0xbe99dbb4	-0.30050433
87	0xbe159314	-0.14606887
88	0x3eb8b574	0.36075938
89	0x3e765819	0.24057044
90	0xbd12384c	-0.03569822
91	0xbdf5aae1	-0.11995483
92	0x3e6b2f7a	0.2296733
93	0x3e8f8fef	0.280395
94	0x3e4d5a8b	0.2005407
95	0xbe48ebe1	-0.1962123
96	0x3d92e781	0.07173062
97	0xbea62e50	-0.3245721
98	0xbea35afd	-0.31905356
99	0x3b5ef369	0.0034019595
100	0xbe45a8ce	-0.19302675
101	0xbd3a46be	-0.04547762
102	0x3eeb289e	0.45929426
103	0x3c6dae8d	0.014506948
104	0xbdcc24d8	-0.09967965
105	0xbe05b028	-0.1305548
106	0x3daf1b0e	0.08550082
107	0x3de6c3b2	0.11267795
108	0x3e7143ca	0.23561016
109	0xbd3bb589	-0.045827422
110	0xbea16931	-0.31525567
111	0x3e80df9b	0.25170597
112	0xbece1d95	-0.40256944
113	0xbe6e4393	-0.23267965
114	0xbea9395a	-0.33051568
115	0x3e8a0e96	0.26964253
116	0x3d305ea5	0.04305901
117	0x3e6a9e69	0.22911991
118	0x3e565977	0.20932566
119	0x3da17c1d	0.07885001
120	0xbe6dd97e	-0.23227498
121	0xbed24c39	-0.41073778
122	0xbeee9abb	-0.46602425
123	0x3e9875b1	0.2977729
124	0x3de16d20	0.11007142
125	0xbe5999c7	-0.21250068
126	0x3d9b4ed7	0.07583397
127	0x3e104861	0.1409011
128	0xbd505f93	-0.050872397
129	0xbd720000	-0.05908203
130	0xbd8fa6e1	-0.070142515
131	0xbc41397e	-0.011793492
132	0x3df1164b	0.1177183
133	0xbdf079a8	-0.11741954
134	0x3d5df630	0.05418986
135	0xbe07d860	-0.13266134
136	0x3e45df63	0.19323497
137	0xbc2963da	-0.010338748
138	0x3e6c1b0c	0.23057193
139	0xbcb06358	-0.021531746
140	0xbe4fa9a2	-0.20279554
141	0x3e5c4cd5	0.21513684
142	0xbda054d5	-0.078286804
143	0x3dac9300	0.084264755
144	0xbec8f856	-0.39251965
145	0x3d0f5c7f	0.03500032
146	0xbebfd515	-0.37467256
147	0x3e86f8ac	0.26361597
148	0x3e0afd86	0.13573274
149	0x3e665674	0.22493917
150	0xbd57a01d	-0.05264293
151	0xbe6f63ed	-0.23377962
152	0xbea19368	-0.31557775
153	0xbeaf62b0	-0.3425498
154	0xbeb329f0	-0.34992933
155	0x3df2cb80	0.11855221
156	0xbe20aef5	-0.15691741
157	0x3e77b0ab	0.24188487
158	0xbdc71ac6	-0.097219035
159	0x3e94ea6d	0.29085103
160	0x3d83bd5b	0.06432601
161	0xbde3cb4c	-0.1112276
162	0x3d8c4db4	0.06850758
163	0x3ce5e581	0.028063538
164	0xbd4c120f	-0.04982191
165	0xbde055e1	-0.1095388
166	0x3e7d6f7c	0.24749559
167	0xbe7ce224	-0.24695641
168	0xbe1a447e	-0.1506519
169	0xbe3174e7	-0.17329751
170	0xbdb5000d	-0.088379
171	0xbd752922	-0.05985368
172	0x3ea24ff0	0.31701612
173	0x3db3d15f	0.08780169
174	0xbe835030	-0.25647116
175	0xbe7a419e	-0.24439093
176	0xbea72e5d	-0.3265256
177	0x3db88471	0.09009636
178	0xbe623a25	-0.22092493
179	0x3e68ec88	0.2274648
180	0x3d392961	0.045205478
181	0x3dbaf778	0.09129232
182	0x3e936eed	0.28795567
183	0xbe7510b2	-0.2393215
184	0xbe8f7ed5	-0.28026453
185	0xbe8add96	-0.27122182
186	0x3d83fdc7	0.064448886
187	0x3decadbd	0.115565754
188	0xbe4b2538	-0.19838417
189	0x3e80bdc6	0.25144786
190	0xbdbcb4dc	-0.09214184
191	0xbe4d5c0b	-0.20054643
192	0xbd498526	-0.049199246
193	0x3eb3fa0f	0.35151717
194	0xbe0410d1	-0.1289704
195	0x3dcf5c04	0.101249725
196	0x3e124d5c	0.14287323
197	0xbde937a3	-0.11387565
198	0xbebcd3af	-0.36880252
199	0xbe7d52af	-0.24738573
200	0x3de0c608	0.109752715
201	0x3e36b80e	0.17843649
202	0xbe395d6c	-0.18102044
203	0x3e917816	0.2841193
204	0xbe240a4e	-0.16019556
205	0xbeacbc86	-0.33737582
206	0x3e788655	0.24269994
207	0xbd85749e	-0.065163836
208	0x3f0ccc94	0.5499966
209	0xbdfe7db2	-0.12426318
210	0x3e66335f	0.22480534
211	0xbe1a7579	-0.15083875
212	0xbe5be60c	-0.21474475
213	0x3d23e460	0.040012717
214	0x3d634853	0.055488896
215	0xbead2709	-0.33818844
216	0x3e81b0f3	0.25330314
217	0x3d97a02f	0.074035995
218	0xbd75658b	-0.059911292
219	0xbce4567b	-0.027873268
220	0x3ded03be	0.115729794
221	0xbd9dc705	-0.077039756
222	0xbd16f2de	-0.03685271
223	0x3d86715f	0.065645926
224	0x3e43217f	0.19055746
225	0x3e93ebe8	0.2889092
226	0x3dee0068	0.11621171
227	0xbe3ee19a	-0.18640748
228	0xbe32dab7	-0.17466246
229	0xbdf88b5d	-0.121359564
230	0x3e11641c	0.14198345
231	0x3d9eeefa	0.07760425
232	0x3e1a7f30	0.1508758
233	0xbe688106	-0.22705469
234	0x3e93c8d0	0.28864145
235	0x3e9b2347	0.30300352
236	0xbdc0427d	-0.09387682
237	0x3e1c8b9c	0.15287632
238	0x3ee22b98	0.44173884
239	0xbeab6c48	-0.3348105
240	0x3e8f0cab	0.27939352
241	0x3c324906	0.010881668
242	0x3eace987	0.33771917
243	0x3e615bef	0.22007726
244	0x3d44feb9	0.048094485
245	0x3e9281c9	0.28614643
246	0x3cc43d1a	0.023954917
247	0xbd91c4b1	-0.07117594
248	0x3e10aa79	0.1412753
249	0xbdb6f957	-0.089342766
250	0x3e457571	0.19283082
251	0x3e10ac46	0.14128217
252	0x3df8b35a	0.121435836
253	0x3d89050b	0.06690415
254	0xbe4aec8a	-0.19816795
255	0xbeab18ea	-0.33417445

fc.weight f4 [1, 32]
0	0xbdefd7da	-0.11711092
1	0xbe2a5c49	-0.16636766
2	0xbd8a6cbc	-0.06759021
3	0x3e3595b5	0.1773289
4	0x3de9b276	0.11410992
5	0x3cb7b07c	0.022423021
6	0xbe205aea	-0.15659681
7	0xbe39b7a6	-0.18136463
8	0xbe7d7cd1	-0.24754645
9	0xbe6d88f3	-0.23196773
10	0xbddc4ac2	-0.107564464
11	0x3cd72850	0.02626434
12	0x3e2e4c32	0.17021254
13	0x3e53c0d7	0.20679031
14	0xbe8b356f	-0.27189204
15	0xbe0e9b5b	-0.13926451
16	0x3e2b79f4	0.1674574
17	0xbca2de16	-0.01988129
18	0x3e55f4a7	0.20894109
19	0xbe9bc880	-0.30426407
20	0x3e33d47c	0.17561525
21	0xbe66e5f5	-0.22548659
22	0xbe2bcea5	-0.16778047
23	0xbe1f9f92	-0.15588215
24	0xbc7421a5	-0.0149006
25	0x3e499d2a	0.1968886
26	0xbe1911f8	-0.14948261
27	0x3e2c99f3	0.16855602
28	0x3e80f674	0.2518803
29	0x3e111546	0.14168271
30	0x3e39b51b	0.18135493
31	0xbea80c96	-0.32822102
