atropos/trained_model/onehot/no_answer/37/best_acc.pt (torch, 17298 bytes, 5 tensors)

conv1.bias f4 [32]
00000000: db26 c1bc afa8 cb3b 854d a5bc 84d5 1fbc
00000010: 25f5 e73c 4684 83bc c4a9 8f3c 604f 003d
00000020: 6e07 5d3c 34c7 133c 4067 abbc 4601 013d
00000030: ccc3 423c 43e2 893d 8ce9 b9bc 3730 143d
00000040: 9bae 6f3c e63d 1a3d f547 063c 2e7c d53a
00000050: e33b ec3b 76cc cd3c 6ce2 45bd 55b7 fb3d
00000060: ac4d 7fbc abe9 22bc bc77 0c3c 7a30 87bb
00000070: 41e2 ad3b 906f 62bc 2674 9b3d 0960 0f3d
-0.023578098 0.006215177 -0.020178566 -0.009755496 0.028315136 -0.016054284 0.017537005 0.031325698
0.013490541 0.009019662 -0.020923257 0.031495355 0.011887502 0.06732609 -0.022694372 0.036178794
0.0146290315 0.037656687 0.008195867 0.0016287619 0.0072092875 0.025121909 -0.048311636 0.12290827
-0.015582483 -0.009943406 0.008573469 -0.004125652 0.0053065126 -0.013820544 0.07590513 0.035003696

conv1.lin.weight f4 [32, 76]
00000000: 7f7a 683e 6d05 0abe fc6d 3fbe f3af 2e3e
00000010: c92d 86be 3cab ca3d fdb0 223e fb83 1abe
00000020: d439 853d 8394 f43d a50d 1dbe 5857 c83d
00000030: 06c8 15be b8c2 6f3e 928b 943d 90d7 03be
00000040: a3a2 1c3d 1699 f33d 7702 1bbd d57a 393d
00000050: 1ba1 513e f1c6 8b3c 9ef7 e5bd e6c9 72be
00000060: cdc9 9bbd 7f26 9abc 8b5e 3fbe ce88 87bd
00000070: 9bc8 c43d ab3e 263e 8fd0 43be 2b83 dabd
00000080: de8d 2f3d eeee 363e 027e a7bd f62a c3bd
00000090: a85f 393e eb9a 593d 2532 d7ba fcb1 3dbe
000000a0: 5da6 b93d e02f 203e e0a5 863c a55e 12be
000000b0: ddf2 16be e0f3 553d f6f5 95bd c5d3 8ebd
000000c0: c6ef 033e d26a 5dbe 5a87 25bb 4010 4cbe
000000d0: 2e38 4dbe d202 27be 14e6 e93c 7980 47be
000000e0: ae7c 803d 616f 733e a29f 9e3d 4c51 44be
000000f0: c197 a3bc cb30 7bbd cc84 f03c ee66 fbbd
00000100: 5f5b 623d 2754 463a 73c2 103e 7016 a03c
00000110: 1899 15be 1a04 f63d e1c5 81bc 57f4 b83c
00000120: 93f3 1bbd 8606 683e 1592 e23d a004 49be
00000130: 8ce5 283e 99a4 f63d a625 ac3d 7a38 1abe
00000140: 6e28 713e 7a3c a63d 59c9 2c3d eb67 443e
00000150: 6516 90bd c76c 273e 75d9 3c3b 782e e5bd
00000160: f5d7 78bc e6f8 8ebe c14d b0bd 3b7f 76bd
00000170: d274 8e3e fc0d febd b002 1fbe e052 67bd
00000180: 0f00 9e3b 5306 873d 170b debd a47d 80be
00000190: 9403 82bb 3cdd 9c3d e53b 023e 262d 5cbe
000001a0: c64e 5f3d fc3e e93d 8df6 313b 6b0f bc3d
000001b0: 9e64 933c c898 53be 5fc8 9bbd 44e4 05be
000001c0: 16c9 01be f857 14be fbf3 043e a227 00be
000001d0: 5c85 20bc cb08 0a3d 3e00 d9bd 82b8 123c
000001e0: 0ca7 c9bd 2087 bbbd c305 413e bab0 b0bd
000001f0: f225 733e 13ba 863e 8296 7d3e 3ef3 233e
00000200: 88e0 61bd fa2e 9dbc 0ddf 4e3d 989a bfbd
00000210: 4494 483e 6e94 efbc f59a 8c3e 6fb4 7cbd
00000220: 1804 453e d5a3 36be a9dc 4dbe d4a5 ba3d
00000230: 63f3 4e3e 21ae eebd daf3 24be e8b7 12be
00000240: 3d4b 343e a025 933d 9378 11bd 5aec d1bb
00000250: 2bdf a83d ac9d 2fbd 44bb 0fbe 9ecf 6cbe
00000260: ed15 bfbd cc3d cd3d 43e0 54be 3f03 663d
00000270: c0d5 b3bd 7308 7d3d 79f5 cfbd 9371 04bd
00000280: 5fc2 52be f7fd 3b3e bd73 e33d d2f5 e73c
00000290: affd 0bbd 2ac5 483e f503 b63d b9a2 5dbe
000002a0: 6399 8cbd 23b6 8a3c c5be 663e 907e 603d
000002b0: bf5d 0cbe 1911 503e ec15 463c 0cd0 88bd
000002c0: 66b4 173e b0a0 63be 4b95 643e 4e52 573e
000002d0: bdd0 573e 834c 3ebe 0972 c93b f398 02be
000002e0: 7fa1 6abd 50a4 6f3d 102c cf3c 899a 34be
000002f0: e371 22be ae49 a8bc 582a 5b3e f353 03bd
00000300: 17bf 19be ca91 d53d 5b51 173e 7eb9 7b3d
00000310: 430d 3c3e 6e94 0ebd b0b8 383e ee93 fabd
00000320: 4bbb aabc d2d3 153d 0714 ae3c 65a7 863c
00000330: 9a9f b53d ca60 ba3d 05c9 5a3e 7360 2e3e
00000340: d898 efbd 2560 abbc d7ad 213e f79d f4bd
00000350: 8cb9 6739 166b 06be d4a5 e4bb 7777 8e3d
00000360: b1b0 d23c a8e3 ebbd c53d 6dbe 6cec 4cbe
00000370: 0d19 0cbe ae16 053e c936 9f3d 975d 0c3e
00000380: b8e5 c9bd 5f3a 37bd 35ab 4cbe f65a ff3c
00000390: 2f48 c7bd c18e 02be d206 1bbe 4d69 6d3d
000003a0: b101 63bd 00b4 e73d 6530 3c3e 9252 00be
000003b0: 82b8 ddbd 97ea 81bd 9a1b f5bd 19eb 253e
000003c0: 2830 abbd 003a 373e 96d7 2fbe f0c8 e93d
000003d0: bd33 703e f826 ed3d e0cb 113c 0f05 7abd
000003e0: 7eaf e83d 5c1d e83d fca7 df3d c6b7 afbe
000003f0: 11ce 14bc 17c3 73be 5a2d 0dbe 94ef 9abe
0.22702979 -0.13478632 -0.186943 0.17059307 -0.26206806 0.098959416 0.15887828 -0.15089409
0.065051705 0.11942389 -0.15337236 0.097822845 -0.14627084 0.23414123 0.072531834 -0.128752
0.03824104 0.11894433 -0.037844148 0.045283157 0.20471613 0.017062636 -0.1122887 -0.2370983
-0.0760685 -0.018817184 -0.18688409 -0.0661789 0.09608575 0.16234843 -0.19122528 -0.106695496
0.042859904 0.17864582 -0.08178331 -0.095296785 0.18102896 0.053126257 -0.0016418142 -0.18524927
0.090649344 0.15643263 0.016436517 -0.14293917 -0.14741082 0.05223453 -0.07322304 -0.069739856
0.12884435 -0.2162278 -0.0025257678 -0.19928074 -0.20040962 -0.1630967 0.028552093 -0.19482602
0.06273781 0.23772956 0.07745291 -0.19171637 -0.019969823 -0.06132583 0.029360197 -0.12275492
0.05526292 0.000756564 0.14136676 0.019541949 -0.14609182 0.12012501 -0.015841426 0.022577448
-0.038074087 0.22658738 0.11063019 -0.1963067 0.16493815 0.12043113 0.08405618 -0.15060607
0.23550579 0.08117004 0.042184208 0.19180267 -0.070355214 0.16350089 0.0028816138 -0.11190504
-0.015188207 -0.2792427 -0.086085804 -0.06017993 0.27823502 -0.12405011 -0.15528369 -0.05647552
0.0048217843 0.06593003 -0.10841959 -0.25095856 -0.0039677117 0.076593846 0.1271816 -0.21501598
0.054518484 0.113889664 0.0027155012 0.09182628 0.017992314 -0.2066375 -0.07606577 -0.13075358
-0.12674364 -0.14486682 0.12983696 -0.12515119 -0.00979742 0.033699792 -0.10595749 0.008955123
-0.09846315 -0.091566324 0.18849854 -0.08627458 0.23744944 0.26313838 0.24764445 0.16010758
-0.05514577 -0.01918744 0.050505687 -0.09355658 0.19587809 -0.029245581 0.27461973 -0.061695512
0.19239843 -0.17835934 -0.20103706 0.091136605 0.20210032 -0.11654306 -0.16108647 -0.14327967
0.17606826 0.07184911 -0.03551538 -0.006406349 0.08245691 -0.042874977 -0.1403628 -0.23126075
-0.09330354 0.100215524 -0.20788674 0.05615544 -0.08781004 0.061775636 -0.10154242 -0.032334875
-0.20581959 0.18358599 0.1110606 0.028315458 -0.03417748 0.19606462 0.088874735 -0.21644105
-0.06865194 0.016932553 0.2253371 0.0548082 -0.13707636 0.20319022 0.0120901875 -0.06680307
0.1481491 -0.22229266 0.22322576 0.2102749 0.21075721 -0.18583874 0.0061476273 -0.12753658
-0.05728292 0.05850631 0.025289565 -0.17637075 -0.15863757 -0.020542946 0.21402872 -0.032062482
-0.15014301 0.10428198 0.14777128 0.061456196 0.18364434 -0.034809522 0.18039203 -0.122352466
-0.020841261 0.03657896 0.021249784 0.016437242 0.08868332 0.09100492 0.21365745 0.1702898
-0.116990745 -0.020919869 0.15788971 -0.11944192 0.00022098998 -0.13126788 -0.006977776 0.0695638
0.025719019 -0.11518031 -0.23168094 -0.20012063 -0.13681431 0.12996933 0.07774121 0.13707577
-0.098582685 -0.0447334 -0.19987185 0.031171303 -0.09730565 -0.12749769 -0.1513932 0.05796175
-0.055421535 0.11313629 0.18377836 -0.12531498 -0.10826208 -0.063435726 -0.11968155 0.16202964
-0.083587945 0.17893219 -0.17172083 0.11415279 0.23457237 0.11579698 0.008898705 -0.06103998
0.113615975 0.11333725 0.10920712 -0.34319896 -0.009082333 -0.2380489 -0.13786831 -0.3026091

conv_out.bias f4 [32]
00000000: 0582 b13c 5c8e ac3c 9461 ebbc 4df5 ad3c
00000010: 92be ba3c 1219 aa3d f268 ba3c 4d5a 9bbc
00000020: cc82 8b3c 44ce a0bc f3e8 c73c 21f0 433c
00000030: 6753 bf3c 1285 e1bc eae4 9b3c ecd4 91bc
00000040: 091a cdbc 4c88 9cbc 8859 8ebc 5e33 513c
00000050: 6c94 993c 370f fa3c 5967 b3bc b397 e23c
00000060: a442 92bc 48ba c8bc 8be9 c03c 52c8 eb3c
00000070: e5cb 98bc 043a 4dbd fb6a a03c f294 c9bc
0.021668443 0.021063976 -0.028733052 0.021235133 0.02279595 0.08305563 0.02275512 -0.018963957
0.017030142 -0.019629605 0.024403071 0.011959107 0.023355199 -0.027529273 0.019030053 -0.017801724
-0.025036829 -0.01910796 -0.017376676 0.012768595 0.01874753 0.030524833 -0.021899866 0.027660226
-0.017854042 -0.024502888 0.023548862 0.028782044 -0.018651912 -0.050104156 0.019582262 -0.024607155

conv_out.lin.weight f4 [32, 32]
00000000: 0a48 20be 502d 16be 953a 30bd 7d2f 833e
00000010: b0ba 543d 9da3 a8bd 44ba 42be 3ebc 62be
00000020: 1189 cabd e5e8 1dbe 9b29 353e ffe4 98be
00000030: f2d7 473e b47d 84bd f8c3 6fbe 0ad2 5d3e
00000040: 0468 7cbd d914 35be ca0d 7fbd 020c 78be
00000050: cf5c c3be 0564 973e 76ab 4cbe 8e0c a23e
00000060: 5541 6a3d 8760 54be 15ce 0c3d 2a11 4e3e
00000070: e3a4 98be 0eb2 533e 2951 693e ed7a f33c
00000080: bf92 d33d a5e2 55be fc57 aebd 3462 33bd
00000090: 089f b9bc 3352 1e3c a9a4 87bd 4109 23bd
000000a0: 274e 313e 7eaa 42be 6a66 ccbc 7590 c3bd
000000b0: ce72 76be 777e b93e 59ef 853e f167 15be
000000c0: cf7d 97bd 78c3 073e 0061 4abd 66c1 9c3d
000000d0: 4787 cebe 7eed 2f3e 8a0a f53d f035 9e3e
000000e0: 2abc c63d 3582 52bd 15ad 6dbe a5e1 40be
000000f0: 921d e1bd 28a3 ee3c 541e 7abd 9e8d 94be
00000100: adfb eebd af31 d3bd 64d8 0e3d a52a 293d
00000110: adfa c33e 59ec ea3d 5b89 8d3e e053 993e
00000120: 0d4c ac3e d0c0 703e 3a88 a33e 9679 363d
00000130: ad3c c7bd 1c99 6fbe 1076 18be c6b6 c6bd
00000140: 683e 61be 98b9 2e3e cd70 aa3e 177e 983e
00000150: 9700 f1bd dda5 aebd 0d0f 66be 6f12 dbbe
00000160: 61cf 3f3e 9c3c d63c a594 c03e 11c0 54be
00000170: b53c 60be 37d5 00be 48e1 96be 5067 1bbe
00000180: cafd e6bd fb80 e2bd 2f87 48bd b75c 8fbe
00000190: ae7f 82be be71 43be 0526 e93d cf13 abbe
000001a0: 5666 ccbc 8e5a b1be 3983 213e 2ebb c53d
000001b0: c9e1 083e 98a5 20bd da43 5a3e 1844 cabc
000001c0: 3d1e 3c3d ca00 3a3e e8db 3bbe d877 453e
000001d0: 8481 00be 8256 803e fad0 7f3e 1ccc ae3e
000001e0: 5164 89be 19ca 7abe 15c2 2e3d 2379 b3bd
000001f0: 3d04 92bd fd1f 823e 2b3c c63d 4d54 f6bd
00000200: e28b 743c b9d9 303e 0f75 ee3c 70c0 52bd
00000210: f580 95be 50df 873e 8976 483d 1448 8dbe
00000220: b45b 193d 2249 e7bd 7e75 573e 6afc afbe
00000230: 5e64 5d3e 6057 113e a9e8 0ebd 9388 183e
00000240: f6f8 043e 460e 0fbc 35c4 4e3e b8a3 4c3e
00000250: 1afe 9dbe 848f 57be 939c 113e 3305 963e
00000260: c3b7 2a3e 9878 8d3e e035 8cbe ae4b 79be
00000270: a949 95be 0e34 20bc 83cd 9c3e 6c06 f33d
00000280: 05dc 163d 0262 9ebe 7dcf 723e fe19 e33d
00000290: 0544 493d dc83 97be 8a4e 84be c897 96bc
000002a0: eb6d 8fbe 6728 3fbe cb56 2fbe 0e0b cdbd
000002b0: 6a1d 943e b194 c43e b8ea 233e e3e0 9d3e
000002c0: 9300 16be 3070 b1be a057 ed3d 2495 f33c
000002d0: 552d 0fbe 37c3 c53d 1de0 92be fbd7 aa3e
000002e0: 4779 623e c69c b23d 16fa 933d e78d d6bd
000002f0: 5d00 83be d04b 2a3c f7d9 253e 4ba9 15be
00000300: daa2 ab3d 03a1 86be b9d0 343e 57cf 7abe
00000310: 7ee6 1a3b f0a6 71be 6e72 46be b7cc 633d
00000320: 4ae1 b53d 4113 84be 8b93 6bbc e869 40be
00000330: f572 4abb 08ab e7bd 3209 d5bd b84b 0bbe
00000340: 6ebe 803e b77c aebd 6b7f cdbc 71f4 993c
00000350: d09d 3bbe 8667 86be 7185 7bbe 3905 09be
00000360: 4653 f9bd c89c 99be a24a 39be 4ec5 04be
00000370: 05a8 2c3e 5588 063d 5cfb c13e 4fff 273e
00000380: f97e 9b3e c25e 093e 08d4 4abe c9a7 1abe
00000390: ae36 c33d 868b eabc 93c2 0bbd 8a01 703e
000003a0: 0343 943e c6fb 4b3e 386e 623e c22b 633e
000003b0: 2b0f 213d 56a6 893d e0b8 84be 2e7c a0be
000003c0: 5f08 463e ff08 3fbe 19c2 843e 9657 3d3d
000003d0: 75c3 4b3d 2e77 c83d 1dbe 143b 2a1e 86be
000003e0: 4cd0 0d3e 1294 75be b9f1 34be d2ec 9d3d
000003f0: dd00 92bd ca98 8f3e 086b 87be 9785 4e3e
-0.1565248 -0.14665723 -0.04302462 0.25622168 0.05193585 -0.08234332 -0.19016367 -0.22142121
-0.098894246 -0.15420873 0.17691652 -0.2986221 0.1951597 -0.064692885 -0.234146 0.21662155
-0.061622635 -0.17683734 -0.06226901 -0.2422333 -0.38156745 0.29568496 -0.19987282 0.31650203
0.05719121 -0.20739947 0.034376223 0.20123735 -0.298133 0.20673391 0.22784866 0.029721702
0.10330724 -0.2088724 -0.085128754 -0.043794826 -0.02265884 0.0096631525 -0.06623203 -0.039803747
0.17314969 -0.1901035 -0.024951179 -0.09549037 -0.24067232 0.36229298 0.2615917 -0.14590432
-0.07397043 0.13258159 -0.049408913 0.07654075 -0.40337583 0.1718044 0.11964901 0.30900526
0.09703858 -0.051393706 -0.23210557 -0.18836077 -0.10991968 0.029130533 -0.06106408 -0.29014295
-0.11669097 -0.10312211 0.034874335 0.041300435 0.38277188 0.11470861 0.27643856 0.29946804
0.33651772 0.23511052 0.3193987 0.044549547 -0.0972837 -0.2339825 -0.14888787 -0.0970283
-0.21996462 0.17062986 0.33289185 0.297837 -0.11767691 -0.0852773 -0.22466679 -0.427875
0.18731453 0.026151948 0.37613407 -0.20776393 -0.21898158 -0.12581335 -0.2946875 -0.1517613
-0.11278875 -0.11059757 -0.048957046 -0.28000423 -0.25488037 -0.19086358 0.11384205 -0.3341355
-0.024951141 -0.346394 0.15772714 0.09654842 0.1336738 -0.039220423 0.21314946 -0.024690673
0.045927275 0.18164364 -0.18345606 0.19283998 -0.12549406 0.25066 0.24982062 0.34140098
-0.26834348 -0.24491157 0.04266556 -0.08763339 -0.07129715 0.2541503 0.09679445 -0.12027798
0.014925929 0.17270555 0.029108552 -0.051453054 -0.2919995 0.2653756 0.04894117 -0.27594054
0.03744097 -0.11293246 0.21040913 -0.34372264 0.21620318 0.14193487 -0.03488985 0.14895849
0.12985596 -0.00873143 0.20192035 0.19984329 -0.30857927 -0.2105084 0.14219885 0.29300842
0.16671662 0.27631068 -0.27384853 -0.24345276 -0.2915776 -0.009778036 0.30625543 0.11866459
0.03683092 -0.3093415 0.23711963 0.11088942 0.049137134 -0.29592788 -0.2584117 -0.018382922
-0.28013548 -0.18667756 -0.17122953 -0.10011874 0.2892869 0.38394693 0.16007507 0.30835637
-0.14648657 -0.34655905 0.11588979 0.029734202 -0.13982137 0.09656375 -0.2868661 0.33367905
0.22116576 0.087213084 0.072254345 -0.104762845 -0.25586215 0.010394052 0.16196428 -0.14615361
0.08380671 -0.26294717 0.17657746 -0.24493156 0.002363592 -0.23598838 -0.19379589 0.055615153
0.08880861 -0.2579594 -0.014378439 -0.187904 -0.0030891274 -0.113119185 -0.104021445 -0.13603103
0.25145286 -0.08519881 -0.025085172 0.018793317 -0.1832192 -0.26250857 -0.24562623 -0.13380899
-0.12174086 -0.30002427 -0.18094876 -0.12965891 0.1686097 0.03284486 0.37887084 0.16405986
0.3037031 0.13415053 -0.19807446 -0.15103067 0.09531914 -0.028630983 -0.034121107 0.23438087
0.28957376 0.19920263 0.22112358 0.22184661 0.039321106 0.06721179 -0.25922298 -0.31344742
0.19339131 -0.18655775 0.25929335 0.046226107 0.04974695 0.09788357 0.0022696324 -0.26194888
0.1384899 -0.23982266 -0.17670335 0.077111855 -0.07129071 0.28046256 -0.26448846 0.20168148

fc.weight f4 [1, 32]
00000000: e4be 8cbe 5e46 3bbe f07a 343e 38fd 6fbd
00000010: c151 babc c38a dbbd ef6d f7bc 9326 5c3e
00000020: 6f4b f5bd bc1b 743e a5a4 5cbe 2f3d 68bd
00000030: aa91 0ebe 9266 ca3d 3cc4 cabd e078 063e
00000040: dc75 a63d 40a0 0d3e 8945 083e 2f5f aebd
00000050: 6739 54be 7c76 b5bd 9bfd 193e b58c e2bd
00000060: 2b57 eb3d 3eda e43c 8c75 2cbe 5749 0cbe
00000070: 7f9d 343e 7cef 9e3c 7d28 23bd 6861 fe3d
-0.27489388 -0.18288562 0.17625022 -0.058591098 -0.022744061 -0.10719826 -0.030203788 0.2149909
-0.119772784 0.23838705 -0.21547182 -0.056698974 -0.13922754 0.09882845 -0.0990071 0.13132048
0.08127949 0.13830662 0.13307776 -0.085142486 -0.20725022 -0.0886049 0.15038149 -0.11061994
0.11491235 0.027936097 -0.16841716 -0.13699852 0.17638205 0.019401304 -0.039833535 0.124209225
