atropos/trained_model/onehot/answer/38/best_acc.pt (torch, 18194 bytes, 5 tensors)

conv1.bias f4 [32]
000000 72 88 55 bc d9 dc 25 bc 2a cd 69 bd 6c 3f 34 bd
       -0.013033019 -0.010123455 -0.057080425 -0.044005796
000010 d9 6f 37 bd 0f 9a 96 bc 40 ae de bc 9f 71 a6 bc
       -0.0447844 -0.018384008 -0.027182698 -0.02031785
000020 fb 76 72 bd c7 d5 25 3b ee e6 d7 bc 19 7d b0 ba
       -0.0591955 0.0025304423 -0.026355233 -0.0013465016
000030 42 19 3e bc 70 28 84 3c b1 56 4f bd 78 fb 9c 3b
       -0.011602702 0.016132563 -0.050619785 0.0047907196
000040 4b 96 54 bd 58 ce b3 bc 4e 72 88 bd 14 18 1f bc
       -0.051901143 -0.021948978 -0.06662427 -0.0097103305
000050 ef 88 6a 3b 96 8d 4c bd 73 15 06 3b b1 13 5f bd
       0.0035787185 -0.049939714 0.0020459562 -0.05446214
000060 08 5b 1c bd 39 b2 c8 3d f7 d7 2f bd 26 46 35 3b
       -0.03817275 0.09799618 -0.04293057 0.002766022
000070 f2 59 24 bd ef 8d 7a bd cb 25 2b bd 27 5f de 3b
       -0.04012484 -0.061170515 -0.04178409 0.0067862454

conv1.lin.weight f4 [32, 83]
000000 85 7e ca 3d fa 20 d7 bd 45 77 e0 3d 55 9e cd 3d
       0.09887413 -0.10504337 0.10960249 0.10039965
000010 32 3b 14 bd da 32 ec bd bd 06 49 3c 99 59 30 3e
       -0.036189266 -0.11533137 0.012269673 0.17221679
000020 6b 50 b9 bd ed f9 79 bd ab 8a ed 3a 65 7a 8d be
       -0.09048542 -0.061029363 0.0018122991 -0.27632442
000030 4b 26 49 3c 8b e2 2e 3e 97 cf ac be ac e3 c3 3b
       0.012277196 0.17078607 -0.33752128 0.0059780683
000040 db 30 a4 3e f9 67 17 bd 62 f0 02 be 46 0c 87 bd
       0.32068524 -0.03696439 -0.12787011 -0.06594138
000050 da 66 a1 3e c2 75 59 be e4 b6 09 bd 97 7d 33 3d
       0.31523782 -0.21236327 -0.033621684 0.043820944
000060 2a 59 a0 3e fe 14 bd be dd a5 44 3d dd aa a9 bd
       0.31318027 -0.36930078 0.048009742 -0.08284543
000070 ab 24 09 bf 4d 3b 75 be 6d 65 d1 be 83 71 a4 be
       -0.53571576 -0.23948403 -0.40897694 -0.32117853
000080 42 3a e4 3d 9e 43 d7 be 12 0c 58 be 5f 10 db 3d
       0.11143924 -0.42043775 -0.21098354 0.10696482
000090 66 21 ad bc fe 65 79 be 78 51 b5 bd 56 4d 38 be
       -0.02113409 -0.24355313 -0.088534296 -0.17998251
0000a0 5d 22 cb be 6c 60 a7 be be 3c 6e be 3a 0d 48 3e
       -0.39674655 -0.32690752 -0.23265359 0.19536296
0000b0 96 92 f4 be 98 2d 6c 3d 51 e2 0e 3d 0c 30 4e be
       -0.47768086 0.05766067 0.0348838 -0.20135516
0000c0 9c d8 b9 3e d3 7c 84 3e 67 f6 20 be d3 14 11 3f
       0.36298072 0.25876483 -0.15718995 0.566724
0000d0 95 34 81 3e 11 00 fe 3c 1d 51 88 3e 8f c9 d8 3e
       0.2523543 0.031005891 0.26624385 0.42341277
0000e0 ff 5e fc 3d 47 24 4c 3e ed 47 cd 3e c4 50 c5 3e
       0.123228066 0.19935714 0.40093938 0.38538182
0000f0 17 21 b2 3e 03 8a 86 3e 80 a3 5a 3e e5 0a 83 3e
       0.3479087 0.2627717 0.21351433 0.2559425
000100 31 b5 be bd f8 ee ad 3e 0c 5c 0d 3e 53 00 9b 3e
       -0.09311903 0.3397138 0.13804644 0.30273685
000110 07 d0 cb 3e 58 03 b4 3e 88 4d 67 3e 51 f9 b9 3c
       0.3980715 0.351588 0.2258817 0.022701891
000120 e6 dd 50 be 4d b0 b8 3e 68 cf cb 3e 3b 78 f9 3d
       -0.20397148 0.36072007 0.39806676 0.12181135
000130 60 1b c2 3e a0 f9 be 3e 33 1d 74 3e 22 67 0e bc
       0.3791151 0.37299824 0.23839264 -0.008691581
000140 61 b9 5a 3e 15 56 e2 3b a2 35 a2 3d 2d fc 81 bd
       0.21359779 0.0069072344 0.07920386 -0.06346927
000150 bb df 34 be ca f7 25 bd 60 6a 6b be ef 5f 08 3e
       -0.17663471 -0.040519513 -0.22989798 0.13317846
000160 27 e8 48 3c ed 32 56 3e c2 15 95 3e 89 3c 56 3c
       0.012262381 0.20917864 0.29118162 0.013075956
000170 9e 99 bc 3d 7c 1a d9 bd 35 1a 05 3e ed d4 80 bd
       0.09208988 -0.106007546 0.12998278 -0.06290612
000180 ad ad 26 3e f4 e4 cd 3d 39 13 3d 3e 42 b5 c6 3d
       0.1627719 0.10053435 0.18464364 0.09702541
000190 8a 5d 67 bd 8b 63 a9 3d 0a c6 82 3e bd 4e 11 3c
       -0.05648569 0.082709394 0.25541717 0.00886887
0001a0 f3 af bf be 3b e8 95 3d 3a cc 29 bb d1 07 aa 3d
       -0.37438926 0.07319685 -0.0025909082 0.08302272
0001b0 ce 45 47 bd d3 c7 bb be 92 ee ef be 27 b7 71 bd
       -0.048650555 -0.3667589 -0.46861702 -0.05901256
0001c0 f2 7f 89 be e4 37 65 3e de af 86 be 9f 9b 0a be
       -0.26855427 0.22384602 -0.2630605 -0.13535927
0001d0 a0 b6 70 be 32 82 92 be 71 e4 61 3e 5f 06 8b be
       -0.23507166 -0.28614956 0.220598 -0.27153298
0001e0 84 f4 b7 be aa 47 0f be 29 3d b8 3d be 2c 57 be
       -0.35928738 -0.13992181 0.089960404 -0.21013162
0001f0 b4 8d 04 bf f8 d3 90 bc cc af 9d bd 47 03 c4 be
       -0.5177872 -0.0176792 -0.07699546 -0.3828375
000200 a2 2a 4b 3e 9b a1 d4 3d 50 5b 6e 3e bb bc 03 3e
       0.19840482 0.10382386 0.2327702 0.12864964
000210 b1 af 07 3f 44 72 63 3e 1a d4 1c 3f 6d b6 84 3e
       0.5300246 0.22211558 0.6126114 0.2592043
000220 1b 51 5d 3e a2 84 4e 3e c7 e7 c4 3e 69 ff 22 3f
       0.2161297 0.20167783 0.38458082 0.63670975
000230 e1 5a 1f 3f a6 2d 9c 3e 46 ef 1a 3e f0 cc af 3e
       0.62248045 0.30503577 0.15130338 0.34336042
000240 bb c6 16 3e d5 a4 85 3e bb ab b0 3e dc 0d 6d 3e
       0.14724247 0.2610232 0.3450602 0.23149818
000250 de 38 06 be a0 42 b9 3e c1 ba ba 3d 80 d9 af 3e
       -0.1310763 0.36183643 0.09117652 0.34345627
000260 ea c4 6a 3e a3 44 81 bd d2 31 be 3d ea 64 4b bc
       0.22926679 -0.063119195 0.09286846 -0.0124141965
000270 27 d1 bf 3e 56 6b c8 3e 25 ba ab 3e 93 06 f4 3d
       0.37464258 0.3914439 0.33540455 0.119153164
000280 06 e7 d9 bd 27 d3 03 be 94 26 49 3d c8 3a ca 3d
       -0.10639767 -0.12873517 0.049109057 0.09874493
000290 5f 13 a3 3d b9 a1 18 bd fb 6c ee bc 93 f9 86 bd
       0.07962679 -0.037263606 -0.0291047 -0.06590571
0002a0 37 52 96 3c 29 d0 e9 3c f6 5b b9 be dc 08 be 3d
       0.01834975 0.028541641 -0.36202973 0.092790335
0002b0 ec bf 24 3e f2 d0 a8 bd d6 1b 3f bc bf 82 d3 3d
       0.16088837 -0.08242978 -0.011664351 0.10327672
0002c0 81 20 1a 3e 23 b3 80 be ac 57 fb 3d 64 7b 0c 3e
       0.15051462 -0.2513667 0.122725815 0.13718945
0002d0 95 0a 2f 3e a1 42 65 3e 24 34 0a 3e 0e d7 00 be
       0.1709388 0.22388698 0.13496453 -0.12582037
0002e0 14 d3 14 3e 95 f3 b0 bc 41 76 d5 3d 6c 07 87 be
       0.14533645 -0.021600524 0.10422946 -0.2637285
0002f0 2a 61 a7 be 56 bc 03 3e e6 ad 87 3e b7 a6 e4 be
       -0.32691318 0.12864813 0.2649986 -0.44658443
000300 f6 2e 12 bf 38 d7 30 be 17 2b c0 be 05 ee a7 be
       -0.57102907 -0.172696 -0.37532875 -0.32798782
000310 23 f5 80 bd b0 8e 4c be 0f 8e 48 3e a8 a1 5e be
       -0.06296756 -0.19976306 0.19585441 -0.21741354
000320 57 fb bc bd 74 c0 08 3e 30 d7 dd 3d 55 df 1b b8
       -0.09227627 0.13354665 0.108320594 -3.7162874e-05
000330 f7 f4 1e bc 63 31 3c be 2f 83 a9 be e5 7f 0f 3e
       -0.009701959 -0.18378215 -0.33107898 0.14013632
000340 90 72 8a be f8 20 41 bd 67 61 9b 3d 17 d6 4c 3e
       -0.2704053 -0.047150582 0.075869374 0.20003544
000350 f5 74 f4 bc fb 3a a7 3d f6 24 d9 3e 90 cd 10 3f
       -0.029840926 0.081655465 0.4241101 0.56563663
000360 95 9e 98 3e 7d 99 1d 3f b3 a4 c8 3e ca 8f 30 3e
       0.29808488 0.6156233 0.39188156 0.17242351
000370 9d 40 b6 3e 06 23 2d 3f e9 b4 31 3e 7b 99 ab 3e
       0.3559617 0.67631567 0.17354168 0.33515534
000380 9d ec d1 3d 7b 2e fb 3d 29 c4 e8 3e 0e d2 d2 3e
       0.102502085 0.12264725 0.45462158 0.41175884
000390 83 6b 9e 3e 93 e2 ed bd e2 bd d3 b8 5e 64 b0 3e
       0.309414 -0.11615481 -0.000100966325 0.34451574
0003a0 10 cd ba 3d c2 64 7b 3e a1 19 3a 3e 4a a8 c9 3d
       0.09121144 0.24550155 0.18173839 0.09846552
0003b0 85 e4 2d 3d 46 32 ad 3e eb 7b 96 3e 6d 74 d9 3e
       0.04245426 0.33827418 0.29391417 0.42471638
0003c0 43 7b 7c 3e 67 d1 07 3e 25 96 8a bc 3a 81 16 bd
       0.24656396 0.13263474 -0.016917298 -0.036744334
0003d0 79 c0 4c 3e ea 3a cd 3e b9 68 2c be 84 9c 7f 3e
       0.19995297 0.4008401 -0.16836824 0.2496205
0003e0 20 d0 63 be 53 90 36 bd 6b 0a 6f 3c e3 fc 13 be
       -0.22247362 -0.044571232 0.014589886 -0.14451937
0003f0 1f 48 37 3d 29 74 40 bd 45 9e 39 3c 5d 7d d5 3d
       0.044746514 -0.04698578 0.011329238 0.10424302

conv_out.bias f4 [32]
000000 15 18 57 bd e2 68 50 bd 5e 14 2b bd 95 09 33 bd
       -0.0525132 -0.050881274 -0.04176747 -0.04371031
000010 5b c5 8c 3d 88 2e 56 bd 91 08 4f 3d 89 c4 58 3d
       0.0687358 -0.05229047 0.05054528 0.052921806
000020 87 8f 42 3d 36 a1 ef 3c 61 09 45 bd 5f 3b 3c 3d
       0.04750016 0.029251676 -0.048104648 0.04595506
000030 ef 83 4a 3d 89 10 63 bd 3a 48 5b 3d b6 c5 4f 3d
       0.049442228 -0.05543569 0.053535677 0.05072566
000040 8d 0d 6c 3d a0 5b 52 bd 96 40 95 3d b1 b2 4a bd
       0.05763011 -0.05135691 0.072877094 -0.04948682
000050 af e8 3a 3d 5c 49 bf bd 4c df 24 3d 0c 59 58 bd
       0.04563206 -0.09340164 0.040252015 -0.052819297
000060 b0 28 37 bd 8d b8 45 bd c2 86 35 bd 6d c9 8f 3d
       -0.044716537 -0.048271704 -0.04431797 0.07020841
000070 20 05 3a 3d b0 c9 54 bd ab 28 88 bd e7 99 51 bd
       0.045415044 -0.051950157 -0.06648382 -0.051172163

conv_out.lin.weight f4 [32, 32]
000000 db 8b 22 3e c2 da 97 bd 44 69 c3 3e 1e e8 f4 bd
       0.15873663 -0.074147716 0.3816625 -0.11958335
000010 0b 14 97 be 19 6e 76 3e 6c 6d 88 3d 94 40 9a 3e
       -0.2950748 0.24065436 0.066614956 0.30127394
000020 90 ec 69 be 93 68 8b 3e 1d d6 a1 3b 46 c5 b5 bd
       -0.22844148 0.2722822 0.0049388544 -0.088755175
000030 2a 6e a5 3d a6 37 0c 3e a1 35 9a be 79 cf 7d be
       0.08077653 0.13693103 -0.3011904 -0.24786176
000040 27 b3 86 3e ae 78 10 3e e9 3d bd bd 75 25 34 3d
       0.26308557 0.14108536 -0.09240324 0.043981034
000050 90 72 af 3e 4d 75 71 3e df 35 3f be 0a ef f8 3d
       0.34267092 0.23579903 -0.18672894 0.12154968
000060 e9 a7 8f bd 1f 0c f6 be 0d 5b 3c bb e3 7f 76 be
       -0.07014448 -0.48056123 -0.0028740794 -0.24072222
000070 68 3e 8c 3e 94 42 b7 3e 68 a1 ce 3e da e2 bf be
       0.27391362 0.35792983 0.40357518 -0.37477762
000080 a9 9e eb 3d 91 76 a4 3d 41 f3 5b 3d ec af de 3b
       0.115048714 0.08030427 0.053698782 0.006795874
000090 e2 6c 1a 3e 0b a7 1f 3e 6b 9c 8c 3d c5 d5 16 3c
       0.15080598 0.15591066 0.06865772 0.00920624
0000a0 b6 7c 9a 3c e9 30 e4 3e f8 2e 00 be bc d0 8c 3d
       0.018858295 0.44568565 -0.12517917 0.068757504
0000b0 4a 27 d8 3e 84 c3 8f be 9d 55 33 3e 1c 33 e0 be
       0.42217475 -0.28078854 0.17513128 -0.43788993
0000c0 8b b6 a0 3e e0 08 ca 3e f5 4a bb 3e af 40 67 be
       0.3138927 0.39459896 0.36580625 -0.22583269
0000d0 f0 c8 c5 3e 31 7d 8e 3c d2 4a cb bc 8a 05 73 3d
       0.38629866 0.01739368 -0.02481595 0.059331454
0000e0 d2 13 b9 3e bf 9c 9f bd a7 88 bb be ee 00 9c be
       0.36147934 -0.07793569 -0.36627695 -0.3046946
0000f0 7b b9 d8 3d 63 c6 50 3d b7 11 45 3e 1b f4 29 3e
       0.105822526 0.050970446 0.19245039 0.16597025
000100 72 fd 9a 3e 98 87 0b be 82 df 28 3e 8e 13 90 3e
       0.30271488 -0.13625944 0.16491511 0.2813992
000110 6a 56 b1 be de 23 3d bd aa 92 c9 3e 9c 7d c3 bd
       -0.3463624 -0.046176784 0.39369708 -0.095454425
000120 c6 df 8f be 3e b3 94 3e 1d d8 70 be f1 79 ef bd
       -0.28100413 0.29043 -0.2351994 -0.1169318
000130 53 46 b5 3e a2 85 c1 3c 18 e0 1b 3d 1d 32 cc 3d
       0.35405216 0.023623291 0.03805551 0.09970496
000140 75 17 75 3e 34 9d aa 3e d8 c5 2e be b5 91 ce 39
       0.2393473 0.3332306 -0.17067659 0.00039399942
000150 d5 9f 64 bd ba e6 77 3d 82 85 22 be 27 61 18 be
       -0.05581649 0.060522772 -0.15871242 -0.1488081
000160 a9 cc 28 3d 11 9a 1e be 95 88 9a be 42 1d 1a be
       0.041210804 -0.15488459 -0.3018233 -0.15050223
000170 ce 09 3a be 7a 27 a0 3e f5 cf b3 3d 48 5d 8b be
       -0.18167803 0.31280118 0.08779899 -0.27219605
000180 b0 94 1c be 90 bb 9f 3b 9b 61 c9 3e 72 ce 1e 3d
       -0.15291095 0.004874654 0.3933228 0.0387711
000190 c2 56 83 be 21 c9 65 3e d8 e6 1c be 0b 42 6d 3c
       -0.25652128 0.22440006 -0.15322435 0.014481078
0001a0 6f c6 04 be db fc 8c 3e 24 b5 4b be 06 35 6d 3e
       -0.12966321 0.27536663 -0.19893318 0.23164758
0001b0 c3 55 da 3e d3 b0 7a be c8 e2 8b bd 2b a8 e2 bd
       0.42643556 -0.24481516 -0.068303645 -0.11067232
0001c0 f1 7f 8d 3d aa 53 bc 3e 47 05 29 3d e7 a7 88 3e
       0.069091685 0.3678258 0.0412648 0.266906
0001d0 9a 95 28 bd b8 b5 15 be c3 e2 4b be 38 94 43 be
       -0.041158296 -0.14620101 -0.19910721 -0.1909951
0001e0 e8 08 e6 3c ac 34 be be a4 2f 4e be b6 81 30 3e
       0.028080419 -0.3714956 -0.20135361 0.17236981
0001f0 bd fc 98 bc 9f e2 89 3e fd 55 a6 3e 06 b8 1e 3d
       -0.018675203 0.2693071 0.3248748 0.038749717
000200 66 e1 af bc 02 0c 3a 3e 8a 2e d5 be b3 e2 98 be
       -0.021469783 0.18168643 -0.4163707 -0.29860458
000210 aa 9c d9 3d 24 9f 96 be ca 9f ce 3d 04 bb 47 3d
       0.106255844 -0.2941829 0.10089071 0.048762336
000220 98 92 83 3e 2d d4 e2 bd 7b 88 67 3e 1f 45 ed be
       0.2569778 -0.110756256 0.22610657 -0.46341798
000230 c0 3c db be b9 cd 79 3e 79 32 98 3e 3c 43 bb 3e
       -0.42819786 0.24394883 0.29726008 0.36574733
000240 7b 95 0b be cc 2c af be b8 45 c6 be 45 d5 8c bc
       -0.13631241 -0.34213865 -0.38725066 -0.017191539
000250 6f 5c 85 bd 5c 0d 62 be 6f 20 71 be cb 92 a9 be
       -0.06511771 -0.22075409 -0.23547529 -0.33119807
000260 56 a5 6d be 71 d9 10 3f f1 79 01 3f bb 9a de 3b
       -0.23207602 0.5658179 0.5057669 0.0067933477
000270 80 75 6d bd 11 d7 33 be 2d 3d 0e be 64 2f 1f 3e
       -0.057973385 -0.1756251 -0.13890524 0.15545422
000280 00 71 8e bb 56 98 50 3e a1 89 17 3e dc a4 dc 3d
       -0.0043469667 0.20370612 0.14798595 0.10773632
000290 46 40 a2 be 96 06 39 be 66 f0 c2 3e 91 ee 1a be
       -0.31689662 -0.18068919 0.38074034 -0.15130068
0002a0 5d 2f 07 be 5a f0 d5 3e f6 0f 66 be d5 66 84 3e
       -0.13201661 0.41784936 -0.22467026 0.25859705
0002b0 92 13 f1 3e 19 73 bb be 1b 42 a8 3d 40 86 dd be
       0.47085243 -0.3661125 0.082157336 -0.43266487
0002c0 f9 4e 89 3e 2e 9c d8 bd 51 24 d5 3d 8d 32 86 be
       0.26818064 -0.10576664 0.104073174 -0.26210442
0002d0 20 d4 95 3e 80 40 21 bd 66 bb a7 be 8c 54 be 3e
       0.292634 -0.039368153 -0.3276016 0.3717388
0002e0 e2 d0 9a 3e d9 5e 99 be 4c 3b e0 bd de fe ac be
       0.3023749 -0.29955176 -0.1094881 -0.33788198
0002f0 92 a8 a5 3c 05 ea 8a bd 06 60 a2 bc 79 58 52 be
       0.020221982 -0.06782917 -0.019821178 -0.20541562
000300 0e 82 8d be f1 f0 34 3e 46 54 1a be 7c a0 d9 bd
       -0.27638286 0.17670037 -0.1507121 -0.10626313
000310 52 39 33 3d 74 ea 6c be 26 9c b5 be 81 19 68 be
       0.043755837 -0.23136312 -0.35470694 -0.22665979
000320 b0 26 1e 3d 0d b9 92 bd 1b cd 88 be de 50 10 3d
       0.038611114 -0.07164202 -0.26718983 0.03523337
000330 1d 86 9c be 3a 51 62 3d f2 ab 97 3e 43 77 ca 3e
       -0.3057107 0.055253245 0.2962337 0.39544114
000340 6e f9 58 3d cd f9 2b be 44 99 24 bb b6 6c 9e be
       0.05297225 -0.1679451 -0.0025115767 -0.30942315
000350 e4 9e 72 be 58 dd 26 3e 67 61 8b 3e fd 28 7c 3d
       -0.23693424 0.16295373 0.2722275 0.061562527
000360 0e 7b 3f bb 6b 8a c3 bc 26 d3 8d bc b1 71 35 3e
       -0.0029217633 -0.023869714 -0.017312597 0.17719151
000370 9f 79 b5 3d b5 56 b1 be bc f5 c0 bd 73 f3 6e 3e
       0.08861088 -0.34636465 -0.0942187 0.23335056
000380 9e b9 b2 be 63 bb 79 3c cf 2c bc 3c 98 84 8a bd
       -0.3490724 0.01524243 0.022970585 -0.067635715
000390 36 ab 06 3d eb fe a3 bd eb 80 18 be 7d cb d7 bd
       0.032878123 -0.08007606 -0.14892928 -0.10536859
0003a0 e5 6d 1c bd c7 c9 70 be ca d9 e9 bd a7 a5 95 be
       -0.03819074 -0.23514472 -0.11418493 -0.29227945
0003b0 f6 49 f6 be a2 28 b1 3e d3 1f 88 be ca d6 68 3e
       -0.48103303 0.34601313 -0.2658678 0.22738186
0003c0 b6 8b d6 be 74 3d 41 3d 67 c7 38 3d 63 05 6e bd
       -0.41903466 0.047177747 0.04511204 -0.058110606
0003d0 8f 0a 06 bf 0d 53 84 be 85 84 11 3e b4 88 8d be
       -0.5235986 -0.25844613 0.14210708 -0.2764336
0003e0 ee a5 50 3e 5b 21 ad 3e ee 72 8d 3d 28 13 e4 bd
       0.20375797 0.3381451 0.06906687 -0.11136466
0003f0 23 24 ce be 71 d5 52 3e df d9 b0 be 68 c5 1b 3d
       -0.40261945 0.20589234 -0.34541222 0.03803006

fc.weight f4 [1, 32]
000000 c4 e3 d5 3e 19 c8 98 3e b8 ea 4f 3e 81 8a 8d 3e
       0.41775334 0.29840162 0.20304382 0.27644733
000010 05 25 66 be 9e 91 35 3e 42 3d 5f be 75 27 82 be
       -0.2247506 0.1773133 -0.21800712 -0.25420728
000020 ad 29 84 be 33 f9 49 bd 8a 9b 23 3e c6 72 a0 be
       -0.25813046 -0.04930992 0.15977302 -0.31337565
000030 a5 72 ca be d9 d6 ad 3e 5e 0c b1 be bf 4b cb be
       -0.39540592 0.33952978 -0.34579748 -0.39706227
000040 5a cc b1 be fa 43 8c 3e e5 cf 63 be a6 50 66 3e
       -0.3472622 0.27395612 -0.22247274 0.22491702
000050 2f 0f 8f be ba 00 15 3e d2 95 61 be 1c 1a 42 3e
       -0.27941272 0.14551058 -0.22029808 0.18955272
000060 4d a9 58 3e 3a 6c a1 3e 91 90 6e 3e cb da 04 be
       0.21158333 0.31527883 0.23297335 -0.12974088
000070 1b 31 74 be 59 9d 9e 3e 37 a8 73 3e cd d2 e5 3e
       -0.23846857 0.30979422 0.23794638 0.4488739
