atropos/trained_model/onehot/no_answer/7/best_acc.pt (torch, 12306 bytes, 5 tensors)

conv1.bias f4 [32]
00000000: 25b4 f53c bd88 223b d3d6 1e3b 2d68 0f3d
00000010: 91ea 9cbc 9ce6 7ebb 14b5 913c c90f 81bb
00000020: 3023 e53b b7b9 5c3c 2f7d 3fbc 6916 d73c
00000030: 7acf e0bc 01fc 28bc 3508 a0bc 3309 f9ba
00000040: b347 e13b ec53 0b3c 71f7 babb 2649 ed3c
00000050: 2769 713b 81c4 33bd 9f01 b33c c4a8 33bc
00000060: 0fa4 03bd 229e 0b3d 4a9a 283d 7fb4 793c
00000070: 13f9 763c 6248 383d 822d a4bc b169 903d
0.029993126 0.002480074 0.0024236932 0.03501146 -0.019154819 -0.0038894778 0.01778654 -0.0039386493
0.00699272 0.013472012 -0.011687561 0.026255803 -0.027442683 -0.010313989 -0.019535163 -0.0018999934
0.0068750023 0.008503895 -0.005705767 0.028965544 0.0036836357 -0.043888573 0.021851359 -0.01096553
-0.03213888 0.034086354 0.041162767 0.0152407875 0.015074032 0.044990905 -0.020041231 0.07051409

conv1.lin.weight f4 [32, 37]
00000000: 8ccf b8bc 353c 283e cf69 a73e 299b 00be
00000010: 947a 9f3c ed1b 943d 63a0 94be d12a 80be
00000020: c41f e73d 7b1a 223e dca4 86be ea74 04bd
00000030: d41c 52be 1816 a13d 7de4 ac3e 56ac 4abd
00000040: d38b 02be c931 adba 625e 813e aab5 883e
00000050: ea53 8c3c 21d3 213d f9c0 dbbd 8418 d43e
00000060: 8132 47be 42aa 963e be43 223e e8ed 683e
00000070: eb13 94bd 73b3 633e 769a 593d c4b0 6f3e
00000080: e317 02bc ebbb f33d a71f 763e 3a0d 173e
00000090: ccb8 0c3d 061e 8b3e 95fd 00be 864c 97bd
000000a0: ca03 e83d 443e 513e e7b9 233e 606d 69be
000000b0: 50fc 66be 8e17 0a3e c772 29be fe06 e2bd
000000c0: 712f e33d e4dd c63d cbd3 f8bd 3781 0fbe
000000d0: d9dc 813e ffd1 67be e294 95be 212f 313b
000000e0: 1806 d23d fb1b 80be f460 813d 8b36 8fbe
000000f0: ad8b 1c3e 43c2 0a3e c128 e1bc 1dc6 8fbe
00000100: 5720 943c 7e3f 93bd a4e2 573e b0ad 913e
00000110: b7aa 033d 517e 1d3e 2fcc 24be 643b 40be
00000120: 649e f2bd 6127 7a3d bdaf c6bd 43d5 a5bb
00000130: f28c 233e 3402 cfbd aa5d 94bd 77ea 23be
00000140: 10cd 053e 21d9 923d f974 3b3d 5540 e03d
00000150: 262b 47be 3002 ac3e f568 943e 60f5 9fbd
00000160: 7418 923c f43d 40be 0c73 833e da06 74be
00000170: b2c7 963d 1ba2 6d3e e9bd 7d3e ef2d 083e
00000180: 50e6 47bd 1ddf 14be 00d2 e4bd a73b 393e
00000190: 216b 2b3e 540b 233e 76b1 673e bd57 d8bd
000001a0: a039 833e 3290 833c 641c 3c3e 5d02 83be
000001b0: cc8c bcbd 632c 1ebe f5ca 9a3e e723 2abe
000001c0: 6a65 303e 04fa 5c3d cf17 643e 8bd4 5dbe
000001d0: eccf 6abe adec 68be 5439 333e ffe5 77be
000001e0: 51cc a93e 5262 1bbe 6519 5ebe 1615 9d3e
000001f0: 8ea9 543e 4f98 61be fc24 82bc 6148 54be
00000200: 3397 8ebe e2ea 023e 4422 2bbe 08da 883e
00000210: d77b 9bbd 255e 4cbe 3bae eb3c 290f af3d
00000220: cc6b 0c3e 7ad3 043e 0db6 673e 7b50 32be
00000230: dcf1 91bd 6e5e 8ebe 6019 633d ab66 1cbe
00000240: 16c1 603e aef9 77bc d2d5 633e 146b 893d
00000250: 3e7d 78be 809e 7c3e 28de 13bb 3af1 413e
00000260: 5793 343d e511 3c3e 9ec2 fdbd 1fd8 f0bd
00000270: 715c 63bc 1a5e e53d 54f2 a8bd dedb 1cbe
00000280: 8f8c 193e 9a75 4ebe 6961 6f3e e422 4fbe
00000290: 2f35 b2bd a25e 023e 65dc 4b3d 6eaa b23d
000002a0: fd62 80be 2fea 4abe 3a8a 0c3d 0e60 c73d
000002b0: 5873 843d b09a 883d 0abf 58be d1ab 82be
000002c0: eb35 6d3e 6315 153e b2d3 093e 2923 283e
000002d0: 7443 a9bd bb30 b5bd 9d95 10be a667 c9bd
000002e0: 9e9f 6e3d 3e80 edbd 183a 92be 5083 723b
000002f0: d149 a1be e100 fc3d 116a f0bd df83 923e
00000300: 0b61 473d 0b5c e5bb 2282 c53d 882b 0b3c
00000310: 962b 663e ec2f 94bc 2eef b1b9 0773 513d
00000320: 3ec4 18be 3f11 8e3e 3473 813d 5821 153d
00000330: f9c9 98be f98d 87be 295a cfbd 134b 473d
00000340: 91b2 02bd ab4c dc3c 8978 dc3d a2ac 803e
00000350: 22b2 9bbe f004 e53c a45d 96be 32c0 203e
00000360: 1912 b1bd 8330 e3bd a141 7abe d6db a3bd
00000370: a9fb ea3d 0d64 2c3d f366 3fbe 74cb 4abe
00000380: fa37 4c3e 341d 06bd fc9b a4be 7836 48bd
00000390: 8f2c d53d 4909 593e 3c55 43be db03 02be
000003a0: 2285 55be 88d2 babd dcf0 a13e f565 af3e
000003b0: f33d 9ebd 93c7 81be 52b9 9ebd beef 113e
000003c0: b078 ad3d 0fcc 883e 4454 ec3d f629 9cbd
000003d0: cf1c a2be 03e3 453e 14ed 0a3c 9630 3dbd
000003e0: 5df9 52be 837e 0fbc 45bd 8bbe 18f9 da3d
000003f0: ab36 1abe 68a7 54be 3608 1b3d 17cf 87be
-0.022559904 0.16429217 0.32697913 -0.12559189 0.01946763 0.07231889 -0.29028615 -0.25032666
0.11285356 0.15830414 -0.26297653 -0.03233806 -0.2051881 0.07865542 0.33768073 -0.04948076
-0.12748651 -0.001321369 0.2526732 0.267011 0.017129857 0.03950799 -0.10730166 0.41424954
-0.1945286 0.2942677 0.15846154 0.22747004 -0.072303616 0.22236423 0.05312582 0.23407274
-0.007940265 0.11901077 0.24035512 0.1475114 0.034355924 0.27171344 -0.12596734 -0.073876426
0.11328848 0.20433909 0.15988885 -0.2279563 -0.22557187 0.13485548 -0.1654769 -0.1103649
0.11093033 0.09710291 -0.12149771 -0.14014135 0.25363806 -0.22638701 -0.2921515 0.0027036148
0.102550685 -0.25021347 0.063173205 -0.279713 0.15287657 0.13550667 -0.027485253 -0.28080836
0.018081827 -0.071898445 0.2108255 0.28452826 0.03214523 0.15380217 -0.16093515 -0.18772656
-0.11846617 0.06107271 -0.09701488 -0.005060823 0.15971735 -0.10107842 -0.072444275 -0.1600741
0.13066506 0.0717032 0.04576585 0.1094977 -0.19450054 0.3359542 0.28986326 -0.078104734
0.017833926 -0.18773633 0.2567371 -0.23830739 0.073623076 0.2320637 0.24779476 0.13298772
-0.048803627 -0.14538236 -0.11172867 0.18089162 0.16740085 0.1592229 0.2262629 -0.1056361
0.25629902 0.016059969 0.18370205 -0.2558774 -0.092065424 -0.1544662 0.3023297 -0.16615258
0.17226186 0.05394937 0.22274707 -0.2166311 -0.22930878 -0.22746535 0.17502338 -0.2420883
0.33163694 -0.15174225 -0.21689375 0.3068015 0.20767805 -0.22030757 -0.015886776 -0.20730735
-0.2784973 0.12784913 -0.1671229 0.26728845 -0.0759198 -0.19957788 0.028769603 0.085478134
0.13712996 0.12971297 0.2262804 -0.17413513 -0.07126209 -0.2780642 0.05544412 -0.1527354
0.21948656 -0.015135212 0.22249535 0.06709877 -0.24266526 0.24669838 -0.0022562835 0.18939677
0.044085827 0.18366201 -0.12390636 -0.11759972 -0.01387702 0.11199589 -0.082493454 -0.15318248
0.14995025 -0.20162049 0.23377003 -0.20228153 -0.0870155 0.12731412 0.04977073 0.08723913
-0.25075522 -0.19815896 0.03431151 0.09735118 0.064673126 0.06670129 -0.21166626 -0.2552171
0.231651 0.1455894 0.13459662 0.16419663 -0.08264819 -0.08847185 -0.14119573 -0.098342225
0.05825769 -0.11596726 -0.28559947 0.0037004538 -0.3150163 0.12304855 -0.117389806 0.28616235
0.04867653 -0.006999498 0.096439615 0.008494265 0.22477564 -0.018089257 -0.00033938274 0.05113509
-0.1491861 0.27747533 0.063208014 0.036408752 -0.29841593 -0.26475504 -0.101246186 0.04865558
-0.031908575 0.026892027 0.10765178 0.25131708 -0.30409342 0.027956456 -0.29368317 0.15698317
-0.0864603 -0.11093237 -0.24439098 -0.08000915 0.114737816 0.042087603 -0.18691616 -0.19804174
0.19943228 -0.032742694 -0.32150257 -0.04888007 0.104088895 0.21194948 -0.19075483 -0.12696783
-0.20851567 -0.09122187 0.31629074 0.34257475 -0.077266596 -0.25347576 -0.07750191 0.1425161
0.08470285 0.26718184 0.1153951 -0.07625191 -0.31662604 0.1932488 0.008479375 -0.046188913
-0.20602937 -0.00875819 -0.2729284 0.10692042 -0.15059917 -0.20766985 0.037849627 -0.26525185

conv_out.bias f4 [32]
00000000: b133 bcbb d321 833b 8fe5 e83b b735 39bc
00000010: e1f8 d83b 498a 5e3b fc68 abbb f5bb b63b
00000020: 2ae7 aabc fbd6 48bb 40f7 d93b 9777 06bb
00000030: c729 283c 810b f33b 5af2 df3b 4650 58bb
00000040: c779 e13b d9db 29bc 4d3c a2bc 7720 f6ba
00000050: acf1 c5bb d21d d13b 20f7 0dbc ccce 85bc
00000060: 2dd6 213c a1ec 0cbc d8a8 f63b 2d01 1f3c
00000070: bf0b b53b 2c55 cbbb 9fe2 77bb afb0 20bc
-0.005743467 0.004001835 0.0071074436 -0.0113043105 0.0066214656 0.0033956936 -0.005231021 0.0055766054
-0.02086218 -0.0030645716 0.006651789 -0.0020518058 0.010263867 0.007417143 0.0068343105 -0.003300683
0.006880972 -0.010367357 -0.019804144 -0.0018777986 -0.0060407724 0.0063817287 -0.008664876 -0.01633396
0.009877724 -0.008601339 0.007527452 0.00970487 0.005525082 -0.0062052216 -0.0037824286 -0.00980775

conv_out.lin.weight f4 [32, 32]
00000000: 18c5 ea3d d3e9 2c3e 0f10 28be 33ac 4cbd
00000010: 97a4 2e3c 331c 4bbd 01c5 a63e a3c8 09be
00000020: cd46 86be 3f8d 723e 02c8 7a3e d410 9d3e
00000030: b462 663e 291c 7ebe d78b 7638 0ba7 a03e
00000040: b1a1 613e 59a2 3cbe 60fe f13d 89dc cd3d
00000050: eaa5 38bc 32bc 993e 90d0 2bbe c949 a8bd
00000060: ee5e 29be 135c 903e 8f09 0b3d 8975 a73e
00000070: bed6 b23c 9fe0 6fbc 9a6d 1c3d c5c6 9ebd
00000080: 8e63 8dbc fad7 f3bd 353d 43be 149f 583e
00000090: 939b 85be 4432 b13b a6a2 72be 37b7 613e
000000a0: f737 543e aae3 123d bb7c db3d d7c4 373e
000000b0: 5cd9 6f3e 21d7 17be 0274 563e 28bc 97bd
000000c0: 634e 2d3e 66cf d53d 8ff8 813e 6ca9 23bd
000000d0: f630 17bd 8b9f 423d f424 2ebd dcdc 9a3e
000000e0: 743d 153d 9132 363e 8334 b0bd bc26 92be
000000f0: e8b3 653e 3859 fdbd 8f24 06bd 5895 46be
00000100: c14e 91bd 0b30 4d3e 594a 8b3e f161 a4be
00000110: 32f0 19be 0237 01be b7bf 353e a2b6 49be
00000120: aa29 283d 43fa 4dbe 422b 0a3c 3600 5c3e
00000130: f983 433e 73be 21be 5d76 59be fad6 743e
00000140: c943 443e a31e 1c3e 1452 333e 1041 90be
00000150: 3606 8ebe 9442 eebc 2d32 d6bd d4a0 69be
00000160: dead 93be 6db9 97be 72c6 35bd 7c8c 4d3e
00000170: 2c4a 6ebe e7e6 78be 35f0 a4be abf0 95bc
00000180: 5957 f33d 4380 60bd 7274 cebd 8a08 63bd
00000190: 8031 02be e515 f6bd f2d7 813e 1bd5 5d3e
000001a0: 3156 e3bd 88e6 3e3d d413 413d a619 adbd
000001b0: 1baf 153d ffb3 2cbe 2319 5f3e 4c0c 15be
000001c0: 1f9e fabd f86d 8dbe edde afbd 269d 843e
000001d0: 2bf4 563d c389 8a3e edca 723e 7bd0 8fbe
000001e0: 9822 163e 751d 683e b488 00bc 6245 61be
000001f0: e90a 3fbd 9714 923e e95d 48be e508 aa3e
00000200: 4d73 adbd 72d9 82be f3bc a2be 75cd 583e
00000210: 759b 563e 241f e9bd ed7d 79be 6784 3cbe
00000220: 6ece 84be 106f 743e 9a7b 7bbe 0796 1b3e
00000230: f3e7 16be 9717 953d 1580 5d3e d7d4 893e
00000240: bc39 433d 3842 74be 0ef0 943e 3a26 583d
00000250: 5103 3abc 2a4b 4b3e 4486 a5be 0074 0f3e
00000260: 4036 de3d cdd8 79be f26e 94be bb3b 02be
00000270: 7230 973d 0863 173e f5ad 063d da48 77be
00000280: 9741 34bc 72be 55be 7b0e 97be 4a27 813d
00000290: 35fa 9f3d 906d d1bd 430e 52be 6073 a63c
000002a0: 6963 a03d d713 6fbd 68ca 57be d8d1 91be
000002b0: 7be8 983d 2ea5 babc 1c5f 81be f230 a4be
000002c0: 288c f0bc 5424 a83d 32c6 94bc 5f6c a7bd
000002d0: 960f 97be 352c 443e 36ed 4b3d 81fc 603e
000002e0: 227a 7ebe a50f 7f3e ab83 3f3d 07cc a7be
000002f0: 7460 8b3e fb0f 5e3e aabf 09bd 0916 d83d
00000300: 532f 65bb b8bd e2bd d48e f83d 9a94 0a3e
00000310: 21e1 3e3e d8e8 03be 346c 00be 8d18 8f3d
00000320: 3066 843e 3422 8b3d e25b 51be c5b2 1f3d
00000330: 2f1a 53be c8a8 993d 3eea aebd f6ed 5b3e
00000340: 0cc7 3cbd 01c9 683e 37bf bcbc a9a6 eebd
00000350: dc69 4dbe 0ff9 f73d fd9c 1f3e 1fe6 463e
00000360: eaa6 d13d 746e 5c3e 2277 0fbe 103b a4bc
00000370: 6585 ca3c d10d a63d 7f27 8f3e e039 fc3d
00000380: c7eb 8b3d e83b 723e f4dc 9d3b e17a 1e3e
00000390: 732d 51be 95ea 6fbe 8c32 243e 8e61 5cbe
000003a0: 8ac0 6b3e 9033 d43c 2766 793e 81f9 e13d
000003b0: 584d 083e 5099 1c3e 1f81 9bbe 8dd3 363c
000003c0: f7cf 89be ba03 8bbe 256d 0fbe 107e 5f3e
000003d0: e2ab 81be c733 65be 3433 703e 0398 94be
000003e0: c0f4 98be 6f31 4bbe 9ce9 4ebd a0ec 86bc
000003f0: 4c8d 003e 45ef 8c3c 5c63 d13d d0eb 42be
0.11463374 0.16886072 -0.16412376 -0.04996891 0.010659358 -0.04958744 0.32572177 -0.13455443
-0.26225892 0.23686694 0.2449036 0.306769 0.2249859 -0.2481543 5.8781206e-05 0.31377444
0.22034337 -0.18421306 0.11816096 0.10051829 -0.011270026 0.30026394 -0.16778779 -0.082171984
-0.16540119 0.28195247 0.033944663 0.3270686 0.021830913 -0.014640956 0.03819046 -0.07752756
-0.017259385 -0.11906429 -0.19066317 0.21154433 -0.26095256 0.0054076035 -0.23694858 0.22042547
0.20724474 0.03586165 0.1071715 0.17946182 0.2342276 -0.14828159 0.20942691 -0.07408935
0.16924433 0.10439949 0.25384948 -0.039956495 -0.036911927 0.047515433 -0.04251571 0.30246627
0.03643556 0.17792727 -0.08603766 -0.28545177 0.2243191 -0.12370533 -0.03274971 -0.19392908
-0.07095099 0.20037858 0.2720516 -0.32105973 -0.15033033 -0.1261864 0.17748915 -0.19698575
0.04105536 -0.20114999 0.008433165 0.21484455 0.19093312 -0.15795307 -0.21236558 0.23910132
0.19166483 0.15246062 0.17511779 -0.2817464 -0.27739114 -0.029084481 -0.10458789 -0.22815257
-0.28843588 -0.29633656 -0.044378705 0.20073122 -0.23270482 -0.24306832 -0.32214513 -0.018303236
0.118818946 -0.05480982 -0.10080804 -0.055428065 -0.12714195 -0.12015895 0.25360066 0.21663325
-0.11100424 0.04660657 0.04713805 -0.08452158 0.036543947 -0.16865538 0.21786933 -0.14555472
-0.122371905 -0.27622962 -0.085874416 0.25901145 0.05247895 0.2705823 0.23710223 -0.28088745
0.14661634 0.22667487 -0.007845093 -0.21999124 -0.046641264 0.28531334 -0.19567074 0.3320991
-0.084692575 -0.25556523 -0.31784782 0.21172126 0.2095774 -0.11382893 -0.24364443 -0.18409882
-0.25938743 0.23870492 -0.24558869 0.1519395 -0.14736919 0.0727989 0.2163089 0.26920196
0.04766248 -0.23853385 0.29089397 0.05277083 -0.01135333 0.19852892 -0.32329 0.14009094
0.10850191 -0.24399109 -0.28990895 -0.12718098 0.07382287 0.14783871 0.032880742 -0.24148884
-0.011001966 -0.2087343 -0.29503235 0.06306322 0.07811395 -0.102259755 -0.20513253 0.020318687
0.07831461 -0.05836853 -0.21073306 -0.2848041 0.07466217 -0.022783842 -0.25267875 -0.32068592
-0.029363707 0.08210054 -0.018160913 -0.08174967 -0.2950408 0.19157489 0.04978677 0.21971323
-0.24851277 0.24908312 0.046756428 -0.32772848 0.27222025 0.21685784 -0.03363005 0.10551078
-0.0034970834 -0.11071342 0.12136617 0.1353325 0.18640567 -0.12881792 -0.12541276 0.069871046
0.25859213 0.06793633 -0.20445207 0.038988847 -0.20615457 0.075028956 -0.08540772 0.21477494
-0.046088263 0.22732927 -0.023040397 -0.11652882 -0.20059913 0.12108051 0.1558723 0.19423722
0.102369145 0.2152651 -0.1401029 -0.020047694 0.02472181 0.08108104 0.2795982 0.12315726
0.0683208 0.23655665 0.0048175994 0.15476562 -0.20427494 -0.2342933 0.16034907 -0.21521589
0.23022667 0.025903493 0.24355374 0.11033917 0.13310754 0.15292859 -0.3037195 0.011158836
-0.26916477 -0.2715128 -0.14006479 0.21825433 -0.2532645 -0.22383033 0.23457032 -0.29022226
-0.2987423 -0.19843076 -0.050515756 -0.016470253 0.125539 0.017203936 0.102240294 -0.19035268

fc.weight f4 [1, 32]
00000000: c17f c83d be62 bbbd cf70 1dbd 1910 9f3d
00000010: fdc5 1ebe ac22 ecbc 610d b83d 6a07 18be
00000020: 60e7 723b 7b7f 743d 54e1 1fbe e931 1b3d
00000030: 4bb5 63bd 8717 3cbe 8be5 50be c00e d23d
00000040: 7e06 0abd 18a8 933d a5ca 193b 615c c0bc
00000050: 55c5 1f3e 1206 30be cc12 ec3d 076e 793c
00000060: 3bdc ddbc c734 4b3e a39c 20bd 428b 96bd
00000070: 5a77 29be 941c 473e ba8b 2a3d 87ba aa3d
0.09789992 -0.09149693 -0.03843766 0.07766742 -0.15505214 -0.028825127 0.08986927 -0.14846578
0.003706418 0.059691887 -0.156133 0.037889395 -0.055592816 -0.1836835 -0.20400064 0.102567196
-0.033697598 0.07209796 0.0023466733 -0.02348155 0.1560262 -0.17189816 0.11527023 0.0152239865
-0.027082553 0.19844352 -0.03921188 -0.0735078 -0.16549435 0.19444495 0.04163716 0.083363585
