atropos/trained_model/nhot/no_answer/add/10/best_acc.pt (torch, 17298 bytes, 5 tensors)

conv1.bias f4 [32]
000000 8b 08 b0 3b 86 07 01 3c 84 8c 4a bc b3 7a ba bc
       0.005372112 0.007875329 -0.012362603 -0.022763586
000010 9d 1f 7d bc 76 13 e2 bc 31 df 81 bc db e6 dc 3c
       -0.015449432 -0.02759717 -0.015853496 0.02696555
000020 01 ca f5 bb bc 75 6d bb 9e 2b 14 3c 81 c7 86 bc
       -0.0075008874 -0.0036233505 0.009043602 -0.016452553
000030 7c c4 ab bb 6d 85 46 3c 06 6b 8f 3a 7f 50 42 39
       -0.0052419286 0.012116772 0.001094193 0.00018531269
000040 ab 88 bc 3c 02 76 ac bb 4c a3 af ba e5 b8 00 bb
       0.023014387 -0.005263091 -0.0013400107 -0.0019641456
000050 b1 7a c9 ba 71 59 33 bc f3 01 67 3c c9 86 8a bc
       -0.0015371648 -0.010946617 0.014099586 -0.016909974
000060 fd 0c 96 bc 7d c5 b6 bc db f1 8b 3b 26 b1 94 3b
       -0.01831674 -0.022310967 0.004270775 0.0045377193
000070 3f 62 f6 bb 8e dd 0f 3c d9 f4 e7 bb 7f eb a9 bb
       -0.007519036 0.00878085 -0.0070787487 -0.005185544

conv1.lin.weight f4 [32, 76]
000000 ef f8 03 bd f8 7f 46 3e df a4 c4 bd db c2 5a be
       -0.032219823 0.19384754 -0.09601759 -0.21363394
000010 7a 40 87 3d 33 be 71 3e 5b 17 82 3d 6c d9 f9 bd
       0.06604095 0.23607711 0.06352111 -0.12199673
000020 e6 2e 6f be 5a 05 d3 bd f6 65 af bc 24 54 71 be
       -0.23357734 -0.10303755 -0.021410923 -0.23567253
000030 15 57 29 be 1c 0a 25 be 31 15 44 be 99 74 dc 3d
       -0.16537125 -0.16117138 -0.19148709 0.10764427
000040 0c 2d 63 bd d3 fc b2 bd 54 74 1a 3e 81 c7 16 be
       -0.055462882 -0.08739629 0.15083438 -0.14724542
000050 ea 52 0a 3d 3d 7a 72 be 8b fe 80 bd 6f 8e ba bc
       0.03377048 -0.23679443 -0.0629855 -0.022772996
000060 ae 2a 9f 3d fc 3f 6f be ee a3 b8 3d a6 ff fd bd
       0.077718124 -0.23364252 0.09015642 -0.12402277
000070 40 eb 9f 3d 53 63 21 be 83 6f 2f 3e f5 09 a8 bd
       0.07808542 -0.15760545 0.17132382 -0.08205024
000080 12 c9 0f be 05 9f 17 be c7 a8 0b 3e 12 2c 26 3e
       -0.14041546 -0.14806755 0.13638602 0.16227749
000090 ef cd 28 3e 22 9e f1 3d de ff 9c bd 01 9d 09 3d
       0.16484807 0.117977396 -0.0766599 0.033596996
0000a0 77 0a 6e be 93 af 29 3e ce da 39 3e b7 a4 d6 3d
       -0.2324618 0.16570882 0.18149874 0.104806356
0000b0 cb ee 57 be 77 e6 00 bd d7 10 03 be 9f 35 57 be
       -0.21087186 -0.03146979 -0.12799393 -0.21016549
0000c0 c8 b6 a8 3d 8e b0 31 be 99 f3 bc bd 51 57 22 bb
       0.08237988 -0.17352507 -0.0922615 -0.0024771283
0000d0 d8 1f 02 3d d0 21 f0 bd 7a 05 78 3e 84 a6 b8 bd
       0.03176865 -0.11725199 0.24220839 -0.09016135
0000e0 2d 7e 2e 3e 67 18 54 3e 51 39 2d 3e 8e 94 b7 bd
       0.1704032 0.20712434 0.16916396 -0.089638814
0000f0 b3 27 ba bb 24 6a 8b bd 18 86 43 be 2f 16 22 3e
       -0.005681002 -0.06807354 -0.19094121 0.15828775
000100 8b 9d cc 3d f1 9c 2f 3e ac a4 8d 3b cd 70 8d 3d
       0.099909864 0.17149712 0.004322609 0.06906281
000110 0f c6 39 be c0 e3 f4 bd 41 bd bc bd d0 ee 4b bd
       -0.1814196 -0.11957502 -0.09215785 -0.049788296
000120 07 97 0b 3e 3c a8 60 be 57 ec 80 3d ec 71 25 3e
       0.13631831 -0.21939176 0.06295078 0.16156739
000130 bc 44 e3 bd 93 5e 75 be 19 a2 44 be e9 95 70 be
       -0.110970944 -0.23961858 -0.1920246 -0.23494686
000140 56 79 c9 3d 76 14 d9 bd f0 34 0f bd f5 bf 01 3e
       0.09837596 -0.10599606 -0.034962595 0.12670882
000150 72 21 1b be 14 a4 ab bd 10 74 ae 3c a9 66 06 be
       -0.15149477 -0.08380905 0.021295577 -0.13125099
000160 e4 84 fe 3d f9 ae c8 bd df 07 68 3e ec e7 14 3e
       0.124276906 -0.097989984 0.22659253 0.14541596
000170 9d 88 25 3d 6d ec 1b bd d6 bd 12 be 96 cf 6b 3d
       0.040413488 -0.03806727 -0.14330229 0.057571016
000180 ac 4e e8 bd f3 7b a6 bd a4 6c 37 3e 25 81 41 be
       -0.113431305 -0.0812911 0.17912537 -0.18896921
000190 34 fb 4e 3d b8 5a 86 3d 87 e5 89 bd 1d c6 24 3e
       0.050532535 0.06560272 -0.06733232 0.16091199
0001a0 f0 f2 ca 3d f0 f3 04 bd 4b 27 c0 3d 88 6c 2b 3d
       0.09909618 -0.0324592 0.093824945 0.04185155
0001b0 95 df e7 3d b9 f8 ea bd 94 e9 36 3e b3 4c 77 bd
       0.11321942 -0.11473221 0.1786254 -0.06037588
0001c0 a3 32 1f be c0 13 69 be 1c 69 f5 bc 89 fd 18 be
       -0.1554666 -0.2276144 -0.029957347 -0.14940466
0001d0 14 3e 66 3d 96 47 12 be e6 6d 91 bd 5e 5f 80 3e
       0.056211546 -0.1428512 -0.071010396 0.2507276
0001e0 c0 d8 03 bd c7 13 8a bd c2 e8 3c be 67 c4 28 bd
       -0.03218913 -0.067420535 -0.18448165 -0.04120293
0001f0 19 b7 0c be 36 37 ec bd 70 1d 44 be 56 ff a5 bd
       -0.13741721 -0.11533968 -0.19151855 -0.08105342
000200 78 b7 28 bd 3e 15 6d bd 7c fe 8b bd 14 af 55 bc
       -0.041190594 -0.057881586 -0.068356484 -0.01304223
000210 6d a5 27 be 10 f8 f4 3d 53 6c 67 be 00 33 50 3e
       -0.16371699 0.11961377 -0.22599916 0.20331955
000220 f9 0a 9f 3b 3e f5 82 3d 1e 05 aa bd 60 8e 22 be
       0.004853603 0.063944325 -0.08301757 -0.15874624
000230 8c ab 15 3e 26 52 0e 3d 5c aa ef bd 2f 4d 5b bd
       0.14616221 0.03474631 -0.11702415 -0.053540405
000240 ab 6a 9f 3b 68 47 32 be 64 38 c9 3d 13 b8 b8 3d
       0.0048650107 -0.17410052 0.09825209 0.09019484
000250 54 5b 08 bd 5c 69 99 3d 54 e1 60 3e e7 83 2c be
       -0.033290222 0.07490799 0.21960956 -0.16847192
000260 65 2b 19 be b0 e8 57 3e 1d c3 00 3a c1 ee 1f 3c
       -0.1495796 0.21084857 0.00049118866 0.009761513
000270 bc 33 a6 3d 03 15 bd 3b 3f 1d da bd cd c3 66 be
       0.08115336 0.005770327 -0.106501095 -0.2253563
000280 17 6e ce 3d 32 c9 43 be 62 65 42 be 48 d0 38 bd
       0.10079592 -0.19119719 -0.18983987 -0.045120507
000290 d0 e7 33 be 9d b9 65 bd 54 7b 40 be 18 7f e5 3c
       -0.17568898 -0.056085218 -0.18797046 0.028014705
0002a0 bd 9d 53 be 3d 80 01 3e ca 7a 5c bd 82 52 18 be
       -0.20665641 0.12646575 -0.05382804 -0.14875224
0002b0 d4 e0 06 3e 23 ed c0 bd 78 a5 bd bd ec 18 08 be
       0.13171703 -0.0942023 -0.09260076 -0.13290757
0002c0 a1 5d 3f 3e 2e 4b e5 bd ac b8 34 3d 55 59 80 bb
       0.1868806 -0.1119598 0.04412143 -0.003916899
0002d0 cb a2 45 3e 41 b3 e4 bd 31 90 15 3e c2 31 47 3e
       0.19300382 -0.111670025 0.14605786 0.19452575
0002e0 ee f6 3c be 97 52 49 3e e8 d5 ed 3c e0 5e c9 3d
       -0.18453571 0.19660412 0.029032663 0.09832549
0002f0 09 e9 24 3e 7e c0 88 bd 57 07 33 3e 15 6d 76 be
       0.16104521 -0.0667734 0.17483269 -0.24065049
000300 b7 24 1c 3e dd b1 6d 3d 2f c8 fa bd 17 97 01 be
       0.1524838 0.05803095 -0.12245213 -0.12655292
000310 a5 68 f2 3d 55 4f b7 bd 7c ee dd bd 0a c1 b6 3d
       0.118363656 -0.08950678 -0.10836503 0.08923538
000320 53 9c 21 be 5a 81 79 3e 0b b2 32 3e 65 98 b3 3d
       -0.15782289 0.2436575 0.1745073 0.08769301
000330 3a e0 34 be 02 43 43 bc ff fc a2 3d e6 68 64 be
       -0.1766366 -0.011917831 0.079584114 -0.2230564
000340 21 49 59 3e 09 d3 35 3e cb 54 51 bb f6 1c 31 be
       0.21219303 0.17756285 -0.003194141 -0.17296204
000350 3e 7a 38 be 84 6c a9 3d 04 b4 91 3d b5 5f 3a 3e
       -0.18015382 0.08272651 0.071144134 0.18200572
000360 9a 40 c4 3d 5e 1a ec bc 7a a0 32 be ba 15 15 be
       0.09582634 -0.028821167 -0.1744403 -0.1455907
000370 9b 75 4c be 32 48 03 3d b2 b9 bf ba a0 21 1d 3d
       -0.19966738 0.032051273 -0.0014627485 0.038362145
000380 5b 55 8b 3d 4f b4 f2 3d 36 e7 13 bb 6f 0c 2b 3e
       0.0680339 0.118507974 -0.0022568232 0.16703962
000390 e4 88 22 3e a9 12 ae bd 4a ed b0 bd 47 6f 1e 3e
       0.15872532 -0.08499653 -0.08639009 0.15472136
0003a0 ff ed 61 be 7c 56 50 3e 54 94 47 3e e6 62 ed 3b
       -0.22063445 0.20345491 0.19490176 0.0072444556
0003b0 af 09 49 3e 13 35 16 bc 22 1d 07 3e e6 49 f0 bd
       0.196326 -0.009167927 0.13194707 -0.11732845
0003c0 1b a4 80 bc 4f 89 4e 3e d4 ed e2 3d e0 8d 2b be
       -0.015703252 0.20169567 0.11080518 -0.1675334
0003d0 c5 fa 84 bd d8 09 27 bd 69 ed e9 bd 59 da 3a be
       -0.06493143 -0.040780872 -0.114222355 -0.18247356
0003e0 8e 11 5d 3e 3d 59 80 3d 60 6b cf 3c 81 ae 42 3e
       0.21588728 0.06267021 0.025319755 0.1901188
0003f0 af ab 52 bc 81 6f 3d 3e 74 8a 6d 3e 94 2f 4f 3e
       -0.012858315 0.18499567 0.23197347 0.20232993

conv_out.bias f4 [32]
000000 20 ab 3a 3c 85 5f 3f bc d7 b9 43 3c 97 8e 3d 3c
       0.011393338 -0.0116804885 0.011946163 0.011569641
000010 aa c1 31 bc 64 a3 3e bc 7f 34 98 bb 03 2a 3c 3c
       -0.010849396 -0.011635635 -0.00464493 0.011484626
000020 2b c9 37 3c db 1f 37 bc 7b 7e 44 bc d7 3d 50 3c
       0.011217396 -0.0111770285 -0.011993046 0.012710056
000030 7f e5 48 3c 8e bb 1b 3c 60 60 3d 3c c1 bd 37 3c
       0.012261747 0.009505166 0.011558622 0.011214674
000040 bb a1 41 3c 21 e5 36 3c f8 2d 35 3c 69 bd 3f 3c
       0.011818345 0.011163027 0.011058323 0.011702874
000050 9c a9 41 bc b8 8b 42 3c 74 cc 40 bc 6a 25 3c 3c
       -0.011820223 0.011874132 -0.011767495 0.01148353
000060 77 d6 5a bc 64 1b 3c bc e3 14 36 bc cf ba 42 3c
       -0.0133567965 -0.01148114 -0.011113378 0.011885359
000070 f0 a4 33 3c d4 0d 4d bc 87 08 3a bc 59 cf 2c 3c
       0.010964617 -0.012515504 -0.011354572 0.010547482

conv_out.lin.weight f4 [32, 32]
000000 dc 3b 25 3e 1a 2d 3e be 4d de 81 be 25 02 c7 bd
       0.16136116 -0.18571892 -0.25364915 -0.09717206
000010 5e 35 0f be df 90 dd bd 4a 3b 86 bd 49 9e 70 3e
       -0.13985202 -0.108186476 -0.06554277 0.23497881
000020 9e bd 06 3d 26 39 14 3e 91 bd 8b 3d c7 a8 b3 bd
       0.032895677 0.14474925 0.06823266 -0.08772426
000030 53 6f 94 3e 8b b6 79 be a4 96 f8 3d 72 b5 5d 3e
       0.28991184 -0.24386041 0.121381074 0.21651247
000040 15 3d 66 bd f4 45 ce 3d 06 f4 82 3e 67 1a 8d 3c
       -0.056210596 0.10071936 0.255768 0.017224504
000050 02 a4 76 be 55 f0 44 3d cd bf 7d 3e a2 af 33 be
       -0.24086002 0.04808076 0.24780197 -0.17547467
000060 fc c2 02 3e 5e e7 9e 3c 93 3c 33 be b2 fd bd bc
       0.12769693 0.019397434 -0.17503576 -0.02319226
000070 2a d6 89 3e b1 11 43 bc 32 31 55 3e f7 00 97 be
       0.26921207 -0.011906073 0.20819548 -0.29492924
000080 d1 09 6c 3e 75 67 72 3e 76 04 1f 3e 55 08 7c bb
       0.2305062 0.23672278 0.15529045 -0.0038457115
000090 8e 48 a4 be 69 40 d3 3b c3 f5 8c bc 00 e8 ff bd
       -0.32086605 0.0064468873 -0.017207032 -0.12495422
0000a0 8d aa 19 be 6a 98 5d 3d 4b 3b 9f 3e cc 33 34 be
       -0.15006466 0.05410043 0.31099924 -0.17597884
0000b0 40 44 ed bd e5 a7 6a 3e bf a6 0f 3e 4e af f3 3c
       -0.11585283 0.22915609 0.14028452 0.029746678
0000c0 30 fd 90 3e 39 15 9b 3d ad 3e 66 be 2c c7 99 3e
       0.28318167 0.07572407 -0.22484846 0.3003477
0000d0 1f 31 28 3e dc 30 17 be 97 cb 40 3e a5 12 3b 3e
       0.16424988 -0.14764732 0.18827663 0.18268831
0000e0 46 05 3e be 39 5d 52 3e 05 90 89 be 28 71 5f be
       -0.18556699 0.20543374 -0.2686769 -0.2182051
0000f0 ba 57 ee 3c 74 45 34 3c 20 11 27 3e 84 c3 41 3e
       0.029094566 0.011002887 0.16315126 0.1892224
000100 8d 4d 48 be 35 a5 9a bd b9 fb 77 be dc 2f fb bd
       -0.19560833 -0.07551042 -0.24217118 -0.12264988
000110 18 dc 8e be 20 74 31 be 73 c5 9a 3e 2a 91 3f be
       -0.27902293 -0.17329454 0.30228767 -0.1870772
000120 b0 fe 51 be e4 c5 ee bd c1 61 32 be 44 f2 2d 3e
       -0.20507312 -0.116588384 -0.17420103 0.16986948
000130 e3 01 53 be 0b 98 07 be d1 2f 85 be 82 d0 2f 3e
       -0.20606188 -0.13241594 -0.26013044 0.17169383
000140 a2 95 46 be 00 ef 9b 3e 91 95 9c be 2d 24 f3 bc
       -0.19393018 0.3045578 -0.3058286 -0.029680336
000150 02 30 82 3d 74 e5 65 be 1e a8 08 be ec 62 91 3e
       0.06356813 -0.2245081 -0.13345382 0.28395784
000160 ad 58 09 be da d6 ee bc eb 46 85 3e a0 9e 19 be
       -0.13412733 -0.029155184 0.2603067 -0.15001917
000170 42 7f 67 be d7 31 2b be b8 1e 3b bd f3 54 ca 3d
       -0.22607139 -0.16718231 -0.045683593 0.09879484
000180 d4 cc f5 bd 7a 71 6c be 1a b1 01 bc 05 bb 44 bd
       -0.120019585 -0.23090163 -0.007915759 -0.04802992
000190 4d f2 56 be 8b 22 fc 3d 43 16 12 3d d5 91 f1 3d
       -0.20990868 0.12311276 0.03566576 0.117953934
0001a0 70 ed 0e bd 0b 86 6c bd 50 73 82 bd 53 9c 7c 3e
       -0.034894407 -0.05774502 -0.0636965 0.24669008
0001b0 57 3d 3f 3e 6f af 4f be 59 3b ee bc a7 89 be bd
       0.18675743 -0.20281766 -0.029081034 -0.09303599
0001c0 da bb 08 3d 92 f1 6c be d6 6e 91 3c 5e 14 4a 3e
       0.033382274 -0.23139027 0.017753046 0.19734332
0001d0 79 30 65 be 5b d8 1f bc 41 7d 53 3d 16 c2 cd bd
       -0.22381772 -0.009756173 0.051633123 -0.100467846
0001e0 ce f3 74 3e c4 90 17 be ef d5 8a 3d c2 16 95 bd
       0.23921129 -0.14801317 0.06779086 -0.07279731
0001f0 2c 62 89 be b4 3a 75 bd ea e4 00 be 4c 54 5d be
       -0.26832712 -0.059870437 -0.12587324 -0.21614188
000200 9c 3c 5f be 64 fa 4d 3e f4 3a de bd 4f 76 35 be
       -0.21800464 0.20115048 -0.10851088 -0.17720912
000210 67 4f 63 be a7 d4 9b 3c b3 21 df bd b7 e9 21 3d
       -0.22198258 0.019022299 -0.108950995 0.03952953
000220 d2 a8 4e be 01 78 79 3c 60 b4 10 3e 34 6d 23 3e
       -0.20181587 0.015226365 0.14131308 0.15959626
000230 17 18 84 3e 34 9b 5b be 2c f2 8d be 6d 4e 89 3e
       0.2579963 -0.21445924 -0.27723825 0.26817647
000240 cc 43 e7 3b 11 83 44 3e bb 40 45 3e 8a 5f c5 bd
       0.0070576426 0.19190623 0.19262974 -0.09637363
000250 40 41 1e be 47 e7 78 be 60 5f 02 3e db d1 70 be
       -0.15454578 -0.24306975 0.12731695 -0.23517554
000260 db a7 30 3e 3a f8 8c bd 6e 04 1d be b1 7e 32 be
       0.17251532 -0.06883283 -0.15333721 -0.17431141
000270 6e f8 89 3d 2f c0 7a be fb 17 a7 bd ac 09 64 be
       0.06736837 -0.24487375 -0.08158871 -0.22269315
000280 a7 c8 da bd ae 5a 90 bd 6b 16 49 be c6 bb 66 3c
       -0.10682803 -0.07048546 -0.19637458 0.014082855
000290 d4 b6 7b 3d 35 12 f1 bd 9c 29 50 bc 73 b0 a2 3d
       0.061453655 -0.11771051 -0.012705233 0.07943811
0002a0 06 a4 83 ba 5f ba 58 be b2 bf 7c 3e 0e 1e bd 3d
       -0.001004339 -0.21164845 0.24682501 0.09234248
0002b0 9e 39 8e 3e 88 7d 97 3e ad 69 d0 3d 44 7d 6c 3d
       0.27778333 0.2958796 0.10176406 0.05773665
0002c0 49 e1 d4 3d f8 cd 66 be 60 53 92 be 87 06 33 3e
       0.10394532 -0.22539508 -0.28579235 0.17482959
0002d0 49 9b e4 bd 85 51 f4 bd f3 3e 26 3e 6c a6 8e be
       -0.11162431 -0.11929611 0.1623495 -0.27861345
0002e0 fb 86 85 3e e4 06 8e 3d 48 a6 35 3e 34 69 f5 bd
       0.26079544 0.06934908 0.17739213 -0.119829565
0002f0 69 d8 74 3e ea 83 b7 3d 36 a7 67 be ea 7c 42 3e
       0.23910679 0.089607075 -0.2262238 0.18992963
000300 80 e2 ce 3d ab 7b ac 3d cc 10 91 3e cd 28 46 be
       0.10101795 0.08422025 0.28333127 -0.19351502
000310 e4 8d cc 3c 39 49 71 3b 67 85 d9 bd 6e e9 ec bd
       0.024970002 0.0036817326 -0.106211476 -0.11567961
000320 cf 06 0f 3e 4f 61 79 be d4 d5 82 be ff 0e 81 be
       0.13967441 -0.24353527 -0.25553763 -0.25206754
000330 31 40 8a 3e 9c 57 49 be 18 3c c0 3d b4 36 c3 3d
       0.270021 -0.19662327 0.09386462 0.09531918
000340 22 fe b0 3d f4 bc 51 3e 42 99 4a 3e 85 e1 c2 3d
       0.08642222 0.20482236 0.19785026 0.09515671
000350 0d a0 45 3e d1 ff 82 bd 8c 8a 34 3e 2d 03 a8 3d
       0.19299336 -0.06396449 0.17630976 0.08203731
000360 50 a0 8f bc ec d3 70 be 76 37 67 3e 20 ae 6b 3e
       -0.017532498 -0.23518342 0.2257975 0.23015642
000370 33 12 42 3d 1d 7c 67 bd ec ae 38 be 71 a6 1e be
       0.047380637 -0.056514848 -0.18035477 -0.1549318
000380 ff 9f 77 be 43 ff 56 be a6 13 3d 3e 9e 49 1c bd
       -0.24182127 -0.20995812 0.18464527 -0.038156144
000390 f2 4c 92 3e f2 33 ee 3d fa 0d e0 3d 2d e4 a0 3d
       0.2857433 0.116310015 0.10940166 0.07856021
0003a0 ff e0 2d 3e 9a 5b 04 be 52 a9 1c 3e bf 85 48 be
       0.1698036 -0.12925568 0.15298966 -0.1958227
0003b0 ac 07 1b 3d 75 e6 ee bd 80 1c 9a 3e bd ef 4f 3e
       0.037849113 -0.1166505 0.3009987 0.20306297
0003c0 21 dc 13 3e 18 fb 17 be 86 34 94 3d 0a 7c 0a be
       0.14439441 -0.14841878 0.072365806 -0.1352388
0003d0 44 44 30 3e f9 5b 47 be 3e a4 0d 3e 27 14 e9 3d
       0.17213541 -0.19468679 0.13832185 0.11380797
0003e0 bf 4e 88 3e cb eb 34 be 31 47 8a 3d c2 66 83 3e
       0.26622579 -0.17668073 0.0675186 0.25664335
0003f0 ad a3 53 3e ac fd 83 3e ee 15 ff bc 46 7b 26 3e
       0.20667906 0.25779474 -0.031138387 0.16257963

fc.weight f4 [1, 32]
000000 c1 21 8c 3d 8f af f8 bd 7a 8d a6 3d 71 47 73 3d
       0.068423755 -0.1214286 0.08132453 0.059394304
000010 6e 1f aa bd 7e 2a 09 be 5d 5b 32 3b 37 58 8b 3d
       -0.08306776 -0.13395116 0.0027215101 0.06803935
000020 30 c8 ea 3d 30 96 b6 bd 49 b6 a2 bd fa 29 63 3d
       0.11463964 -0.08915365 -0.079449244 0.055459954
000030 9b dd 69 3d 5e c6 8a 3c 8c 37 e6 3d 0e a9 00 3e
       0.057096105 0.016940292 0.112410635 0.12564489
000040 2a f7 c5 3d 03 b1 0a 3e d0 ef 46 3d 58 17 fa 3d
       0.096662834 0.13544087 0.048568547 0.12211484
000050 a4 aa 28 be 7a e5 02 3e 1f 0a 00 be 84 14 10 3e
       -0.16471344 0.12782851 -0.12503861 0.14070326
000060 09 c0 8e bc f0 be 19 be e9 d0 c9 bc 20 09 18 3e
       -0.017425554 -0.15014243 -0.024635749 0.14847231
000070 a1 10 5a 3d 00 40 7d bd 5c 05 fb bd 05 95 ad 3d
       0.053238515 -0.061828613 -0.122568816 0.08475689
