atropos/trained_model/nhot/no_answer/not_add/3/best_acc.pt (torch, 16402 bytes, 5 tensors)

conv1.bias f4 [32]
-0.0046246466 -0.0043894495 -0.005225438 -0.017459616 0.0055241007 -0.0086065885 -0.0035330115 0.02930474
0.01135824 0.012009518 0.013517229 -0.01120742 0.03524335 -0.003854542 0.010018751 -0.011694183
-0.032766897 0.007472853 0.0014997072 0.032408487 -0.0085319765 0.00026873115 -0.0044029406 -0.011173897
-0.016926648 -0.02506209 -0.00021718672 -0.0028086512 -0.011254437 0.019388797 0.0059471014 0.0067659407
00000000: 598a 97bb 5fd5 8fbb 273a abbb 7807 8fbc
00000010: 8403 b53b a602 0dbc 198a 67bb 7e10 f03c
00000020: e917 3a3c 92c3 443c 5e77 5d3c 549f 37bc
00000030: 555b 103d 7c9c 7cbb b025 243c f598 3fbc
00000040: 9536 06bd d6de f43b d391 c43a c3be 043d
00000050: b4c9 0bbc 7ce4 8c39 8b46 90bb b912 37bc
00000060: c1a9 8abc 034f cdbc 9ebc 63b9 5911 38bb
00000070: 8864 38bc 41d5 9e3c e7df c23b d3b4 dd3b

conv1.lin.weight f4 [32, 69]
-0.25861752 0.04373805 -0.15866698 -0.09182856 -0.021525642 -0.07023981 0.01222731 0.116925515
-0.038676403 -0.22318567 -0.23274796 -0.19769056 0.11332215 0.079415105 0.057903115 0.049893353
-0.16984607 -0.19584431 0.123040825 0.14373736 -0.07479137 0.0537367 -0.1504794 -0.16155627
0.21188001 0.21922445 -0.19755226 0.04636401 0.17221308 0.06329454 -0.17594407 0.13240072
-0.16785277 -0.21132165 -0.071989775 -0.13435045 0.24386896 0.07249634 0.11353402 -0.0844392
-0.21109743 -0.10794546 -0.12361107 0.13907698 -0.04489883 -0.0882509 0.011788076 -0.079390906
-0.059756134 -0.09863962 0.21231663 -0.10828138 -0.13593094 0.23640363 0.14679755 0.14306724
0.11343446 0.16837743 0.21203788 0.1222221 0.21100217 0.12809944 0.10534424 -0.15780732
0.09579159 -0.22271438 -0.1211733 -0.009386889 -0.1409397 0.1358459 0.038062774 -0.10976724
0.020111712 -0.1928527 0.2036902 0.15098885 0.08968553 -0.0044624605 0.012199349 0.13664374
-0.19858228 0.17145418 0.20721136 0.022278158 0.10324108 -0.04691777 0.03324906 0.07125067
0.18466459 0.14162059 0.02170066 -0.25575784 -0.21468814 0.16378048 -0.1382055 -0.22522242
0.024494303 -0.048325144 -0.16503969 0.04533363 0.061130274 0.1683745 -0.18786591 0.0973987
-0.21111514 0.16670457 0.13490257 -0.042667713 -0.033593252 -0.000831147 0.08122247 0.16129827
0.18270877 0.21283871 -0.16523352 -0.22700389 0.18130907 -0.050119396 -0.05447118 0.05983705
0.16383104 0.2096763 -0.1633912 0.060139313 0.09049188 0.013618006 -0.17163488 0.23720314
0.15538536 0.11957256 -0.08942125 0.09694462 -0.2005498 -0.17170885 0.22821379 -0.14520547
0.14202876 -0.21764003 0.17501986 0.2023015 -0.042758744 0.09601027 -0.16216789 0.16268566
0.11849474 -0.25029826 -0.15603288 0.10029812 -0.19342056 0.15625806 0.18510415 -0.19093549
-0.16605891 0.1552373 0.17927727 0.20783465 0.108195245 0.25193927 -0.022293506 -0.025996553
-0.18074186 0.10943679 0.084438875 0.104015075 0.075423986 -0.008268067 -0.05242472 0.035341386
-0.15365472 -0.08946558 -0.100064225 0.009473102 0.22467324 0.11957201 -0.19098336 0.11592422
0.21919575 -0.078767255 -0.17844974 -0.13327251 0.09914279 0.11044821 0.13693084 -0.1341927
0.1877577 0.22199462 0.10174214 0.104823224 0.19911993 -0.20555378 -0.022776375 -0.07115943
0.15962131 0.101544015 0.24247897 0.14469384 -0.13505565 0.2415907 -0.046823047 0.23625202
-0.23624054 0.22551915 0.17418578 -0.07098411 0.04573586 -0.09630686 0.1623274 -0.033231255
-0.103888534 -0.026453696 0.021156663 -0.0891102 0.09953568 0.14572138 -0.25558192 -0.18160264
0.07204942 -0.070545554 -0.09024646 -0.111351304 0.09402037 -0.11627603 -0.16966966 -0.18011889
0.106373385 -0.19632156 0.24121718 0.033805266 0.11250796 -0.06792408 -0.034306448 0.18435024
-0.15121014 0.12893617 0.13946144 0.15648331 -0.112787664 0.04516233 0.055713564 0.081556365
0.062254637 0.0175541 -0.13736047 -0.08457763 -0.09511851 -0.21048746 0.21042211 0.07672502
-0.23359005 0.20163399 -0.0740104 0.006945426 -0.07164485 -0.18453369 0.0006030423 0.10011752
00000000: 8469 84be ab26 333d 9979 22be 9d10 bcbd
00000010: 8b56 b0bc e4d9 8fbd 0e55 483c a576 ef3d
00000020: 266b 1ebd c98a 64be 7b55 6ebe 656f 4abe
00000030: 7215 e83d 63a4 a23d d12b 6d3d f95c 4c3d
00000040: 21ec 2dbe 698b 48be d4fc fb3d e32f 133e
00000050: 382c 99bd 041b 5c3d 4617 1abe 026f 25be
00000060: 13f7 583e 607c 603e 244b 4abe 30e8 3d3d
00000070: a058 303e 91a0 813d af2a 34be 0e94 073e
00000080: 99e1 2bbe b464 58be 606f 93bd 2a93 09be
00000090: c9b8 793e f678 943d 8684 e83d 76ee acbd
000000a0: ed29 58be 8212 ddbd cd27 fdbd 326a 0e3e
000000b0: d6e7 37bd e3bc b4bd c622 413c b397 a2bd
000000c0: d9c2 74bd 9203 cabd 8869 593e a1c2 ddbd
000000d0: 7b31 0bbe cb13 723e 1952 163e 3880 123e
000000e0: 5350 e83d 226b 2c3e 7520 593e 954f fa3d
000000f0: f410 583e 802c 033e b9be d73d 3e98 21be
00000100: 622e c43d 3d0f 64be b529 f8bd 77cb 19bc
00000110: 7f52 10be 301b 0b3e b6e7 1b3d a6cd e0bd
00000120: 51c1 a43c 2e7b 45be 2a94 503e d29c 1a3e
00000130: 0cad b73d d539 92bb c7df 473c 56ec 0b3e
00000140: 2759 4bbe af91 2f3e 372f 543e af80 b63c
00000150: 0f70 d33d d92c 40bd 2b30 083d dfeb 913d
00000160: b718 3d3e fd04 113e 95c5 b13c b1f2 82be
00000170: 35d7 5bbe 12b6 273e be85 0dbe b5a0 66be
00000180: 47a8 c83c 96f0 45bd 2a00 29be c2af 393d
00000190: bd63 7a3d 5d6a 2c3e ec5f 40be f878 c73d
000001a0: 912e 58be 9ab4 2a3e e623 0a3e 57c4 2ebd
000001b0: 1499 09bd 55e1 59ba f757 a63d 602b 253e
000001c0: 0218 3b3e 64f2 593e fa32 29be b573 68be
000001d0: 16a9 393e ff49 4dbd 2c1d 5fbd b217 753d
000001e0: 53c3 273e 62b5 563e 0650 27be a454 763d
000001f0: cf53 b93d 0f1e 5f3c 0ec1 2fbe 61e5 723e
00000200: 571d 1f3e 75e2 f43d 7d22 b7bd e78a c63d
00000210: ed5c 4dbe 72d4 2fbe e0b0 693e beb0 14be
00000220: fd6f 113e 07dd 5ebe 6838 333e 2028 4f3e
00000230: cb23 2fbd 08a1 c43d 570f 26be 1297 263e
00000240: 5fad f23d 1827 80be 15c7 1fbe 1a69 cd3d
00000250: 0a10 46be 1d02 203e f18b 3d3e 9884 43be
00000260: 590b 2abe 87f6 1e3e 7694 373e 9bd2 543e
00000270: 7895 dd3d 2ffe 803e dfa0 b6bc b9f6 d4bc
00000280: 6514 39be 6520 e03d 4aee ac3d db05 d53d
00000290: e477 9a3d c976 07bc 4ebb 56bd 21c2 103d
000002a0: aa57 1dbe bb39 b7bd 79ee ccbd 1235 1b3c
000002b0: be10 663e 2ce2 f43d 2491 43be ad69 ed3d
000002c0: da74 603e ba50 a1bd 87bb 36be 9778 08be
000002d0: 600b cb3d ac32 e23d 9937 0c3e d069 09be
000002e0: 8e43 403e 8f52 633e 2f5e d03d 8fad d63d
000002f0: 18e6 4b3e b17c 52be 8595 babc 09bc 91bd
00000300: c573 233e 4ff6 cf3d 684c 783e 9f2a 143e
00000310: 074c 0abe 8d63 773e 86c9 3fbd 0dec 713e
00000320: 0ae9 71be 7eee 663e c25d 323e 1e60 91bd
00000330: 8655 3b3d 883c c5bd 2739 263e 7f1d 08bd
00000340: 83c3 d4bd 6cb5 d8bc bd50 ad3c 697f b6bd
00000350: 5dd9 cb3d fc37 153e a2db 82be 0bf6 39be
00000360: a58e 933d 307a 90bd 23d3 b8bd 270c e4bd
00000370: c08d c03d 2122 eebd e2bd 2dbe 1671 38be
00000380: 4ada d93d 8508 49be a301 773e 6477 0a3d
00000390: 936a e63d c81b 8bbd eb84 0cbd 4fc6 3c3e
000003a0: d5d6 1abe d807 043e fbce 0e3e 293d 203e
000003b0: 38fd e6bd 23fc 383d e833 643d 0607 a73d
000003c0: b8fe 7e3d 9ecd 8f3c 39a8 0cbe 0937 adbd
000003d0: 7ecd c2bd 068a 57be e578 573e 0222 9d3d
000003e0: 3b32 6fbe 2479 4e3e c492 97bd 7596 e33b
000003f0: 89ba 92bd 66f6 3cbe 7c15 1e3a 6a0a cd3d

conv_out.bias f4 [32]
-0.00704781 0.007540415 0.0075618434 -0.007715327 0.007569016 0.00792524 -0.0074555743 -0.0074825515
-0.006196738 -0.007383847 0.00860958 0.0075920345 0.007298595 0.007367732 0.007393469 -0.0070510353
-0.0076213814 -0.0075612892 -0.007262784 0.0073560216 0.007566453 -0.0076428303 0.007396381 0.0070631886
-0.007593981 0.007248949 -0.007957793 -0.0074680434 0.00742237 0.006901513 0.007971356 -0.0071069757
00000000: 51f1 e6bb 9615 f73b 57c9 f73b dbd0 fcbb
00000010: 8205 f83b ded8 013c e44d f4bb 3130 f5bb
00000020: 020e cbbb 33f4 f1bb 320f 0d3c 9ac6 f83b
00000030: 0d29 ef3b 046d f13b ea44 f23b 5f0c e7bb
00000040: c8bc f9bb b1c4 f7bb a6fc edbb c80a f13b
00000050: 02f0 f73b b570 fabb 575d f23b 5272 e73b
00000060: eed6 f8bb 9788 ed3b 6761 02bc 7db6 f4bb
00000070: 5a37 f33b 1626 e23b 4a9a 023c a2e1 e8bb

conv_out.lin.weight f4 [32, 32]
0.064170666 -0.26022646 -0.24163103 -0.19519874 0.024906553 0.012047942 -0.1595328 0.32207683
-0.08311607 -0.13458866 -0.09275741 0.22341761 -0.123864524 -0.24987933 0.24069409 0.04301885
0.18869147 -0.11414317 0.11731319 0.05214424 0.13680477 -0.2241801 0.17791031 0.11034023
0.10554392 -0.069014795 -0.079951875 -0.0006893455 -0.2630307 -0.2720014 0.16211902 0.16863257
-0.22306986 -0.15750909 -0.2583136 0.21902004 -0.23839429 -0.11638556 -0.21799345 -0.07966211
0.25898957 0.05612527 -0.13091604 -0.12278277 -0.1408994 -0.2055142 0.018079748 0.26781505
0.066731095 0.111619964 0.061171547 0.32830134 0.041849356 -0.20720357 0.28078368 -0.021576807
0.2851582 -0.12368134 -0.0969806 -0.092611216 0.20434268 -0.09975317 0.040011168 -0.21171334
0.060382996 0.016009346 0.20618036 0.20912553 0.30016205 0.037285827 -0.05502963 -0.33601373
-0.25790423 -0.25208881 0.13804393 0.23793313 0.32938707 -0.3240284 0.26540908 -0.22381817
-0.14574017 -0.12289368 0.17226963 0.21703142 -0.22090012 -0.20159312 -0.32073623 -0.2594934
-0.15752187 0.22943658 -0.14216979 -0.27648586 -0.110736206 0.20519665 -0.13886157 0.3055094
0.15313117 0.029399268 -0.028670836 -0.23596145 0.16449116 0.069519676 0.27288124 0.11922016
0.2567236 -0.24940892 0.2395005 0.22097804 -0.14694731 -0.19197246 0.23937859 -0.119161904
-0.046553515 0.21730629 0.24828874 -0.31524804 -0.2718768 -0.15553176 -0.07630091 0.21529819
0.29315168 -0.21365714 -0.101183996 0.29591244 -0.049519483 0.24296302 0.2676273 0.008624933
0.31793058 -0.17009355 -0.2345606 0.2485655 0.2828359 -0.051858835 -0.12264155 -0.1544547
0.26242176 0.22655624 0.17384462 -0.102371134 -0.13761464 -0.19017158 -0.2223044 -0.03224322
-0.23260075 -0.2257361 0.09503434 0.30668887 0.30966377 0.20802853 -0.050057758 0.16959633
-0.19897662 0.10622049 0.3110003 -0.30032662 0.20156501 0.09446844 -0.10982291 0.13304274
0.08192683 -0.28690103 -0.08743225 -0.06435304 -0.0005637493 0.16654073 0.19918907 -0.15697825
-0.084343486 -0.17306527 -0.08792142 0.27268556 0.2950816 -0.079123914 -0.16084902 -0.0051738354
0.18386573 -0.18065315 -0.024922738 -0.12492051 0.22420743 0.017302463 0.04506915 0.1266576
-0.20091447 -0.094014466 0.16789377 -0.2509259 -0.18086833 0.08020686 -0.07094969 0.15362436
-0.004225953 0.2048163 -0.054082755 -0.22264042 -0.061782766 -0.10402581 0.07882912 -0.094915144
-0.07281701 -0.30840996 0.2639253 -0.12374964 -0.05171754 -0.032018475 -0.098423585 0.17640229
-0.23861039 -0.2418032 -0.26917547 0.0902441 0.092571765 0.30525762 0.06920857 0.2734669
0.1017633 0.33656484 -0.26787138 0.118564256 0.15594177 -0.23733096 -0.07378419 0.27457577
-0.14355747 -0.24000815 0.11609371 -0.05539628 -0.22069497 0.05816549 0.08324226 0.161212
0.14741114 -0.115203835 -0.07759612 -0.050015047 -0.14045128 0.2594667 0.059596725 -0.08930216
-0.23558572 -0.11132413 -0.008468662 0.2490128 0.18848953 -0.1422277 -0.16531359 -0.26113176
-0.1441403 -0.21620661 -0.31071034 0.2274597 -0.0023320601 -0.0706834 -0.0034269497 -0.062155176
00000000: e96b 833d 673c 85be 206e 77be 2ee2 47be
00000010: d408 cc3c bb64 453c 915c 23be 41e7 a43e
00000020: c238 aabd 9cd1 09be 99f7 bdbd 96c7 643e
00000030: afac fdbd 5ee0 7fbe 8378 763e 8934 303d
00000040: 5638 413e e5c3 e9bd e641 f03d 3395 553d
00000050: 8d16 0c3e 788f 65be 1f2e 363e 0ffa e13d
00000060: 6927 d83d a157 8dbd cfbd a3bd 32b5 34ba
00000070: f6ab 86be c443 8bbe 8702 263e 04ae 2c3e
00000080: 6d6c 64be 104a 21be ae41 84be ca46 603e
00000090: a21d 74be 8d5b eebd ad39 5fbe e325 a3bd
000000a0: 489a 843e 9ce3 653d db0e 06be 8875 fbbd
000000b0: ef47 10be 5072 52be fb1b 943c 0e1f 893e
000000c0: 50aa 883d 0299 e43d 048f 7a3d 1d17 a83e
000000d0: 3b6a 2b3d 2c2d 54be e1c2 8f3e d8c1 b0bc
000000e0: 4100 923e a44c fdbd c49d c6bd f3aa bdbd
000000f0: 353f 513e 644b ccbd c0e2 233d 62cb 58be
00000100: 2954 773d 0826 833c f220 533e 0125 563e
00000110: d7ae 993e 06b9 183d c066 61bd fe09 acbe
00000120: 060c 84be c911 81be 635b 0d3e bea4 733e
00000130: 6ca5 a83e 0de7 a5be b3e3 873e 9730 65be
00000140: e93c 15be afaf fbbd 7367 303e 7c3d 5e3e
00000150: a433 62be 6d6e 4ebe 8a37 a4be 52dc 84be
00000160: 6a4d 21be 6cf1 6a3e f594 11be 8e8f 8dbe
00000170: aac9 e2bd 121f 523e ba31 0ebe ba6b 9c3e
00000180: 6bce 1c3e bcd6 f03c 1adf eabc e19f 71be
00000190: 5f70 283e 5560 8e3d 17b7 8b3e b329 f43d
000001a0: 4771 833e 0d65 7fbe 9e3f 753e 1148 623e
000001b0: 5b79 16be 6e94 44be a91f 753e 280b f4bd
000001c0: e6ae 3ebd 8a85 5e3e 673f 7e3e 3168 a1be
000001d0: 7033 8bbe b843 1fbe a743 9cbd 2177 5c3e
000001e0: fa17 963e f0c8 5abe 8e39 cfbd d681 973e
000001f0: f1d4 4abd 4ccb 783e 7206 893e 974f 0d3c
00000200: ccc7 a23e 012d 2ebe a730 70be f487 7e3e
00000210: decf 903e ee69 54bd 7e2b fbbd 5f29 1ebe
00000220: 255c 863e 5cfe 673e 5304 323e f5a7 d1bd
00000230: daea 0cbe 57bc 42be c4a3 63be 7711 04bd
00000240: e42e 6ebe 5d27 67be 5da1 c23d 5306 9d3e
00000250: 408c 9e3e 6e05 553e 5d09 4dbd a9aa 2d3e
00000260: 87c0 4bbe 218a d93d 6e3b 9f3e 69c4 99be
00000270: 0f67 4e3e ab78 c13d d5ea e0bd 5b3c 083e
00000280: 41c9 a73d b1e4 92be ae0f b3bd 87cb 83bd
00000290: 93c8 13ba a789 2a3e 38f8 4b3e e8be 20be
000002a0: 47bc acbd 0638 31be 2510 b4bd 719d 8b3e
000002b0: ef14 973e b80b a2bd 9bb5 24be 4789 a9bb
000002c0: 4c47 3c3e 24fd 38be c52a ccbc 53d6 ffbd
000002d0: a296 653e e5bd 8d3c 6e9a 383d 88b2 013e
000002e0: 86bc 4dbe a88a c0bd 58ec 2b3e 5c79 80be
000002f0: 8c35 39be 7f43 a43d 124e 91bd b44f 1d3e
00000300: dd79 8abb 5dbb 513e e185 5dbd dafb 63be
00000310: ed0f 7dbd 7c0b d5bd 2971 a13d df62 c2bd
00000320: 1621 95bd e9e7 9dbe 3821 873e 7470 fdbd
00000330: c5d5 53bd ce25 03bd 4e92 c9bd cda2 343e
00000340: 4856 74be 429b 77be 5ed1 89be e6d1 b83d
00000350: 4496 bd3d ba4a 9c3e 39bd 8d3d db03 8c3e
00000360: 4769 d03d 3a52 ac3e 7026 89be d1d1 f23d
00000370: 33af 1f3e e306 73be 2a1c 97bd 3295 8c3e
00000380: bb00 13be b2c4 75be 8ac2 ed3d 36e7 62bd
00000390: ddfd 61be f03e 6e3d eb7a aa3d c214 253e
000003a0: f2f2 163e fdef ebbd b7ea 9ebd 94dc 4cbd
000003b0: 76d2 0fbe d2d8 843e b21b 743d 0de4 b6bd
000003c0: 623d 71be e8fd e3bd 25c0 0abc 36fd 7e3e
000003d0: 6603 413e 23a4 11be f747 29be 10b3 85be
000003e0: 8499 13be 4465 5dbe 6d15 9fbe 32eb 683e
000003f0: 7ad5 18bb 75c2 90bd ad96 60bb 6d96 7ebd

fc.weight f4 [1, 32]
-0.043085724 0.16562058 0.09181719 -0.11080737 0.0953811 0.06690625 -0.02795133 -0.10452111
-0.009480028 -0.14815246 0.026360802 0.15452003 0.09696392 0.0049649617 0.18446216 -0.05298504
-0.1550911 -0.16195747 -0.05246983 0.16462068 0.13355999 -0.049122833 0.15018712 0.045298763
-0.10785242 0.07437278 -0.07558195 -0.07414642 0.12038671 0.044012178 0.06299899 -0.07181823
00000000: a87a 30bd 7198 293e a70a bc3d f9ee e2bd
00000010: 2b57 c33d 2506 893d 30fa e4bc 2a0f d6bd
00000020: 1f52 1bbc 47b5 17be 9cf2 d73c 803a 1e3e
00000030: 0595 c63d 1eb1 a23b a6e3 3c3e d706 59bd
00000040: 34d0 1ebe 2ed8 25be 9bea 56bd 5392 283e
00000050: f3c3 083e 0635 49bd a7ca 193e 328b 393d
00000060: bbe1 dcbd c250 983d b6ca 9abd 14da 97bd
00000070: 4f8d f63d 1d46 343d 9d05 813d 7015 93bd
