atropos/trained_model/onehot/answer/4/best_acc.pt (torch, 11282 bytes, 5 tensors)

conv1.bias f4 [32]
00000000: c09d 1dbc 4c7d ecbb dd73 f5ba 1725 013d
00000010: 9a2a 89bb d904 26bd 1326 943c 5bc7 f0bc
00000020: eb68 603d b814 4c3d 4cf5 1d3d 3111 ff3b
00000030: b6f5 09bd 11b0 e73b 6e60 ba3c 5664 693c
00000040: ffd4 b2bc fd57 02bd b442 723c 91d4 373d
00000050: aa66 7cbc c528 a8bc ee96 fbba 94bd e93b
00000060: 663e 72bc 4f44 01bc 5be2 25bd 618c 083d
00000070: 4c61 323b 80c9 353b 47f2 3dbb 0006 093d
-0.00962013 -0.007217085 -0.0018726547 0.031529512 -0.0041859867 -0.040531967 0.018084561 -0.029391935
0.054787558 0.049824446 0.03856401 0.007784032 -0.033681594 0.0070705493 0.02275106 0.014245113
-0.02183008 -0.031822193 0.014786411 0.044880453 -0.015405336 -0.020527253 -0.0019194761 0.007133195
-0.014785385 -0.007889821 -0.040499073 0.033337 0.0027218638 0.0027738512 -0.002898352 0.033452988

conv1.lin.weight f4 [32, 29]
00000000: bfae 18bd ac34 aa3e df91 19be af78 92be
00000010: 86ac 9cbe af54 273e 10a0 f2bc 6295 3d3e
00000020: 9e0e 3dbd 0675 1bbd 991a 1b3d b70a 743d
00000030: e226 e03d df63 a9be e99f 173e e63e 11be
00000040: 323c 5f3d d5c1 7ebd 3d7d a2bd 73ba 0a3e
00000050: 7545 7ebd f1b5 973d 98d1 97be f76a d03e
00000060: 8fcf 09bd 2248 7f3e 14be 2abe 6ca2 5b3e
00000070: c8cc a43d 0bd3 013e 3477 95be 0b7b 82be
00000080: 34da 86bc 76c7 493e 75c8 4f3e 741f b73d
00000090: 2ae2 533e b1b0 8fbe 4c30 20be daed 013e
000000a0: c6bb 1f3e 81ae 8d3e 3b1f c63d dadf 853e
000000b0: d86c 09bd d1c0 6d3d ecd4 59be 0b86 053d
000000c0: f9f2 1dbe 5ba2 37be c399 21be cd08 a63d
000000d0: 995e aabd 1f89 1bbd 4221 d4bd f0b5 9c3c
000000e0: 0f01 55be 3e93 26be 9c23 9dbe 24a7 4e3d
000000f0: 0e33 c03e cb63 8a3e b854 2cbe 5315 103e
00000100: 0780 88be 3b6b 963e e125 98bd f87f 0b3e
00000110: c44a fabd fae4 e73d 163a e13d c884 93be
00000120: 9a76 a8be 1387 97be 14a8 81bc c6e8 4ebe
00000130: c82c ee3b d20c 083e eb92 863e 0de2 0dbe
00000140: ab5e 763e 43df acbd 02e9 243e 551b b73d
00000150: 806a 103e 4a84 83be a08f 833d 693e 11bc
00000160: 3aef 433d 12c5 1ebe 72ad 453e 4a66 a9be
00000170: cca9 3ebe f6a9 6b3e eb4f 08bd 89f3 e2bc
00000180: 3c33 813e a0d2 81be dba3 4cbe a053 383e
00000190: 1bf2 123e 015b 28be 2ad3 083e b62f 3fbe
000001a0: e6bd 183b f0e8 31be 0f02 503e 417a 8d3d
000001b0: 8d6b 6cbe 0628 b4be 7cb0 89be 0a5b 87be
000001c0: bf72 bbbc 1dfc 973c ea6c 393d f4ce 513d
000001d0: 6804 1bbe e155 65be 7c19 97bd a5c7 223e
000001e0: 64c7 acbb fa6f 8abc c0c8 cb3d 31c3 913e
000001f0: 3915 3f3d 3944 66be dca8 82be 157f 73be
00000200: 5170 be3e 2716 dfbc b135 903d 5e4c 6cbe
00000210: 260d 1f3e c52a 9cbd c1ca 853e 5ae9 663e
00000220: 8f7f d83d 8011 4b3d e5e8 89be c2c9 14be
00000230: f897 30be 2565 143d 62f6 543e 307d 263e
00000240: a5ac 51be 65d0 403d 6ac0 d2be f22d 6fbe
00000250: 6ffd 91be 33f3 043e 7a9e 15be 4ae4 67bd
00000260: 6988 03be d479 473e e2c4 94be 7261 d4bd
00000270: 2fd7 613e 1d89 83be 2e84 893e 0626 433d
00000280: e6a9 253d 57eb 4fbe 4078 8bbe 0559 72be
00000290: 901b 8e3e 8c4d d1bd 1e06 2fbd 0050 bf3d
000002a0: b7ec c13d 3fb4 70be 43a4 a2be deb8 fa3d
000002b0: e87b 92be ed4d 62be ec11 5e3e 2d09 3d3e
000002c0: b5e3 61be adaa 7fbe d170 5fbe 9fcd 84bd
000002d0: aa86 633e b0d6 a83d 5875 a13d 05e4 43be
000002e0: 6a35 8c3d 322a 543e ff2a 423d 5598 f43d
000002f0: 9f31 98be 62eb 283c d0f4 523e 6ee5 bcbd
00000300: fc74 a03e b5c8 393e cda6 ad3e d6bb 24be
00000310: c53f 04bb d75c 393d 2efb f6bd 8a91 b93e
00000320: 17ef 4ebe d06c bf3d 87cc 8cbd b09d f7bd
00000330: 48da 4d3e b974 5fbe 90d8 3d3e 1634 913e
00000340: 01fa 8b3e 8cde 7a3e ad02 a43c 71dc e1bd
00000350: 1334 413c 99f7 82be 50e0 823e 3eea 523d
00000360: 51d3 e03d bfa4 a1bc 1931 e8bb 8e4d e03d
00000370: 90cb 0a3e 5cd6 46be 9718 e2bd d879 04be
00000380: aff2 93be cde6 563e 5fe3 acbe ab07 a8be
00000390: b1a2 84be effa 3abd 1272 ee3c 7f9a a5bc
000003a0: abb4 0f3e e327 7dbe bf2c afbe 3752 9b3e
000003b0: 340c 3d3e caeb d03c f44a a8bc d358 61be
000003c0: 8b2e 753e 10eb 6ebe b4a4 cbbd 062c 7abe
000003d0: 4609 3cbe d303 3dbd b751 49bd c2c5 38be
000003e0: 462e 693e be43 583e 222c 4cbe f870 8bbd
000003f0: f61b 993c cd32 f1bd abd5 ff3d e03d 2ebe
-0.037276026 0.3324331 -0.14997052 -0.286077 -0.30600375 0.16340898 -0.02961734 0.18514016
-0.04615652 -0.0379534 0.037867162 0.05958053 0.10944916 -0.33084008 0.14807095 -0.1418415
0.054500766 -0.06219657 -0.079340436 0.13547687 -0.062077958 0.074077494 -0.29652095 0.40706608
-0.03364521 0.2492986 -0.16674072 0.21448678 0.080468714 0.12678163 -0.29192507 -0.254845
-0.01646147 0.19704995 0.20291312 0.08941546 0.20691743 -0.28064492 -0.15643424 0.1268839
0.15598974 0.27672198 0.096739255 0.26147348 -0.033551067 0.058045212 -0.2127263 0.032598536
-0.15424718 -0.17933027 -0.15781312 0.08107147 -0.08318824 -0.037972566 -0.10357906 0.019129723
-0.20801185 -0.16267106 -0.3069123 0.050452366 0.37538952 0.2702926 -0.16829193 0.14070635
-0.26660177 0.29378685 -0.074291 0.13623035 -0.12221292 0.11322971 0.10997407 -0.28812242
-0.32902986 -0.2959524 -0.015827216 -0.20205984 0.007268522 0.1328614 0.26283965 -0.13855763
0.2405955 -0.08441021 0.1610451 0.0894076 0.14103127 -0.25686866 0.06423879 -0.008864977
0.047835566 -0.15504864 0.19304445 -0.33085853 -0.1861946 0.23014054 -0.03327934 -0.027704017
0.252344 -0.25356007 -0.19984381 0.1800065 0.14350168 -0.16440965 0.13361803 -0.18670544
0.0023306548 -0.17374015 0.20313285 0.06908084 -0.23087902 -0.35186785 -0.2689246 -0.26436645
-0.022881864 0.018552834 0.045269884 0.051222757 -0.151384 -0.22396041 -0.07377908 0.15896471
-0.0052727927 -0.016899098 0.099503994 0.28469232 0.0466511 -0.22486962 -0.25519454 -0.23778947
0.37195066 -0.027232243 0.07041491 -0.23076007 0.1553236 -0.07625345 0.2613125 0.22549954
0.10571205 0.049577236 -0.26935497 -0.1453009 -0.17245471 0.03622927 0.20797113 0.16258693
-0.20476015 0.04707374 -0.41162425 -0.2335737 -0.28513667 0.12983398 -0.14611235 -0.056614198
-0.12845005 0.19480067 -0.2905646 -0.10370149 0.22054742 -0.25690547 0.26858658 0.047643684
0.04044523 -0.20304619 -0.2724018 -0.23666771 0.27755404 -0.10219869 -0.042730443 0.09341431
0.09468978 -0.23506258 -0.31765947 0.12242292 -0.28610158 -0.22100039 0.21686524 0.18460532
-0.2205952 -0.24967451 -0.2182038 -0.064845316 0.22219339 0.082440734 0.0788371 -0.19129951
0.068461254 0.20719221 0.047404286 0.119431175 -0.29725358 0.010310026 0.20601201 -0.09223448
0.31339252 0.1814297 0.3391632 -0.16087279 -0.0020179611 0.045254555 -0.120596275 0.3624385
-0.20208393 0.09346926 -0.06874948 -0.120906234 0.20102799 -0.2182187 0.18539643 0.2836005
0.27339175 0.24498957 0.020020807 -0.11028374 0.011792201 -0.25579527 0.25561762 0.051492922
0.109778054 -0.019731877 -0.007085931 0.109522924 0.13554215 -0.19417709 -0.110398464 -0.12937105
-0.2889609 0.20986481 -0.3376722 -0.3281835 -0.25905374 -0.045649465 0.029107127 -0.020215271
0.14033763 -0.24722247 -0.34213826 0.30336162 0.18461686 0.025503058 -0.020543553 -0.2200654
0.23943536 -0.23331857 -0.09943524 -0.24430856 -0.18362913 -0.046146225 -0.049150195 -0.18044189
0.22771558 0.21119592 -0.1993871 -0.068086565 0.01869009 -0.117772676 0.12491926 -0.17015791

conv_out.bias f4 [32]
00000000: b09a fbbc 4570 08bd 7bf6 063d 9c45 e3bb
00000010: 9847 24bd ca8a 07bd ada0 0b3d f94f 083d
00000020: 2c19 03bd fa48 03bd 26f5 0bbd 0cf8 1cbd
00000030: 4a2a 0d3d 7cfc 06bd ad88 06bd 3944 c43c
00000040: 837b 203d e034 20bd afc7 123d 7162 093d
00000050: 2901 03bd b1d8 01bd dbee 063d 9cfe 063d
00000060: 37ca 003d 50df 173d a579 06bd 7c05 083d
00000070: d484 253d baf4 0e3d b800 053d d50f d43c
-0.03071341 -0.033310194 0.032949906 -0.0069357883 -0.04010734 -0.033091344 0.03408878 0.033279393
-0.032006428 -0.032052018 -0.03416934 -0.038322493 0.034464158 -0.03295563 -0.032845188 0.023958312
0.03918029 -0.039112926 0.035834964 0.033541147 -0.03198353 -0.031700794 0.032942634 0.03295766
0.031442847 0.0370782 -0.032830853 0.033208355 0.040409878 0.03490136 0.03247139 0.025886456

conv_out.lin.weight f4 [32, 32]
00000000: 0f22 dbbc 466d be3d 0b71 71be 1242 163e
00000010: 0aac 643e dc1e 7bbe 0391 f4bd 150d 96be
00000020: 9406 4bbe 4b44 9d3e 6f17 743d 12d6 08be
00000030: 5795 56be f049 e1bd eed3 303e 139f 1b3e
00000040: 2ece 89bd dc20 dbbc 7da9 96be d4d0 7abe
00000050: 165f 243e 3a7e d1bc 98ed abbd f9bb 9abd
00000060: 5622 823d 2c81 e83d c88f 4ebb b71a aabd
00000070: 6ba4 2ebe 346d 82be 6a75 bbbd 33e8 093e
00000080: 07d4 5e3e 3c3f b6bd f2a3 6abe c724 653d
00000090: b1ec 82be 2336 a6bc d209 f6bd 341b 993d
000000a0: 3b80 d0be ca59 6dbe e93a 89be 4a67 9a3d
000000b0: a183 023d 9805 67be 67ca 4d3d e792 99bd
000000c0: 67a5 303e ff07 3dbe 640d 96be 86f5 99bd
000000d0: fd17 8bbe af94 81bc 684c 053e 2d1f cdbd
000000e0: 0934 70be 1011 8c3e e4fd ad3d 5710 0b3d
000000f0: 0812 99bd e9d0 87be 7f38 673e 9e37 8bbd
00000100: f55a e4bd bc2b e83c 61f3 723e 8f60 aabe
00000110: a06a 88be f32a 34be 2fa4 f5bd 8650 aabd
00000120: c0a7 353e e4fc 87be 62aa 22be 1594 a6bb
00000130: fc53 b43d ff60 29be c03d 963e 9f17 a2bd
00000140: d7e9 743e 2efe 75bd bce7 82be 31e1 a03e
00000150: 1d46 733e 6d12 96be e8ba 8e3e a64f ba3c
00000160: 1c67 2ebe df42 26bc 94bb 8f3d f0ee a2bc
00000170: 8269 c9bb a2e4 65be cfee 3bbe 77a8 3fbd
00000180: 0c90 54bd 380e e73d ef73 5b3e 5b78 80be
00000190: 93e3 78be 2ce1 04be 58e2 09be 258a 34be
000001a0: 6518 64bd 04dd 98bd e56d 803e 7216 38be
000001b0: 924a ce3c 3aff 75be de5d 9f3d 22c5 883e
000001c0: ffbb 583e e719 783e b750 5f3e 96f0 373b
000001d0: 6c54 8abd fc35 3bbd 0605 8abd e3dd 4cbd
000001e0: 38c1 00be ec2d 933e 647a 2dbe fed9 1bbe
000001f0: 0f36 c93d 8905 2dbe 3cde 843d 448d 18bd
00000200: 0426 593e 717b 9a3e a879 7f3e cf86 a63e
00000210: 13f2 7f3d 0141 403e f56d f3bd 4f41 993d
00000220: 6f38 bebe 899b 5b3d ec99 bbbe 3e6c 8d3d
00000230: 7c9a 91be 89cb 6f3e 98e0 9b3e 3ce9 87be
00000240: 613a 813e f034 543e 9ab9 073e b695 efbc
00000250: c02c 7d3c cbfe be3d 9ba5 84be 940a bebd
00000260: a342 20be c471 913e 08fb 213e 0b01 1d3e
00000270: 961d 5b3e 9c6b d2bd 510e 8b3e cc79 0abe
00000280: 003c 2abe fdf9 873e eb5b b1bd b53d 8c3e
00000290: d450 063e 8f73 28be f5d6 fc3d 02ee 23be
000002a0: 711b 8bbb 86e8 0fbe 24cf 1a3e 8729 b13b
000002b0: bc7a f6bd e905 be3c 1785 40be eb52 8a3e
000002c0: 0000 12be 4364 763c 8faf 76be ab87 a13c
000002d0: 09d0 33be ee16 fc3d 97c9 633e 9911 ebbd
000002e0: 3583 38be 7251 0c3e 1d88 a43e 40e1 a3bd
000002f0: 75dd 1e3e 175a 8e3e d3f0 87bc a4d2 8a3c
00000300: b342 483e c32a 8fbd b287 4ebd 1dc4 ac3c
00000310: 69a0 753e 4ba4 9cbe a710 8bbe d916 903e
00000320: 3ba5 963d ecce 97bd 28b6 8a3e 17ef 4a3e
00000330: c65f b63c 5db9 87be 9fe8 853e d126 24bd
00000340: 00a0 dcbd a884 643c d47c 933e 00d4 293e
00000350: 826c 98be e286 2cbd 49ee 163e 80f0 a0be
00000360: 3c50 843e 617d 96be 644a 7e3e d9fc a23d
00000370: 8e8e 08be 837d 923d b5b5 683e 8ad8 36be
00000380: 5783 6cbe cda4 7dbe 4ec7 8fbe bd0e c03d
00000390: 0ff2 65be 2bc5 553e 490b 823e e78a 71bd
000003a0: 94ab a23e 0bc2 283e b3f6 bf3d 7a7a 4ebe
000003b0: d409 53be 5c40 dabd 1ab8 40be 1063 a5bd
000003c0: 8d5c f73d daee c13e f10b 93be 29d5 4bbd
000003d0: d137 8e3d 8832 87bd 156b 01be eef7 66bd
000003e0: 6db4 05be 361b 893e 78a8 53be 2f88 8ebe
000003f0: d90c 323e a94a 7f3e f7ec 91bd d4d5 4abe
-0.026749639 0.09298186 -0.23578279 0.14673641 0.22331253 -0.2452349 -0.11941721 -0.29306856
-0.19826728 0.30716166 0.05959266 -0.13362911 -0.20955406 -0.110004306 0.17268345 0.15197401
-0.06728779 -0.026749067 -0.29426184 -0.24493724 0.16051897 -0.025572885 -0.08394927 -0.07555384
0.06354205 0.113527626 -0.0031518806 -0.08305877 -0.17054908 -0.2547394 -0.09153254 0.13467483
0.2176057 -0.0889878 -0.22914103 0.055943277 -0.25571206 -0.020289486 -0.12013592 0.07475892
-0.40722832 -0.23178783 -0.26802757 0.07539232 0.031863812 -0.22560728 0.050241854 -0.074987225
0.17250596 -0.18460082 -0.2930709 -0.07517533 -0.2716674 -0.015817968 0.13017428 -0.10015712
-0.2345735 0.27356768 0.084956914 0.03395113 -0.07474142 -0.26526573 0.22580145 -0.067977175
-0.11150161 0.028341167 0.23725654 -0.33276793 -0.26643848 -0.17594509 -0.11994206 -0.0831614
0.17739773 -0.26560128 -0.15885308 -0.0050835707 0.08805081 -0.16540907 0.29343987 -0.079146616
0.23917328 -0.060056858 -0.25567424 0.31421807 0.23757215 -0.29310933 0.27876973 0.022743057
-0.1703152 -0.010147779 0.070181996 -0.019889325 -0.0061466107 -0.22450498 -0.18352817 -0.04679152
-0.051895186 0.11282009 0.21430944 -0.25091824 -0.24305563 -0.12976521 -0.1346525 -0.17630823
-0.055687327 -0.074640304 0.25083843 -0.17977312 0.025182042 -0.24023142 0.077815756 0.267129
0.21165465 0.24228631 0.21808134 0.0028066984 -0.067543834 -0.04570578 -0.067392394 -0.050016295
-0.12573707 0.28745973 -0.1694122 -0.15219876 0.09824764 -0.16896643 0.064877 -0.037244096
0.21205908 0.30172303 0.24948752 0.32524726 0.06248672 0.18774797 -0.11886207 0.0748316
-0.3715243 0.053615127 -0.3664087 0.06905411 -0.28438175 0.23417486 0.3044479 -0.2654513
0.25239852 0.20723319 0.13254395 -0.029246192 0.015452564 0.09325942 -0.25907597 -0.09279361
-0.1565042 0.2840711 0.15818417 0.15332429 0.21398005 -0.10274431 0.2715936 -0.13523024
-0.1662445 0.26557913 -0.0866011 0.2739083 0.13116771 -0.16450332 0.12345687 -0.16008762
-0.0042452146 -0.14053544 0.1511808 0.005406562 -0.120351285 0.023196178 -0.1880077 0.27016386
-0.14257812 0.015038553 -0.24090408 0.019718012 -0.17559828 0.12309061 0.22244869 -0.11477966
-0.18018802 0.13702944 0.32135096 -0.080019474 0.15514167 0.27803108 -0.016594326 0.016946144
0.19556694 -0.06990578 -0.050422378 0.021089608 0.23986973 -0.30594096 -0.27161142 0.2814243
0.07355734 -0.07412514 0.270921 0.19817768 0.022262465 -0.26508608 0.26154038 -0.04007608
-0.10772705 0.013947643 0.28806174 0.16584778 -0.29770285 -0.04212082 0.14739336 -0.31433487
0.25842464 -0.29392532 0.24833065 0.07958383 -0.1333563 0.07152846 0.22725566 -0.1785604
-0.23096977 -0.24769898 -0.28081745 0.09377811 -0.2245562 0.20875995 0.25399235 -0.05897036
0.3177153 0.16480272 0.09373226 -0.20163909 -0.20609218 -0.10656807 -0.18820229 -0.08075535
0.120781995 0.37877542 -0.28720048 -0.049763832 0.0694424 -0.06601435 -0.12638505 -0.056388788
-0.13057108 0.26778573 -0.20669734 -0.27838275 0.17387713 0.24930824 -0.071252756 -0.19808131

fc.weight f4 [1, 32]
00000000: 5df0 9f3d f1f2 0d3e 68d7 f5bd 4997 a4bb
00000010: 7eab 8e3d e901 ac3c 0216 b2bd ab97 aabd
00000020: 9d48 163e d0c2 143e 510d 3c3e 43fb 103d
00000030: 44b2 5dbe 6260 433e af14 8e3d 4d57 20bd
00000040: 50ff 8bbd a6a6 d23d a7fc 9dbd 0ed6 e3bd
00000050: 7e83 9d3d eb50 ff3d 3fe2 85bd 401c 48be
00000060: c484 bcbd 2128 d5bd 2f11 373e 1bd4 46be
00000070: 1e4c 90bd 9882 60be e136 27be 030d 19bc
0.078095175 0.13862206 -0.12003976 -0.0050229174 0.06966303 0.020997005 -0.08695604 -0.083297096
0.14676137 0.1452744 0.18364455 0.03539587 -0.21650034 0.19079736 0.06937539 -0.039145757
-0.06835806 0.10285692 -0.07714205 -0.11124812 0.07691096 0.12466606 -0.06537294 -0.19542027
-0.092050105 -0.104080446 0.17877649 -0.1941685 -0.07045768 -0.21924818 -0.16329528 -0.009341481
