atropos/trained_model/nhot/no_answer/not_add/9/best_acc.pt (torch, 17298 bytes, 5 tensors)

conv1.bias f4 [32]
0	0x3b831d64	0.0040013064
1	0xbc81dc85	-0.015852222
2	0x3d126bff	0.035747524
3	0xbcdbe5ca	-0.02684297
4	0xbb275ed5	-0.0025538702
5	0x3cca6eef	0.0247111
6	0xbbff784d	-0.0077963234
7	0xb9fa5c42	-0.00047752453
8	0x3b8a809b	0.0042267567
9	0xbcb83fc5	-0.022491345
10	0xbc02a9cd	-0.007975054
11	0x3c03474d	0.008012605
12	0x3b56e673	0.0032791167
13	0x3b03cbd2	0.00201105
14	0x3d1987b1	0.03748292
15	0x3cba97c5	0.022777447
16	0xbc9ebf57	-0.019378347
17	0xbcd75b3b	-0.02628862
18	0x3cd7fa73	0.02636454
19	0xbcb62c42	-0.0222379
20	0xbcbad7d5	-0.022807995
21	0xbba6196c	-0.0050689485
22	0x3c852fee	0.016258206
23	0x3c397f98	0.011321925
24	0x3c40b7c9	0.011762568
25	0x3c6ef83e	0.014585553
26	0xbb3f81ef	-0.0029221734
27	0x3d3b02f3	0.04565711
28	0x3c77bd38	0.015120797
29	0xbca01e88	-0.019545808
30	0xbc879ff1	-0.016555758
31	0x3c9f7ea4	0.019469567

conv1.lin.weight f4 [32, 76]
0	0xbe174e3b	-0.14775936
1	0xbd33c2ee	-0.04388707
2	0x3e04071c	0.12893337
3	0x3d01a006	0.03164675
4	0xbe5c47d1	-0.21511771
5	0x3e1d2fbc	0.1535024
6	0xbc90e045	-0.017685065
7	0xbe41ab53	-0.18913011
8	0xbdf880fd	-0.121339776
9	0xbe532974	-0.20621282
10	0xbe7cdb30	-0.24692988
11	0x3d3bbf9e	0.045837037
12	0x3e186516	0.14882311
13	0x3e00d747	0.12582122
14	0xbe03c753	-0.12869005
15	0xbe501ec1	-0.20324232
16	0xbe65071d	-0.22365995
17	0x3e585705	0.21126945
18	0xbe104f99	-0.14092864
19	0xbd608a7c	-0.05481957
20	0xbe0ba480	-0.1363697
21	0x3e1868a2	0.14883664
22	0x3eb9e93d	0.3631076
23	0x3e9ef895	0.31049028
24	0xbe52d383	-0.20588498
25	0x3da5bb25	0.080923356
26	0x3e18250b	0.14857881
27	0x3e3f17a0	0.18661356
28	0xbdf36f03	-0.11886408
29	0xbd10bb43	-0.035334837
30	0xbdfaba0c	-0.12242517
31	0x3dfa0e32	0.12209739
32	0x3ce60f57	0.028083486
33	0x3e1d8df4	0.15386182
34	0xbd9dbaf5	-0.07701675
35	0x3e80945c	0.2511319
36	0xbce80e4a	-0.028327126
37	0xbd2d7140	-0.04234433
38	0x3e4cfef1	0.20019127
39	0x3e12d4f1	0.14339043
40	0x3e67daec	0.22642106
41	0x3c539e12	0.012916105
42	0xbe25d57d	-0.1619472
43	0x3e1f8427	0.15577756
44	0x3e5ba1bb	0.21448414
45	0xbd7a3a46	-0.06109073
46	0xbd176614	-0.036962584
47	0xbe44227d	-0.19153781
48	0x3e1217de	0.14266917
49	0x3cb7c158	0.02243106
50	0xbe424885	-0.18972977
51	0x3da1b718	0.078962505
52	0xbe4eba31	-0.20188214
53	0x3daf7737	0.0856766
54	0xbda44670	-0.080212474
55	0xbe53f1f0	-0.2069776
56	0xbd4f701a	-0.050644018
57	0xbcac9864	-0.02106876
58	0x3e365c3b	0.1780862
59	0x3e3eec55	0.18644841
60	0x3d59ccab	0.053173702
61	0x3e3bcfd7	0.18341003
62	0xbe2defe8	-0.16986048
63	0xbe3c60de	-0.18396327
64	0xbe12b0f4	-0.14325315
65	0xbde64aec	-0.11244759
66	0x3c11d042	0.00889975
67	0xbe1cb4b9	-0.15303315
68	0xbe67398f	-0.2258055
69	0xbd8bd5bd	-0.06827877
70	0xbd945dc9	-0.072444506
71	0x3d06f9b9	0.032952998
72	0x3d6bf60b	0.05760769
73	0xbddbbc2c	-0.1072925
74	0x3ddb1db8	0.10699028
75	0xbe1e6488	-0.15468037
76	0x3e624aca	0.22098842
77	0x3e5e8917	0.21731983
78	0xbbc7a9ce	-0.0060932403
79	0xbd893e8b	-0.06701382
80	0xbc9a1d40	-0.018812776
81	0x3d1a6530	0.037694156
82	0xbd7dd1ae	-0.061967544
83	0xbd13d173	-0.03608842
84	0x3e3da4b1	0.18519856
85	0xbb2eca1d	-0.0026670762
86	0xbc251312	-0.0100753475
87	0x3e0d0cdc	0.13774437
88	0x3e300d9a	0.17192689
89	0xbe37d4a3	-0.17952208
90	0x3df61335	0.12015382
91	0x3e207c7c	0.15672487
92	0xbd996815	-0.07490555
93	0xbd9a9c30	-0.07549322
94	0xbd29db53	-0.04146893
95	0x3d923178	0.07138342
96	0x3da41e75	0.08013622
97	0x3c2f1d8a	0.010688195
98	0x3dc5d608	0.09659964
99	0x3e947090	0.28992128
100	0xbdc7bea1	-0.097531565
101	0x3c2b7db5	0.010466983
102	0x3e8861ca	0.26637107
103	0x3e8eca17	0.27888557
104	0x3db6e9f0	0.08931339
105	0xbddbe877	-0.107376985
106	0x3e4ef919	0.2021221
107	0x3e7d038a	0.24708381
108	0x3dd0a48f	0.10187637
109	0x3df78775	0.12086383
110	0x3e8e7236	0.2782151
111	0x3e901751	0.2814279
112	0x3d8e161e	0.06937812
113	0x3e01574d	0.12630959
114	0x3e4609c3	0.19339661
115	0xbd834638	-0.064098775
116	0x3dad40dd	0.08459637
117	0xbe79212f	-0.24329065
118	0x3d5384c2	0.05164028
119	0xbde6c037	-0.11267131
120	0xbe0a6609	-0.13515486
121	0x3e19cd33	0.15019684
122	0xbe893f27	-0.26805994
123	0x3c16ea93	0.0092112
124	0x3dbf8725	0.09351949
125	0x3c81a361	0.015824975
126	0x3da82287	0.082097106
127	0x3e2e895b	0.17044584
128	0xbda9afc2	-0.08285476
129	0x3e3951b0	0.18097568
130	0x3d927e28	0.07152969
131	0x3bf20502	0.007385851
132	0xbe90ca80	-0.28279495
133	0xbe5c68ba	-0.21524325
134	0xbc368674	-0.011140455
135	0xbe706c79	-0.23478879
136	0x3e305edc	0.17223686
137	0xbe3e6646	-0.18593702
138	0x3d6dba24	0.058038846
139	0xbe71b335	-0.23603518
140	0x3de031dc	0.1094701
141	0x3e3a04a2	0.1816583
142	0xbe645a34	-0.22300035
143	0x3e08ced3	0.13360147
144	0xbe69ab79	-0.22819318
145	0x3e208b26	0.15678081
146	0x3e3e0e24	0.18560082
147	0xbdaeef24	-0.08541706
148	0x3c93d252	0.018044624
149	0x3d680ccc	0.05665283
150	0x39040230	0.00012589316
151	0x3dfc5eb8	0.12322754
152	0x3d92e6dc	0.07172939
153	0x3e2bf0e1	0.16791107
154	0x3d5b0450	0.05347091
155	0x3e4fbdcc	0.20287246
156	0xbe7cc138	-0.24683082
157	0x3e803ad3	0.2504488
158	0xbd962b9a	-0.07332535
159	0xbde3589a	-0.11100884
160	0xbdc1533e	-0.09439705
161	0xbe3ee449	-0.18641771
162	0x3d8eb284	0.06967643
163	0x3df730b8	0.12069839
164	0xbd97b213	-0.07407012
165	0xbe179525	-0.14802988
166	0xbe11dfff	-0.14245604
167	0xbdf09d8d	-0.117488004
168	0xbd9d08d2	-0.07667698
169	0x3de28c56	0.11061923
170	0xbe4f41bd	-0.20239921
171	0x3debf4f9	0.11521334
172	0x3e144d7e	0.14482686
173	0x3d37c463	0.044865023
174	0xbe6ac1fa	-0.22925559
175	0xbe8d7bab	-0.27633414
176	0xbe0a4455	-0.13502629
177	0xbe61cfc1	-0.22051908
178	0xbe63ed8e	-0.22258589
179	0xbe35f255	-0.17768224
180	0x3e5034a3	0.2033258
181	0x3e080bff	0.13285826
182	0x3d8cf5e6	0.06882839
183	0xbe662e5f	-0.22478627
184	0xbdbb76f8	-0.09153551
185	0x3cb68c57	0.022283716
186	0xbe16c8a7	-0.1472498
187	0x3de7cc9a	0.113183215
188	0xbe6eae1a	-0.23308602
189	0xbdff718b	-0.124728285
190	0xbcfe3b08	-0.031034008
191	0x3e3bf3d0	0.18354726
192	0x3e74e149	0.23914064
193	0x3e40189b	0.18759386
194	0x3e879839	0.26483324
195	0x3e775fdd	0.24157663
196	0x3dabfe61	0.08398128
197	0xbd59e20d	-0.053194094
198	0x3deeefc7	0.11666828
199	0xbccb2dc4	-0.024802096
200	0x3e0f5370	0.13996673
201	0x3cb890de	0.022530016
202	0x3d8f3f74	0.069945246
203	0x3d77d694	0.060507372
204	0x3e38d6e2	0.18050721
205	0x3d5d099d	0.053964246
206	0x3df6e402	0.12055208
207	0xbdb50f00	-0.08840752
208	0x3e941812	0.28924614
209	0x3dfb28d8	0.1226365
210	0xbcab1c0c	-0.020887397
211	0xbd07a162	-0.03311289
212	0x3d2a6f81	0.041610245
213	0x3e85b5ee	0.26115364
214	0x3d6bc1c5	0.05755784
215	0xbe17cd43	-0.14824395
216	0xbc09f65a	-0.008420551
217	0x3e8e91b3	0.27845535
218	0xbc351bd9	-0.011054003
219	0x3de78816	0.11305253
220	0x3e676f41	0.22601034
221	0xb9b3672e	-0.00034218415
222	0x3e8bf1e5	0.27332988
223	0x3de1fd44	0.11034635
224	0xbdd5d660	-0.104412794
225	0x3d06a653	0.032873463
226	0xbd09b763	-0.033622157
227	0x3d1aee3b	0.03782485
228	0xbd9a1031	-0.075226195
229	0x3e4631de	0.1935496
230	0x3e1a1147	0.15045653
231	0xbe56db60	-0.20982122
232	0x3de0131c	0.10941145
233	0xbd6899fa	-0.05678747
234	0x3e76af27	0.24090253
235	0x3e4eeda7	0.20207845
236	0xbd757d9c	-0.059934244
237	0xbd35f5ea	-0.044423975
238	0xbe872fbc	-0.26403606
239	0xbe073286	-0.13202867
240	0xbe393719	-0.18087424
241	0x3e03c54c	0.12868232
242	0x3e66e7ae	0.22549316
243	0x3ccbf325	0.024896214
244	0x3dec55de	0.11539815
245	0x3e0ebd5a	0.1393942
246	0xbe41cbbc	-0.18925375
247	0xbe3668c8	-0.17813408
248	0xbe20d070	-0.15704513
249	0x3c8171f8	0.015801415
250	0xbd7e07af	-0.062019046
251	0x3dcd6198	0.1002838
252	0xbdef1666	-0.11674194
253	0xbe1b2497	-0.15150677
254	0xbda1753d	-0.078836896
255	0xbe34d4d7	-0.17659317

conv_out.bias f4 [32]
0	0x39e07b34	0.00042816403
1	0xbb5d1934	-0.0033736946
2	0x3b0170aa	0.001975099
3	0x3af31940	0.0018546954
4	0xbb21b854	-0.0024676519
5	0xbb23f9d1	-0.0025020728
6	0xbacaf14f	-0.0015483293
7	0xbb5d22ac	-0.003374259
8	0xbb2f0bd3	-0.0026709929
9	0xbb264dd6	-0.0025375984
10	0xba4a48a2	-0.00077165116
11	0xbb4ed4b1	-0.003155988
12	0x3b33391a	0.0027347268
13	0x3b86ba27	0.0041115466
14	0xbb2b98ed	-0.002618368
15	0xbb631f8d	-0.0034656257
16	0xbb72fa63	-0.0037075512
17	0x3b7d05b5	0.0038608138
18	0x3a9672a9	0.0011478263
19	0x3b69403f	0.0035591272
20	0x3b5947c4	0.0033154348
21	0xbacd563b	-0.0015665957
22	0xbb3fd51d	-0.0029271313
23	0x3b29a36f	0.0025884768
24	0x3b3c69ae	0.0028749513
25	0x3b6dcdab	0.0036285918
26	0xbc0681a9	-0.008209624
27	0xba5c76a1	-0.0008410011
28	0xbb2bf543	-0.0026238717
29	0x3b490766	0.0030674576
30	0x3b599a98	0.0033203717
31	0x3b29fc3f	0.0025937704

conv_out.lin.weight f4 [32, 32]
0	0x3ebb710c	0.36609685
1	0x3e73dd69	0.2381493
2	0xbe6ecf37	-0.23321234
3	0xbe900f12	-0.28136498
4	0x3e24cc4f	0.16093563
5	0xbde9f321	-0.11423326
6	0x3e6c1abc	0.23057073
7	0xbe2c59b2	-0.16831091
8	0xbe6bba20	-0.2302022
9	0xbe727004	-0.23675543
10	0xbdd0b344	-0.10190442
11	0x3e75a155	0.23987325
12	0x3e1371eb	0.14398925
13	0x3deea6d1	0.116529115
14	0xbe27569e	-0.16341636
15	0xbe183e00	-0.14867401
16	0xbe31e5e9	-0.1737286
17	0x3e780c17	0.24223362
18	0xbea280b7	-0.31738827
19	0xbe947030	-0.28991842
20	0xbe91924f	-0.28431937
21	0xbdf1dfec	-0.11810288
22	0xbd83e2ac	-0.064397186
23	0xbe0cfb03	-0.13767628
24	0xbe406277	-0.18787561
25	0x3d85a12b	0.06524881
26	0x3e44bbd9	0.19212283
27	0xbe5b2e5e	-0.21404406
28	0x3dcdaead	0.100430824
29	0xbe1dad37	-0.15398107
30	0x3d97451d	0.07386229
31	0xbe1b0671	-0.15139176
32	0x3e9ffc9b	0.3124741
33	0xbe29561a	-0.16536751
34	0x3e0b751d	0.13618894
35	0xbe943757	-0.2894847
36	0x3ce1650e	0.027514007
37	0xbe699d6e	-0.22813961
38	0xbe053a5a	-0.1301054
39	0x3ddc6d78	0.10763067
40	0x3be8077e	0.0070809713
41	0x3e8280de	0.25488943
42	0x3d43f495	0.047840673
43	0x3db07c14	0.08617416
44	0xbea0dace	-0.31416935
45	0xbe19fbea	-0.15037504
46	0xbe276df7	-0.16350542
47	0x3b7be857	0.0038438046
48	0x3e5dd614	0.21663696
49	0x3c1f398d	0.009718311
50	0x3cc6ecde	0.024282869
51	0x3e6f2ea2	0.23357633
52	0xbd9e3457	-0.07724827
53	0x3e5211b7	0.2051457
54	0x3e87e8e7	0.26544878
55	0xbe2da440	-0.16957188
56	0xbcd479c4	-0.025936969
57	0xbd9182c9	-0.071050234
58	0xbe71f3fe	-0.23628232
59	0x3e046b36	0.12931523
60	0xbe133e06	-0.14379129
61	0x3e8fc49a	0.28079683
62	0xbe7efcd8	-0.2490114
63	0xbdd5699a	-0.104205325
64	0xbdc89e96	-0.09795873
65	0x3d594622	0.0530454
66	0xbd0915e6	-0.03346815
67	0x3e82d594	0.25553572
68	0xbe55de21	-0.20885517
69	0xbe0ac6b7	-0.13552366
70	0x3e887383	0.26650628
71	0xbe9cd264	-0.30629265
72	0x3e3d71e4	0.18500477
73	0x3c4a97f6	0.012365332
74	0xbdd6baa6	-0.10484819
75	0x3e448594	0.19191581
76	0xbcf796f0	-0.03022334
77	0xbe2a185c	-0.16610855
78	0x3e6fa5ff	0.23403166
79	0xbdadd981	-0.08488751
80	0xbda38439	-0.07984204
81	0xbdb5dd43	-0.08880093
82	0xbe12ba63	-0.14328913
83	0xbe9b07c1	-0.30279353
84	0x3dca2a80	0.098713875
85	0x3e4841c2	0.19556335
86	0x3e0f6700	0.14004135
87	0xbe22239b	-0.15833895
88	0x3bcc576b	0.006236007
89	0xbe710e26	-0.23540553
90	0x3d81a063	0.063294195
91	0x3ea17965	0.3153793
92	0x3e9dbee0	0.3080969
93	0xbe6dfa84	-0.23240095
94	0xbe385ee7	-0.18004952
95	0xbe88eec8	-0.26744676
96	0xbe7c39a9	-0.2463137
97	0x3e1bf09c	0.15228504
98	0xbe756dda	-0.23967686
99	0x3e85c0bb	0.26123604
100	0xbe6b0193	-0.2294982
101	0x3cc20ee6	0.023688745
102	0xbea86f1b	-0.32897267
103	0x3e6c69c3	0.2308722
104	0xbe8b8364	-0.2724868
105	0xbccdea89	-0.02513625
106	0xbe225ab9	-0.1585492
107	0xbcf81926	-0.03028543
108	0x3e73d9b2	0.23813513
109	0xbe7632e2	-0.24042848
110	0x3e93dd69	0.2887986
111	0x3e2dfa39	0.16989984
112	0xbdda299f	-0.1065247
113	0xbc6d9574	-0.014500964
114	0xbe643630	-0.22286296
115	0xbe3ae4d1	-0.18251349
116	0xbe18487b	-0.14871399
117	0xbe868f99	-0.2628143
118	0xbddcfccc	-0.10790405
119	0xbe59e0a0	-0.21277094
120	0xbe406582	-0.18788722
121	0x3e25df8e	0.1619856
122	0x3e681859	0.22665538
123	0x3eb8a216	0.36061162
124	0xbe59311e	-0.21210143
125	0x3e770bad	0.24125548
126	0xbeaae9b2	-0.3338142
127	0x3d87e84e	0.066361055
128	0x3e217e2c	0.15770787
129	0x3e9a7e13	0.30174312
130	0x3dde051d	0.10840819
131	0xbe5f323a	-0.21796504
132	0x3e446d56	0.19182333
133	0xbe813544	-0.2523595
134	0x3e8da379	0.27663782
135	0x3e2f155e	0.17097995
136	0x3e96250c	0.2932514
137	0x3e8e7b7d	0.2782859
138	0xbe6df730	-0.23238826
139	0x3d42dff3	0.047576856
140	0xbe874da2	-0.26426417
141	0x3dcffb1e	0.10155319
142	0xbe352bad	-0.17692442
143	0xbe81ef8c	-0.25378072
144	0xbe5d77bb	-0.21627705
145	0xbbbf522d	-0.0058386535
146	0xbe33d1ce	-0.17560503
147	0x3e8ea0bd	0.2785701
148	0x3e88239e	0.26589674
149	0x3e1ba1d8	0.15198457
150	0xbe4fecc4	-0.20305163
151	0xbdc03a01	-0.09386063
152	0xbd1e28c9	-0.038613115
153	0x3e53326f	0.20624708
154	0x3e81f46a	0.25381786
155	0xbea52cd7	-0.32260773
156	0xbd8b2413	-0.0679399
157	0xbdfbfcd7	-0.12304085
158	0xbd887527	-0.0666297
159	0xbe6a14dd	-0.22859521
160	0x3e2b8c10	0.16752648
161	0xbe57c8f0	-0.21072745
162	0xbe9bae7d	-0.30406561
163	0xbe05615c	-0.13025421
164	0x3e70edd9	0.23528232
165	0x3e5e1ebc	0.21691412
166	0x3dfe06d2	0.124036446
167	0xbe6384b6	-0.22218594
168	0x3d374202	0.044740684
169	0xbe2c4af7	-0.16825472
170	0xbe7381cd	-0.23779984
171	0xbe200d50	-0.15630078
172	0xbe22902c	-0.1587531
173	0xbd6c8cf7	-0.057751622
174	0x3cef5e69	0.029219823
175	0x3d214038	0.039367884
176	0xbd455c4f	-0.048183735
177	0x3da8c1e6	0.08240108
178	0xbe043716	-0.12911639
179	0xbe8880ac	-0.2666067
180	0x3bed0041	0.0072326963
181	0x3d8c2d6b	0.068446
182	0x3e80f5e4	0.251876
183	0x3ea754b5	0.32681814
184	0x3e99346e	0.29922813
185	0x3e4191a1	0.1890321
186	0xbcf66556	-0.030077618
187	0x3e2110c6	0.15729055
188	0x3e0451a3	0.12921767
189	0x3e295d9a	0.16539612
190	0x3e0fba73	0.14035968
191	0xbdec7b76	-0.11546986
192	0x3d4d1696	0.050070368
193	0xbcac6c8c	-0.021047853
194	0xbe8b9d5a	-0.27268487
195	0x3d34dc4e	0.04415541
196	0xbd3db491	-0.04631478
197	0xbea0748b	-0.31338915
198	0x3e8787e9	0.2647088
199	0xbe960d5b	-0.29307064
200	0xbdf4f360	-0.119604826
201	0x3e41f373	0.18940525
202	0x3e9219d3	0.28535327
203	0xbe810dfa	-0.25205976
204	0xbeaaab0c	-0.33333623
205	0x3e7d5ceb	0.24742477
206	0xbdbcd537	-0.09220355
207	0xbe275058	-0.16339242
208	0x3dd3786e	0.103257045
209	0xbc0ef885	-0.008726244
210	0xbdf2592d	-0.11833415
211	0x3dd5809e	0.104249224
212	0x3dc1e920	0.09468293
213	0xbe902e4e	-0.28160328
214	0xbe7662f3	-0.24061184
215	0xbd8890e5	-0.066682614
216	0xbe898a6a	-0.26863414
217	0xbcb586f8	-0.022159085
218	0x3d7d7321	0.061877374
219	0xbe9caa88	-0.30598855
220	0xbe74ab65	-0.23893507
221	0x3e51f8ae	0.2050502
222	0x3dd34de4	0.10317591
223	0x3dbb7500	0.09153175
224	0x3dffb115	0.124849476
225	0x3e50be12	0.20385006
226	0x3e075538	0.13216102
227	0x3c99d361	0.018777551
228	0x3e83e4a6	0.25760382
229	0x3e115ebf	0.14196299
230	0x3e424e8c	0.18975276
231	0xbe588876	-0.21145806
232	0x3dc300bc	0.095216244
233	0xbde2c025	-0.11071805
234	0x3d382c00	0.044963837
235	0x3dca471d	0.09876845
236	0x3d029f06	0.031889938
237	0x3e953dae	0.2914862
238	0xbe9a27a5	-0.3010837
239	0xbe0b25bc	-0.13588613
240	0xbe2d1483	-0.16902356
241	0xbe854c24	-0.26034653
242	0xbeaf29cd	-0.3421158
243	0xbcf28093	-0.029602325
244	0x3e5003f6	0.20314011
245	0xbe8c476a	-0.27398235
246	0xbd96b086	-0.07357888
247	0x3e984816	0.29742497
248	0xbe66474f	-0.2248814
249	0x3e6fd799	0.23422088
250	0x3e876117	0.2644126
251	0x3e68edc1	0.22746946
252	0x3e050044	0.12988383
253	0x3e51df55	0.2049535
254	0xbdf9f1d0	-0.12204325
255	0x3e8a9963	0.2707015

fc.weight f4 [1, 32]
0	0xbd03a8f8	-0.032143563
1	0xbd7cd369	-0.061725054
2	0x3d38b14a	0.04509095
3	0x3e169f6c	0.14709252
4	0xbe4cc5b5	-0.19997294
5	0xbd1a3262	-0.037645705
6	0xbdb86d5f	-0.09005236
7	0xbd95201f	-0.07281517
8	0xbe451b53	-0.19248705
9	0xbd1ea7f0	-0.038734376
10	0xbdebcb0f	-0.1151334
11	0xbe35be29	-0.17748322
12	0x3e36cbe7	0.1785122
13	0x3ddfb6c6	0.10923533
14	0xbe0dd6d9	-0.13851489
15	0xbdc84390	-0.097785115
16	0xbdcb08c6	-0.09913783
17	0x3d3409c9	0.043954644
18	0x3d10f41d	0.035389055
19	0x3d89a66f	0.06721198
20	0x3dcefac4	0.101064235
21	0xbdace553	-0.084421776
22	0xbe11f1b7	-0.14252363
23	0x3e0c66ff	0.13711165
24	0x3df98eb5	0.12185422
25	0x3d177b3f	0.03698277
26	0x3b236109	0.0024929664
27	0xbda011fe	-0.07815932
28	0xbdf8e8e0	-0.121537924
29	0x3df55463	0.11978986
30	0xbcc34254	-0.023835339
31	0x3e1ea0f9	0.15491094
