atropos/trained_model/nhot/no_answer/add/8/best_acc.pt (torch, 17298 bytes, 5 tensors)

conv1.bias f4 [32]
000000 b4 e3 ca 3c 48 d2 75 3d bc 2c 64 bc b1 4b 1f bd
       0.02476678 0.060014993 -0.013926681 -0.038890544
000010 af 36 4b 3d f8 65 8b bc 29 74 30 bd bc ee 4d 3b
       0.049612697 -0.017016396 -0.04307953 0.0031422814
000020 83 44 06 3d 98 bc d2 3b 7a 62 34 bb c0 0a 1b bc
       0.03278018 0.0064311735 -0.0027524517 -0.009463012
000030 ba 13 24 bd 64 6c c8 3c 59 b8 8f bc b4 e2 64 3d
       -0.040057875 0.024465747 -0.017543959 0.055880263
000040 6a 29 78 bc 67 e1 61 3d 93 91 14 bd e2 1f 4c 3c
       -0.015146593 0.0551466 -0.036271643 0.012458773
000050 3b 36 b1 3d 07 c4 a0 bb d6 b8 63 3c 2a 5b c7 3c
       0.08652922 -0.004906181 0.013899049 0.024335463
000060 d7 bf 1c bd b6 d9 0c bd df c6 0f 3d ca 36 0e bd
       -0.03826889 -0.034387313 0.035101768 -0.03472022
000070 53 02 04 bd e1 23 b9 3c ab f1 7f 3d b6 ff 73 3d
       -0.03222878 0.022600116 0.062486332 0.059570037

conv1.lin.weight f4 [32, 76]
000000 c6 f2 13 3e ad 06 13 be c1 47 c7 3d d2 1b 6a be
       0.1444808 -0.14358015 0.09730483 -0.22862175
000010 1c 04 54 bc fa eb 2c 3e 81 5a df 3d e5 3d 5e bd
       -0.012940433 0.16886893 0.10905934 -0.054258246
000020 a9 a2 6d bd a4 4a 27 3e a5 42 8b 3e 0d 90 00 be
       -0.058016453 0.16337067 0.27199283 -0.12554951
000030 a5 9b f2 bd 00 47 52 bd a5 c5 aa 3b 89 00 e8 3d
       -0.11846093 -0.051337242 0.0052115493 0.11328227
000040 6a fb 42 bc f5 5e 05 be 34 ca 55 bd 73 8a 44 be
       -0.011900762 -0.13024504 -0.05219479 -0.19193439
000050 b3 f2 17 be 82 1e 7a be 38 84 76 be 02 73 45 be
       -0.14838676 -0.244257 -0.24073875 -0.19282153
000060 3f 60 5a be 7e ef 22 be f8 37 f4 3d e7 81 92 bd
       -0.21325777 -0.15911672 0.11924738 -0.07153683
000070 4b 59 0f 3c b9 90 87 be d5 fe 09 bd 80 f0 8a 3d
       0.008749316 -0.26477602 -0.033690292 0.06784153
000080 87 f9 11 3e 21 29 01 3e c0 17 0c 3e ab 59 d0 bc
       0.14255343 0.12613346 0.13680935 -0.025433382
000090 a4 d8 2e be 5a 18 63 be 45 22 45 3c 31 05 6b 3c
       -0.1707483 -0.22177258 0.012032096 0.014344499
0000a0 d1 ea 1b 3e 80 e0 14 3e b3 1c f9 3d a5 63 72 3e
       0.15226294 0.14538765 0.12163677 0.23670824
0000b0 1b a4 4a 3d 25 40 ea 3d e5 35 f1 bd 57 8c 90 3e
       0.04947291 0.11438016 -0.11777858 0.2823207
0000c0 d6 b5 65 bd e6 46 4d 3e a8 e6 85 3d 0d 05 52 3e
       -0.056081615 0.20046577 0.06538135 0.20509739
0000d0 12 6f 73 3d 25 7c 44 3e 11 30 84 bc 5f b5 5e bd
       0.059432097 0.19187982 -0.016136201 -0.054372188
0000e0 b7 70 ee bd 08 c6 10 be 32 16 51 3e 0d 88 01 3e
       -0.116425924 -0.14138043 0.20418623 0.12649556
0000f0 32 dd 3d 3d 1d e3 ca 3b 02 e6 cc bd d5 09 00 be
       0.046353526 0.006191625 -0.10004808 -0.1250375
000100 65 8b 34 3e eb 6b a4 3d 28 60 cb 3c b4 ab cd bc
       0.176313 0.08028396 0.024826124 -0.025106288
000110 ce e2 16 be f2 39 42 3e fc c8 28 3e f3 dc c6 3d
       -0.14734957 0.18967417 0.1648292 0.097101115
000120 77 fd 59 3e d7 02 dd 3d a1 a5 be bc 6e e1 89 3d
       0.21288095 0.10791557 -0.023272337 0.067324504
000130 24 5d b7 3d 83 c0 9f bd d4 17 50 3d 58 a6 73 3e
       0.08953312 -0.078003906 0.050803974 0.23793924
000140 c6 fd 3a bd 7e 0c 1a 3e 3d 43 36 3e c8 37 96 bd
       -0.045652173 0.15043828 0.17799087 -0.07334858
000150 f7 c1 13 be 5f 7c c2 3a 8f 8d a0 3d 4f 90 02 3e
       -0.1442946 0.0014838091 0.078395 0.12750362
000160 ba 93 fb bd ee fe 32 be fe 55 3f ba 96 ea 83 bc
       -0.12284036 -0.1748006 -0.00072988856 -0.01610307
000170 37 3f 87 bd 8c 53 25 be 4a 76 5e be 81 7b f7 bd
       -0.06603854 -0.16145152 -0.21724811 -0.120841034
000180 a9 de 2d be e4 7c 17 bb c5 14 68 be ad 98 38 be
       -0.1697947 -0.0023115212 -0.22664173 -0.18026991
000190 65 63 41 bd 28 56 aa be 4b e7 71 3d 6b 4a e0 bd
       -0.04721393 -0.33268857 0.05905847 -0.10951694
0001a0 45 a5 17 3c 32 34 72 bd 47 1b ca 3d 24 b6 73 be
       0.009255712 -0.05913181 0.09868484 -0.2379995
0001b0 18 eb 2c 3e 06 8e 9b bd 49 4d 50 be 35 b3 54 3d
       0.16886556 -0.07595448 -0.20341982 0.051928718
0001c0 8e ff f3 3c 1c 4b 3b be a8 b6 63 3e 2f c8 0a be
       0.029784944 -0.1829037 0.22237647 -0.13552926
0001d0 c1 c2 81 3e 70 4f 14 be a7 c3 c6 3d 85 41 17 3e
       0.25343898 -0.14483428 0.097052865 0.14771087
0001e0 e4 6b 1b 3e be ed 4b 3d 4a 71 89 3e 11 cb dd 3d
       0.15177876 0.049787275 0.26844245 0.108297475
0001f0 5c 1a 99 3e 7f c8 99 3d ef b6 eb bc c5 7d 39 be
       0.29902923 0.07508945 -0.028773753 -0.18114384
000200 60 b2 45 3e 24 4a a4 bd 08 c0 4b 3e 60 fb 38 3e
       0.19306326 -0.08021954 0.19897473 0.18064642
000210 0b e2 29 3e 59 ea 6c be 98 df df 3c c3 3e 22 3e
       0.16590135 -0.23136272 0.027328297 0.15844254
000220 b7 50 35 3e bf f0 46 3e 27 43 cc 3d 72 6e 86 bd
       0.17706572 0.19427775 0.09973746 -0.065640345
000230 3a 79 0c 3e d4 e9 7f bd 94 b5 57 3e c9 36 e5 3c
       0.1371812 -0.062478855 0.2106536 0.027980225
000240 4d a9 49 be 3b a4 b7 b9 40 d9 bf 3d 28 1a b2 bd
       -0.1969349 -0.0003502684 0.09367609 -0.08696395
000250 c9 d6 d9 3d 22 4b a8 bd 3b 23 0f be cb ec 0b be
       0.1063667 -0.082174554 -0.13978283 -0.13664548
000260 ad 70 89 3b a7 97 f7 3d 55 df bb 3d 2b bd f3 bd
       0.00419434 0.12089472 0.091734566 -0.11901315
000270 5e 42 4d 3e 97 33 43 be 47 88 8f be 60 eb d8 3d
       0.20044848 -0.19062649 -0.2803366 0.10591769
000280 fb 00 2b 3d e4 59 1f 3e 18 19 32 be a8 f4 c2 bd
       0.041748982 0.15561634 -0.17392385 -0.09519321
000290 d6 d9 35 3e 8f 99 8e 3e b0 75 3a 3e fd 77 0a 3e
       0.17758879 0.2785153 0.18208957 0.13522334
0002a0 3f 8d f8 bb bb d3 19 3d cd 87 12 bd 22 05 99 3d
       -0.007585197 0.037555438 -0.03577404 0.07471682
0002b0 7a 49 71 3e 97 e1 e7 bd 35 35 39 3d 47 fb de 3c
       0.23563185 -0.11322325 0.045216758 0.027219428
0002c0 d2 1e 80 bd 22 9f ca 3b 0e 89 99 3e b5 91 74 3e
       -0.062558785 0.006183521 0.29987377 0.23883708
0002d0 3f 54 64 3e de 35 84 3e 0f 5a d7 bd 1f ef 8c 3d
       0.22297762 0.25822347 -0.10515224 0.06881546
0002e0 4d 25 e7 bc ad 0f 1e be fb 01 80 3e 9b 6e 8b 3e
       -0.028216029 -0.15435667 0.2500151 0.27232823
0002f0 da 1a 1c 3e c9 1b e7 bb 46 1b 11 be e2 6b 3a be
       0.15244618 -0.007052873 -0.1417056 -0.18205217
000300 59 7e 89 bc 3a 24 5e bc 1a a0 82 3d 90 8a ff bd
       -0.01678388 -0.013558442 0.06378193 -0.124776006
000310 e3 c8 7b be a4 f7 5d be 02 ca d6 bd a0 5b 1a be
       -0.24588351 -0.21676499 -0.10487749 -0.15074015
000320 70 b8 8c bd 5c bf 5d 3b 0e 48 b8 3d c8 73 3d be
       -0.06871116 0.0033835983 0.08998118 -0.18501198
000330 6e 2e 43 be fd f1 02 3d a4 13 5a be 20 a4 55 be
       -0.1906068 0.03196906 -0.21296555 -0.2086339
000340 c9 30 32 3e 25 e0 69 bc 81 47 d0 3c 5a 7f 65 3e
       0.17401423 -0.014274632 0.02542472 0.22411862
000350 dd 75 45 3e 52 2a 10 bd fe 22 67 3d 6e 73 41 3e
       0.19283243 -0.03519661 0.056429856 0.18891689
000360 e9 dc a0 bd ae 94 13 3e cf d6 e3 bd 07 1f 64 3e
       -0.07854635 0.14412186 -0.11124956 0.22277461
000370 aa 73 5c 3e 47 cb 49 bd ae c8 70 be 6f 57 1e be
       0.21528497 -0.049266126 -0.23514053 -0.15463041
000380 63 d9 eb bd 1c fe 8f 3d aa 7a 17 be b5 fa 32 3e
       -0.115160726 0.070308894 -0.14792886 0.1747845
000390 8c 2c 98 bb 11 ad 1c 3e 34 e5 d3 bd 60 a4 08 be
       -0.0046439823 0.15300395 -0.103464514 -0.13343954
0003a0 fd ba 2c 3d 16 e7 8a 3d b6 d9 42 3d 60 a9 e4 3d
       0.042170513 0.067823574 0.047570907 0.11165118
0003b0 5a 27 15 3e 04 91 b5 bd 76 a8 76 be 33 12 13 bc
       0.14565793 -0.0886555 -0.240877 -0.008976507
0003c0 0d a9 06 3e 99 e5 28 3e 3a 27 05 be 78 c0 37 be
       0.13150425 0.16493835 -0.13003245 -0.17944515
0003d0 11 6f ce bd 2d 96 ba bc 73 5e 5c be f7 4a 5d 3e
       -0.10079778 -0.022776688 -0.21520405 0.21610628
0003e0 6a b8 2c bd 5d 30 f4 bd 15 40 8e bd 5a e8 4c be
       -0.04216806 -0.11923287 -0.069458164 -0.2001051
0003f0 82 e3 75 bd 68 6b 3d 3e a2 71 6e 3d 00 4a 19 3e
       -0.06003142 0.18498003 0.058213837 0.14969635

conv_out.bias f4 [32]
000000 32 82 f5 bc 0f 35 0a bd bf b2 fb 3c 25 0f f8 bc
       -0.029969309 -0.033742007 0.030724881 -0.030280659
000010 6e 75 04 bd 99 0f f0 bc 7b 50 01 bd 94 4f 03 3d
       -0.032338552 -0.029304313 -0.031570893 0.032058313
000020 2e 75 fe 3c 84 ff 08 3d af cc 05 3d 8d 7b 07 bd
       0.031061735 0.033446804 0.032665905 -0.03307681
000030 3f 70 02 3d 1e 91 11 3d ad d5 3d 3c 15 bb e5 3c
       0.031845327 0.035538785 0.011586589 0.02804331
000040 f5 f6 19 bd 98 de 07 bd 94 32 02 bd e3 64 ed bc
       -0.037589032 -0.033171266 -0.031786516 -0.02897877
000050 e1 7c 05 3d 32 9c 09 bd 70 ce 00 3d b1 2d 0a 3d
       0.032589797 -0.033596225 0.031446874 0.03373498
000060 7b fc af 3c 2c b2 0e 3d c3 01 00 bd 9a 2c fa 3c
       0.021482697 0.034837887 -0.03125168 0.030538846
000070 18 20 60 bc de 60 02 3d 98 8e 02 bd 9d 14 ff 3c
       -0.013679527 0.03183066 -0.03187427 0.031137759

conv_out.lin.weight f4 [32, 32]
000000 f8 b8 a6 bd e9 8b 41 be 2c 4d 03 3e a5 60 2c 3e
       -0.08140749 -0.18901028 0.12822407 0.16833742
000010 32 ba 9e be 71 42 dc bd a5 5b 81 3c da c5 81 be
       -0.3100143 -0.1075486 0.01579077 -0.2534626
000020 06 71 95 be 9e e4 2b 3e 62 e0 55 be 9f 14 64 be
       -0.29187793 0.1678643 -0.20886377 -0.22273491
000030 9c ec fa 3d 91 7b fb bd d9 a1 64 3e 8b a5 03 3e
       0.12252161 -0.12279428 0.22327365 0.12856118
000040 bd d4 34 3e e1 51 58 be 52 01 55 3e 47 01 78 3e
       0.17659278 -0.21124984 0.20801285 0.24219237
000050 ec f1 8b bd be 9b 1d 3e fb f9 ef bc 5f 1a af 3d
       -0.06833252 0.15391442 -0.029294005 0.08549952
000060 5d 6d 9a be 7f ae 26 3e a2 a5 84 3e a8 6a 19 be
       -0.30161563 0.16277502 0.25907618 -0.14982092
000070 31 42 56 3e c6 c5 92 be b2 8b 48 3e 0a 9b a6 3c
       0.20923688 -0.28666514 0.1958454 0.0203376
000080 06 fb 93 bd 4b 72 de 3d d3 cf fe bc b8 79 19 be
       -0.07225613 0.108616434 -0.031104958 -0.14987838
000090 53 97 9c be 35 bd 37 3e a5 e7 1a 3e 65 50 06 3d
       -0.305842 0.1794327 0.15127428 0.032791514
0000a0 f0 f2 be 3d aa 47 89 3e 4c c3 3b 3e 81 02 dd bd
       0.093236804 0.26812488 0.18336219 -0.10791493
0000b0 f9 c3 28 be ad a9 a8 be 3d a9 8c be 2c 33 d6 3d
       -0.16481008 -0.32941952 -0.2747287 0.10458979
0000c0 c5 0c 65 3e 3a 7d 1e be d3 c0 f7 bd 82 a6 10 be
       0.22368152 -0.15477458 -0.12097325 -0.14126018
0000d0 df 4b 8f 3c 36 d2 ae bd d6 d9 a3 3d 7d 02 13 3e
       0.017492233 -0.08536188 0.08000533 0.14356418
0000e0 d3 ce 2a bd 90 5a a2 3e fd ea ab bd 48 55 75 be
       -0.04170115 0.3170972 -0.0839443 -0.23958313
0000f0 81 a1 85 3c cf 51 95 be 90 d8 91 bc 2e c6 46 3e
       0.016312363 -0.29163978 -0.01780346 0.19411537
000100 c8 89 b2 3d 83 78 fc 3d 22 3b 89 3e e5 15 57 3d
       0.08717686 0.12327673 0.26802927 0.052511115
000110 91 d5 73 3d 5f 74 04 3e fc 06 97 3e 25 7d 27 3e
       0.059529845 0.12935017 0.29497516 0.16356333
000120 2c dc 81 bd 05 82 dc bb 0b 26 8b be 82 b0 a6 be
       -0.063408226 -0.0067293667 -0.27177462 -0.3255654
000130 a5 5a a3 3e f8 7c 9f 3e 10 13 84 3c 87 70 0c 3d
       0.31905094 0.3115003 0.016122371 0.034287002
000140 1f 7b ea 3c 37 67 79 be 6d 69 dd bc 8b 72 82 be
       0.028623162 -0.2435578 -0.02702781 -0.25478014
000150 25 d5 0b be ff 23 22 3e 62 a9 04 be 48 cb af bd
       -0.13655527 0.15834044 -0.1295524 -0.08583695
000160 df 58 87 3e 11 7b 00 be 9d 77 99 3e d6 a9 2e be
       0.2643499 -0.12546946 0.2997407 -0.17056975
000170 21 ff 23 3e 12 ec dc bc e4 cb 89 be ce f8 4d be
       0.16015293 -0.026968036 -0.2691337 -0.20114443
000180 27 00 07 3e 19 68 a7 3c a8 71 34 b8 64 54 28 3e
       0.13183652 0.02043538 -4.3021195e-05 0.16438442
000190 68 7e 49 3e 53 21 75 3e c3 98 37 3e 02 bd 4e be
       0.19677126 0.23938493 0.17929368 -0.20189288
0001a0 cc 10 9d be a0 ee 93 be a1 29 3d be 76 91 76 3d
       -0.30676877 -0.28892994 -0.18472911 0.060197316
0001b0 1e 56 a6 3d 32 b7 94 3a 2b e4 f9 bc f1 fb 78 be
       0.08121894 0.00113461 -0.030504307 -0.24314858
0001c0 5c 3c 65 3e 2b 20 42 be e7 77 93 3e 85 55 1c be
       0.22386307 -0.18957584 0.28802416 -0.15266998
0001d0 fa fd 9e bd 97 71 10 be 5e ee 66 3e db 22 53 3e
       -0.07763286 -0.14105831 0.22551867 0.20618765
0001e0 2c 65 d9 bd 01 6b 8b bd 24 a1 aa 3d 56 9a b0 3d
       -0.10615 -0.06807519 0.083315164 0.08623187
0001f0 fc 57 82 be 4f 53 26 be 63 ec 40 3e 1b 7d 15 be
       -0.25457752 -0.16242717 0.18840174 -0.14598505
000200 4d be 65 3e 00 f1 c7 3d a8 96 08 3e cf 9f 35 3e
       0.22435875 0.09762764 0.13338721 0.17736743
000210 5f e4 57 be 52 f1 89 bb f8 fa e1 3d 8e 5a 4d 3e
       -0.2108321 -0.004209676 0.110341966 0.20054075
000220 0d 7d 4c be 2f 8d 24 3e 51 7b be 3d a9 97 b3 3d
       -0.19969578 0.16069482 0.093008645 0.08769161
000230 5f eb 2d 3e e2 53 45 bd a2 bd 55 3e 7f 48 56 bc
       0.16984318 -0.0481757 0.2087312 -0.013078808
000240 5f 4a 02 3e 24 93 70 be c4 c6 52 bd 8a ff a5 3d
       0.12723683 -0.2349363 -0.05145909 0.08105381
000250 2b 2e bf 3d d3 64 73 bd 9c aa 2c be c9 07 ae 3d
       0.09334978 -0.059422325 -0.16861957 0.08497579
000260 33 7a 9a 3e 05 fa 29 bc dc 58 c7 3d 99 69 b4 be
       0.30171356 -0.010374551 0.097337455 -0.35236815
000270 ba b4 4c be 68 45 08 be bd 25 4f be 2b 45 92 be
       -0.19990817 -0.13307726 -0.2022924 -0.28568396
000280 d4 80 25 3e 41 1e 93 3d db eb 18 3d 03 9b 96 be
       0.16162425 0.07183505 0.037334304 -0.2941514
000290 16 0e 38 3e 06 37 99 3d aa a9 1f 3d 42 18 85 be
       0.17974123 0.07481198 0.038980164 -0.2599507
0002a0 da 75 44 bc c8 af 68 be de 81 cc bd 38 c8 77 3e
       -0.011990989 -0.22723305 -0.09985708 0.24197471
0002b0 80 d5 34 3e 2f d2 c6 bd b8 03 80 3e 9d d4 07 3e
       0.17659569 -0.09708058 0.25002837 0.132647
0002c0 e4 96 ff bd 2f f7 6a 3e 02 aa f8 bd 06 63 b4 bd
       -0.12479952 0.22945856 -0.121418014 -0.0880795
0002d0 ec 6e 29 3d 98 cb a0 3e b3 f9 83 bc af 8a 10 bd
       0.04136555 0.3140533 -0.016110277 -0.03528851
0002e0 26 23 90 bd 4d ad e4 bd 24 b0 82 3b 3a 6c 34 3e
       -0.07037954 -0.11165867 0.0039882828 0.1761941
0002f0 5d 18 31 3e 0f f1 2d 3e d8 36 88 3e 5d 2c 56 be
       0.1729445 0.16986488 0.26604342 -0.20915361
000300 49 43 36 3e 1d 95 7d 3e fd c0 7d 3e 14 3b 07 be
       0.17799105 0.24763913 0.2478065 -0.1320613
000310 55 1c 07 3e 90 12 06 3e ef 4d 6d 3e 5b 66 f2 3d
       0.13194402 0.13093019 0.2317426 0.11835929
000320 35 4d 64 3e 3b 19 32 be d7 4d 04 be 94 6b 27 be
       0.22295077 -0.17392437 -0.12920319 -0.16349632
000330 75 5c 47 bd 0b 2a b6 bd 32 71 bc bd c5 a9 cf bb
       -0.04867216 -0.08894738 -0.09201278 -0.006337377
000340 73 5c 7c be 32 7a 7b 3e b7 9d 55 3d f0 29 78 3e
       -0.24644642 0.24558333 0.05215236 0.24234748
000350 80 c3 82 3e 24 f5 ac 3e fc 09 11 be c9 30 26 3d
       0.2553978 0.33780777 -0.14163965 0.04057387
000360 0e 56 88 be d4 54 2c 3c 7a a5 89 be a8 9c c7 3d
       -0.26628155 0.0105182715 -0.2688406 0.09746677
000370 d9 84 d0 3a 22 c6 58 3e 7b 85 44 3d 97 81 a8 be
       0.0015908732 0.21169332 0.04797886 -0.3291137
000380 8c 8f 2c 3d fc 54 77 be 44 2a 4c be b4 3b 4f be
       0.042129084 -0.24153513 -0.19937998 -0.20237619
000390 9f b9 55 3e aa 82 3e be bb 2d 9e be 72 b3 8d be
       0.2087159 -0.18604532 -0.30894265 -0.27675968
0003a0 38 39 cc bd f8 b8 e0 3d 82 01 f4 3d be 00 07 3e
       -0.09971851 0.1097278 0.1191435 0.13183877
0003b0 f6 fa 0e be cf 90 95 3d e3 a2 6f 3e 49 2b d3 3d
       -0.13962922 0.07303011 0.2340198 0.1031099
0003c0 0d d5 24 3e 9d a0 0d be 5a 1e 4b 3e df 44 8c 3e
       0.16096897 -0.138308 0.19835797 0.27396294
0003d0 ac e0 1b bd 8b eb 98 be a8 b4 75 3d 0d 0e 19 3c
       -0.03805606 -0.29867205 0.05998674 0.009341729
0003e0 8c 5d 6d be 96 81 5b be cb f7 7b 3e f9 9c 75 be
       -0.23180217 -0.21436152 0.24606244 -0.23985662
0003f0 7e e6 4b 3e 37 cd 82 3e f8 90 81 3e a8 5c 0e 3e
       0.19912145 0.25547192 0.25305915 0.13902533

fc.weight f4 [1, 32]
000000 2c 33 af bd 42 b2 e4 bd 1f 4c 15 3e b8 d1 f3 bd
       -0.08554682 -0.111668125 0.14579819 -0.11905235
000010 11 89 09 be 14 d1 93 bd 1e fe 15 be d2 a3 4c 3e
       -0.13431193 -0.07217613 -0.1464772 0.19984367
000020 ec 8a c8 3d b2 29 cd 3d 60 74 2c 3e b7 65 27 be
       0.09792122 0.100177184 0.16841269 -0.16347395
000030 00 f3 97 3d 63 fc 22 3d eb 71 6a 3c be c6 0b 3d
       0.074193954 0.039791476 0.014309387 0.034125082
000040 1a f9 89 bc d8 a7 e8 bd a2 34 fd bd 4f 8d 73 bd
       -0.016842414 -0.11360139 -0.123635545 -0.059460934
000050 53 6d 4f 3e e6 4b e3 bd c3 aa 85 3c ff a9 cf 3d
       0.20256548 -0.11098461 0.016316777 0.10139846
000060 31 7b 96 3b 91 c5 fa 3c 8f 01 8c bc 11 2c df 3d
       0.0045923223 0.030611785 -0.017090587 0.10897077
000070 04 0a 85 bd 85 34 1d 3e b9 22 04 be 86 6f 21 3e
       -0.06496051 0.15352066 -0.1290387 0.15765199
