atropos/trained_model/nhot/answer/add/2/best_acc.pt (torch, 8594 bytes, 5 tensors)

conv1.bias f4 [32]
000000 00 00 00 00 de 86 3e bb 00 00 00 00 d6 f4 a6 bb
       0.0 -0.0029072086 0.0 -0.0050951047
000010 00 00 00 00 00 00 00 00 00 00 00 00 00 00 00 00
       0.0 0.0 0.0 0.0
000020 bb 7e 1c 3b 00 00 00 00 00 00 00 00 00 00 00 00
       0.0023879248 0.0 0.0 0.0
000030 00 00 00 00 65 38 98 bb 00 00 00 00 00 00 00 00
       0.0 -0.0046453946 0.0 0.0
000040 00 00 00 00 00 00 00 00 af 3e 3c bb 00 00 00 00
       0.0 0.0 -0.0028723886 0.0
000050 00 00 00 00 47 75 5c bb 12 76 15 bb c8 e9 8a 3a
       0.0 -0.0033639239 -0.002280597 0.0010598237
000060 00 00 00 00 aa 80 f6 3b 2e 3b 38 3b 00 00 00 00
       0.0 0.007522662 0.0028111446 0.0
000070 00 00 00 00 00 00 00 00 00 00 00 00 00 00 00 00
       0.0 0.0 0.0 0.0

conv1.lin.weight f4 [32, 8]
000000 ec e6 65 bd ce 90 1f be 7c 36 b7 be 19 59 8a 3e
       -0.056128427 -0.15582582 -0.35783756 0.270211
000010 70 99 8d be 64 11 4f 3e 3e 48 77 be 58 02 0f be
       -0.27656126 0.20221478 -0.24148652 -0.13965738
000020 12 c2 02 be 44 02 71 3e 46 ad aa 3e d3 4b c1 3e
       -0.12769344 0.2353602 0.33335322 0.37753162
000030 b4 26 2e be bc 3e 69 be bc 9b c4 3d ea d2 9a bd
       -0.17006952 -0.22777838 0.096000165 -0.0755976
000040 59 bc a0 3e 2d 66 a9 be 93 4b 96 be 3e 5e 9d 3d
       0.31393698 -0.33085766 -0.29354534 0.07683991
000050 d4 40 56 be cf b3 b8 be 67 f1 a3 3e 44 88 c0 bd
       -0.20923167 -0.36074683 0.32020113 -0.094009906
000060 e2 9c b5 3e 6d 3b 73 be 4b af 8e be e6 3c a5 bc
       0.35471255 -0.23753138 -0.27868113 -0.02017064
000070 ae c9 2d 3e 44 41 0d 3e 5c 1a bf 3e 7f 57 5a 3e
       0.16971466 0.13794428 0.37324798 0.2132244
000080 81 58 e8 bc ec 2e 81 be 84 26 d6 bd a1 fd 84 be
       -0.028362514 -0.2523111 -0.10456565 -0.25974753
000090 2b 0c 31 bd 98 3e 0c 3e fe 61 ff 3c f1 3a c9 bd
       -0.043224495 0.13695753 0.031174656 -0.09825695
0000a0 cb 47 9b bd 83 9c 70 be 32 48 94 be 9f 27 c1 3e
       -0.07582053 -0.23497204 -0.2896133 0.3772554
0000b0 f5 07 8e 3d 19 35 99 3d ee c8 28 be 98 44 4e bd
       0.069351114 0.07480831 -0.16482899 -0.050358385
0000c0 5e 3f 37 be 8a e8 ac be ba b2 27 3e aa 01 28 3e
       -0.17895266 -0.33771163 0.16376773 0.16406885
0000d0 c5 c1 5d 3e cd e7 8b 3a f4 b6 b5 be b0 61 81 3e
       0.21655948 0.001067394 -0.35491145 0.25269842
0000e0 66 d4 a3 be 3c 93 d8 bd c7 d6 c0 be 69 aa 15 bd
       -0.31997985 -0.10574958 -0.37663862 -0.03653947
0000f0 74 3c d2 bd 72 13 b4 3c d5 78 9a 3d 1f bd 49 3d
       -0.10265437 0.021981928 0.07542578 0.049252626
000100 1e 2b 0b bd af be 92 be 90 80 c0 3d 10 93 9f 3e
       -0.033976667 -0.28661105 0.09399521 0.31166887
000110 66 9f 01 be 14 f8 a1 3e 95 24 8c be a8 ff b7 3e
       -0.12658462 0.3163458 -0.2737166 0.35937238
000120 4a 82 bb bd 20 ab bb 3e 56 59 ad be 82 47 ba be
       -0.0915571 0.36653996 -0.3385722 -0.3638268
000130 64 dd 89 be ca 4a 9f be ef 31 74 be 34 00 12 3e
       -0.2692672 -0.31111747 -0.23847173 0.1425789
000140 7d 09 0a 3c 7f fd 0c bd 72 60 c6 bd aa 4a 83 3e
       0.008425114 -0.03442144 -0.09686364 0.25642902
000150 cd e9 c2 3d 83 24 a3 bd 9f ac bd be 2c e5 16 3e
       0.0951725 -0.079659484 -0.37045762 0.1473586
000160 cf 43 b3 3e 2b c6 97 be 1d 6e 84 be a6 ee 60 bd
       0.3501267 -0.29643378 -0.2586526 -0.054915093
000170 20 58 a2 be 94 c9 ef bd 76 a2 b4 3e e7 7d f3 bd
       -0.3170786 -0.1170837 0.35280198 -0.11889248
000180 e2 e8 3d bd b8 f8 b0 3e 73 87 4d be a7 21 17 bd
       -0.046364672 0.34564757 -0.20071201 -0.036897328
000190 48 dc 50 bc 54 38 1e 3e dd 0b b3 be 72 40 68 bd
       -0.012747832 0.15451175 -0.34969988 -0.056702085
0001a0 71 46 6c 3e b2 75 73 3e d3 94 36 3e 07 33 ad be
       0.23073746 0.23775366 0.1783021 -0.33827993
0001b0 71 9f 91 be 81 88 c3 be 75 ec 98 3e 73 6a d8 3c
       -0.28441957 -0.38190082 0.29867902 0.026417946
0001c0 07 ab 92 bc f7 62 80 3e 69 f4 d5 bd 29 a8 cf 3d
       -0.017903818 0.25075504 -0.10447008 0.10139496
0001d0 9b 97 7b 3e 15 c9 55 be 07 5b 87 bd fa 8c 77 be
       0.24569552 -0.20877488 -0.06609159 -0.24174872
0001e0 08 42 46 3e 9d 86 64 3e c5 ba 9d be 31 3a 32 be
       0.19361126 0.22316976 -0.30806556 -0.17405011
0001f0 a7 36 9c be 59 6e c5 3e e1 e4 c0 be 24 b8 fe 3d
       -0.30510446 0.3856075 -0.3767462 0.12437466
000200 9e 05 be bd 76 4d 05 be c5 89 b4 be 63 14 50 3e
       -0.09278415 -0.1301783 -0.3526136 0.20320277
000210 f5 80 1e be 0e fb 9a be e9 47 53 be 8f c0 63 3e
       -0.1547888 -0.30269665 -0.206329 0.22241424
000220 fc e6 6e be 6f 75 c0 be 71 ae 90 3e 4d 56 96 be
       -0.23330301 -0.37589595 0.28258088 -0.29362717
000230 e6 e8 80 be 57 13 15 3e e0 13 ad 3d 1e 4a b3 be
       -0.25177687 0.14558159 0.084510565 -0.35017484
000240 73 f6 07 bd c5 1e 93 3e d9 05 46 be 0e b3 87 3e
       -0.033194017 0.28734413 -0.19338168 0.26503795
000250 94 de 9f 3d 56 31 af 3e 8a 91 a9 3e 01 08 86 bc
       0.07806125 0.34217328 0.3311885 -0.016361238
000260 b9 34 f8 3d 14 ac 65 be c5 c3 ba be d9 48 7a 3e
       0.12119431 -0.22428924 -0.36477485 0.24441852
000270 e4 5f ae be 10 cf 96 3d c0 b4 fe 3d bb b8 e4 3c
       -0.34057534 0.07363713 0.12436819 0.027920118
000280 3d f7 a3 3e 9f 62 f3 3d ad f4 c5 be 24 78 37 be
       0.32024565 0.11884045 -0.38663235 -0.17916924
000290 e7 77 c4 be e7 59 61 be 72 08 f1 bd fc e5 2d be
       -0.38372728 -0.22006951 -0.11769189 -0.16982263
0002a0 5b 21 b7 3e 4e ce 76 3e 6f 1f a7 be 20 8f 0a be
       0.35767636 0.24102136 -0.3264117 -0.1353116
0002b0 58 20 63 3e 40 6b 10 3e ec bf 6f 3e ee 20 00 be
       0.22180307 0.14103413 0.23413056 -0.12512562
0002c0 19 b6 8a 3e 27 65 e0 3d 61 7a 97 3e ac e8 8f 3e
       0.27092054 0.10956793 0.29585555 0.28107202
0002d0 62 3a ad 3d 07 74 91 bd 94 0f 2e 3e 16 35 35 be
       0.08458401 -0.071022086 0.1699813 -0.17696032
0002e0 18 00 53 be 4f e5 8d 3e 1c b1 f6 3d 07 5a 71 be
       -0.20605505 0.2771401 0.120455 -0.23569499
0002f0 44 0f b9 3e 77 75 e5 3c 37 67 11 3e 60 76 44 be
       0.3614446 0.028010113 0.1419953 -0.19185781
000300 01 14 63 be 08 0d e2 bd 7a 26 aa bc 94 55 af be
       -0.221756 -0.11037642 -0.0207703 -0.34244978
000310 18 d1 0a 3e f8 e0 a0 be 0b 1b ac 3e 52 81 6f be
       0.13556325 -0.31421638 0.33614382 -0.23389176
000320 f4 2d b9 be 22 5c 26 bd 8b 8e 8d 3e 3e 62 b7 3e
       -0.36167872 -0.04061521 0.27647814 0.3581714
000330 d4 a6 ae 3d 35 b8 91 3d c2 6d ba 3e 7a 8c 01 3d
       0.08527914 0.07115213 0.36411864 0.03162811
000340 9c 19 34 be f7 74 a9 bb d6 97 a8 be e7 24 9a 3d
       -0.17587894 -0.005171414 -0.32928342 0.0752657
000350 bc a0 0f 3e 5a a4 aa be a7 f0 ab 3e 7f ec bc 3e
       0.14026159 -0.33328515 0.3358204 0.36899182
000360 8c e4 88 3d 4d 39 ae be b5 b5 ba be 30 67 84 3d
       0.06684217 -0.34028092 -0.36466756 0.06464994
000370 17 23 8e be b9 e3 64 3c 45 ad a2 3d 20 18 bc be
       -0.27761146 0.013970309 0.07943205 -0.36737156
000380 fb 40 95 be 13 6f f6 3d 38 3a 8c be 2b 8e 86 3d
       -0.2915114 0.120329045 -0.27388167 0.06570085
000390 4b 10 88 3e fd 8a a0 be 25 86 31 be 34 02 04 3d
       0.2657493 -0.3135604 -0.17336328 0.032228664
0003a0 46 fe 87 3d ab 33 49 be b8 90 82 be 8c 6f 39 bd
       0.06640296 -0.19648616 -0.25501037 -0.045272395
0003b0 44 77 6c bd 52 46 c5 be 05 43 7e be c2 b2 c5 3e
       -0.057730928 -0.38530213 -0.24830253 0.38612944
0003c0 c8 4f cf bd a5 30 13 bd 0e 26 9f be fe a6 03 bd
       -0.10122639 -0.035935063 -0.3108372 -0.032141678
0003d0 b1 2d fb 3d 6d bb b3 be dc 5c 45 3d 15 0e 31 3e
       0.12264574 -0.35103932 0.04818426 0.17290528
0003e0 64 b0 90 be ac 5b 82 3e bc f5 7f be 7f ff 96 bd
       -0.28259575 0.25460565 -0.24996084 -0.07372951
0003f0 01 80 6f be c1 0b a4 3d ee 01 4e bd 00 be 11 3b
       -0.23388673 0.080100544 -0.05029481 0.0022238493

conv_out.bias f4 [32]
000000 e5 85 4b 3b c1 9d 4a bb 0d 21 4c 3b 95 88 4b 3b
       0.003105515 -0.0030916783 0.003114763 0.003105675
000010 0d 9b 4d bb 62 25 4d bb 54 e2 47 3b d8 ab 4c 3b
       -0.0031372935 -0.00313028 0.0030499892 0.0031230357
000020 73 09 4b 3b 1a b2 4b 3b 88 45 4a bb 10 e6 4b 3b
       0.0030980974 0.0031081499 -0.0030864198 0.003111247
000030 34 3c 4d 3b f5 83 3d bb 91 cd 4a 3b 77 20 4b bb
       0.0031316401 -0.0028917764 0.003094528 -0.0030994692
000040 c3 a1 4f bb 02 b9 4b 3b e3 4c 4b bb a8 99 4b 3b
       -0.003168211 0.0031085615 -0.003102117 0.0031066928
000050 c9 d4 4c 3b 90 e6 50 3b b7 1c 4c 3b 16 4f 4b bb
       0.003125476 0.0031875707 0.0031145045 -0.003102248
000060 86 92 4b 3b 7d 8f 4e bb a4 38 44 bb f0 7b 49 bb
       0.0031062677 -0.003151863 -0.0029940987 -0.0030744039
000070 4b bb 64 bb 3d ac 4d 3b e3 a4 4a bb 2d 04 4c bb
       -0.0034901674 0.003138318 -0.0030921034 -0.0031130419

conv_out.lin.weight f4 [32, 32]
000000 85 df 83 3e f2 80 51 3e e3 50 69 3e ac a8 67 3e
       0.2575647 0.20459345 0.22784762 0.22622937
000010 bd 90 8b bd 0e c7 7d 3c 89 77 56 be 73 0d 6c 3d
       -0.06814716 0.015489353 -0.20944037 0.057630014
000020 17 ae 2c 3e 3e eb 82 3d 9d 2d 8d be ff 48 14 be
       0.16863285 0.06392525 -0.27573863 -0.14480971
000030 e2 12 04 3e 02 6c 85 be 81 0f 8a 3e 04 89 0a be
       0.12897828 -0.26058966 0.26964954 -0.1352883
000040 83 ea 80 bd 25 b5 6a bd 01 60 a0 bd 21 25 82 be
       -0.062947296 -0.05730166 -0.07830811 -0.25418952
000050 13 a7 9b bc 9f 9f b9 bd f3 95 56 3e 7c bb f7 bc
       -0.019000566 -0.090636484 0.20955639 -0.030240767
000060 1a f3 a8 bc a4 7b 15 3e e5 1a 9d 3e 45 e8 71 be
       -0.020623732 0.14597946 0.3068458 -0.2362376
000070 9a 9c d2 bd 14 f3 67 bd 2d 85 88 3e 4b 18 24 bd
       -0.10283776 -0.0566283 0.26664105 -0.04006223
000080 a3 d0 95 bd 49 4d 10 be 5d 81 a9 bd 27 ce 96 be
       -0.07315185 -0.14091982 -0.08276627 -0.29454157
000090 44 a5 8f be 61 c1 00 3e d1 5e d1 bb 9b f2 98 be
       -0.28055775 0.12573768 -0.006389477 -0.29872593
0000a0 94 58 c3 3c be ce d8 bd 3b 00 12 3e 82 ae 5c 3e
       0.023845948 -0.10586308 0.142579 0.21550944
0000b0 ea 14 89 3e dc 5e b5 3d 0b 08 99 3e e9 3d 92 3e
       0.2677377 0.088559836 0.2988895 0.2856286
0000c0 d3 91 9a bd 1e 6f 86 be 28 10 e1 bc 84 1f 6d 3e
       -0.07547345 -0.2625665 -0.027473524 0.23156554
0000d0 cc 66 05 3e 51 69 d9 bd 51 5c 5d bd 9d c6 3e 3e
       0.13027495 -0.10615791 -0.054043118 0.18630452
0000e0 c0 50 16 3e 14 ee 67 3e 14 25 f1 3d c7 97 d0 bd
       0.14679241 0.22649413 0.1177465 -0.10185199
0000f0 7a 42 8b be b7 4c 38 3e 01 89 52 be b0 11 50 be
       -0.27199155 0.17998014 -0.20560075 -0.20319247
000100 e2 a3 0a bc 75 fb 23 bb 4c 6d 81 be f1 09 4d 3e
       -0.008461924 -0.0025021706 -0.252787 0.20023324
000110 07 30 fb 3d d5 9f ad bd f3 ae 81 bd cf 83 84 bd
       0.1226502 -0.08477751 -0.06332197 -0.06470453
000120 d4 37 37 3e 0f ff 25 3e 6f ef 8a be 31 d6 b4 bd
       0.1789239 0.16210578 -0.27135798 -0.08829916
000130 98 1c 83 bc be 0e 87 be 7d 8d 82 be 55 5e a8 3d
       -0.016004845 -0.26378435 -0.25498572 0.082211174
000140 63 14 b7 bd 14 8d 98 be e8 37 7d 3e 8c 66 4f be
       -0.08939435 -0.29795134 0.24728358 -0.20253962
000150 4b c9 95 be 7c 42 c1 39 c7 b3 69 be 8f 6d 88 3e
       -0.29255137 0.00036861363 -0.22822486 0.26646087
000160 e1 66 c8 bc ad 79 11 be 08 f4 ee 3d 1e 23 2d be
       -0.024463119 -0.14206572 0.11667639 -0.16907927
000170 53 a5 4e bd c0 87 36 3e 8f e2 85 3e 54 bd 90 be
       -0.050450634 0.17825222 0.26149413 -0.28269446
000180 82 ab 6a 3e ff f1 93 be cd a3 17 3e 75 ed 51 be
       0.22916988 -0.28895566 0.14808579 -0.20500739
000190 d7 c1 1c bd 32 2b 4b be 16 c8 85 3e ba b6 0f 3e
       -0.038270798 -0.19840696 0.26129216 0.14034548
0001a0 fb ac 7c 3c fe 39 9b 3e c2 01 80 be e5 c9 2e be
       0.015422101 0.30317682 -0.2500134 -0.17069204
0001b0 da 7c 4d 3e f9 11 26 3e f3 06 fc 3d 2f 91 e6 bd
       0.20067158 0.16217794 0.12306013 -0.1125816
0001c0 9a bd 08 be 8a 25 97 3e 85 6b fd 3c 2d b5 93 be
       -0.13353577 0.29520828 0.030935058 -0.28849164
0001d0 ce 73 5d 3e 51 d8 34 3b 71 67 9b be 9d e4 2b be
       0.21626207 0.0027594755 -0.30352357 -0.16786428
0001e0 e8 96 7e be 06 00 a0 bd 03 68 4a 3d 15 cd e4 bd
       -0.24862254 -0.078125045 0.0494156 -0.11171929
0001f0 cb af 33 3e 35 c6 29 be 0c 98 9b 3e b8 ba 88 be
       0.17547528 -0.16579516 0.3038944 -0.26704955
000200 f4 07 80 be a7 7b 6c bc 3d 85 70 3e 96 ac b8 bd
       -0.25006068 -0.014433778 0.23488326 -0.09017293
000210 84 81 56 be 0a 1c 62 3e ad 92 48 3e 36 4b d0 bd
       -0.20947844 0.22081009 0.19587202 -0.10170595
000220 d8 ac 84 be b6 1f c4 3d da 66 32 3d b5 d2 4a 3e
       -0.2591312 0.09576361 0.04355512 0.19806941
000230 22 ce 79 be a3 cd c1 bd 10 00 97 3e e4 2e 51 3e
       -0.2439504 -0.0946305 0.29492235 0.20428044
000240 54 d9 cd bd 64 a4 d6 bd 63 a0 68 3e 50 aa 0b 3e
       -0.10051218 -0.10480574 0.22717433 0.13639188
000250 7a af 63 be 4e 7a 20 3e 31 d9 0c bd 99 b8 92 3e
       -0.22234908 0.15671656 -0.034386817 0.28656462
000260 f2 d5 69 be 07 e4 1a be 4b 8f 91 3e b0 54 d8 bd
       -0.2283552 -0.15126048 0.28429636 -0.10563028
000270 b8 6a 9b be d1 d4 23 3e 91 de b9 bc ed 44 06 3e
       -0.30354857 0.15999152 -0.022689136 0.1311223
000280 35 87 71 bd 95 fa 6f 3e 95 35 ad bc 89 12 e2 bc
       -0.058966834 0.23435433 -0.021143714 -0.027596729
000290 30 7d 51 3e 52 8c aa bb b0 61 91 be 7d 3e 89 3d
       0.20457911 -0.0052047158 -0.28394842 0.06701372
0002a0 df 75 00 3e f3 9e 17 be 55 72 14 be d7 19 8a 3e
       0.12544964 -0.14806728 -0.14496739 0.2697284
0002b0 45 b6 15 be 7a c6 96 3d 46 d5 ff 3d f2 f0 21 3e
       -0.14620312 0.07362075 0.124918506 0.1581457
0002c0 2c f1 00 bc 2c 3f df 3d b4 42 97 3e 9d 55 8c bd
       -0.00787 0.10900721 0.29543078 -0.06852267
0002d0 25 71 93 bd 97 11 88 3e a7 03 04 3e 25 84 95 3e
       -0.07199315 0.2657592 0.12892018 0.2920238
0002e0 c7 7c 86 be 9d 9c e6 bd 4d ff 83 be 8a 0a d3 bd
       -0.26267073 -0.1126034 -0.25780717 -0.103047445
0002f0 74 7b 85 3e ca 58 9f bd fd 7b fc bd e1 77 eb bd
       0.2607075 -0.07780607 -0.123283364 -0.114974745
000300 c7 ac 2f 3e 02 ac 69 be ec 7e 52 be 62 ed 91 be
       0.17155753 -0.22819522 -0.2055623 -0.2850142
000310 7d 6e 98 3e d5 f9 1e be 9a 94 3a be a1 9b 79 3e
       0.29771796 -0.15524991 -0.1822075 0.24375774
000320 37 cc 85 3e bd 0f 5a 3e 1f ae 9b be 74 34 45 3e
       0.26132366 0.21295066 -0.3040628 0.1925829
000330 77 d5 68 3e 87 8e 39 be a4 a1 7f 3c d4 32 75 3e
       0.2273768 -0.18120776 0.015602503 0.2394517
000340 8f 69 12 3d 1b 88 a0 3d a9 d2 e0 bd 11 31 92 be
       0.0357452 0.0783846 -0.1097768 -0.2855306
000350 0b be be 3d 9b d1 90 3e d0 be 56 3e ba 7a c8 3b
       0.093135916 0.28284916 0.20971227 0.006118146
000360 32 e2 2e 3e 9c 5e c2 3d 3c 08 28 3c 08 f4 59 3e
       0.17078474 0.094907016 0.0102558695 0.21284497
000370 35 b4 98 3e f9 a5 df bd 15 9c 35 bd 8a 2c f1 3c
       0.29824987 -0.10920329 -0.044338305 0.029440183
000380 7a 05 e7 3d 23 3e f9 3d 35 52 50 be de cb 87 bd
       0.112803414 0.12170055 -0.2034386 -0.066306815
000390 0e 01 61 3d c7 37 92 3e 0c 93 16 bd e1 fc 9b be
       0.054932646 0.2855818 -0.03676133 -0.3046637
0003a0 c9 2a 0a 3e 16 c7 54 be 4c 50 84 3e 63 8e 28 3e
       0.13492884 -0.2077907 0.25842512 0.16460566
0003b0 bd b5 55 bd 90 b8 e1 bb 13 7b d2 3d 2d 3b 0c 3e
       -0.052175272 -0.0068884566 0.10277381 0.13694449
0003c0 fc 0d 36 3e 9c 6e 92 bd b3 57 80 be 27 f6 88 bd
       0.17778772 -0.07150003 -0.2506691 -0.06687575
0003d0 a2 73 12 be 4d 7d 94 be 66 79 1f be c3 37 3d be
       -0.14301923 -0.29001847 -0.15573654 -0.18478303
0003e0 1a fe 92 be fc 1e 5f bd e5 07 b7 3c 31 08 41 3e
       -0.2870949 -0.05447291 0.022342632 0.18850781
0003f0 c1 b7 32 3e 0e 86 c6 bd 81 b3 c6 3d 98 60 dc 3d
       0.17452909 -0.09693538 0.097022064 0.10760611

fc.weight f4 [1, 32]
000000 97 b5 18 3d f6 97 96 bd 49 5c b4 3d 8a 67 2a 3e
       0.037282553 -0.07353203 0.088066645 0.1664106
000010 c4 c9 b1 bd 67 82 9f bd af 9b d1 3d fe c7 ad 3d
       -0.08681062 -0.07788544 0.102347724 0.08485411
000020 26 de 13 3e 5e aa 02 3e 20 4e 2b be cd 10 07 3e
       0.14440212 0.12760302 -0.16729021 0.13190003
000030 89 fd 96 3c 9d 94 36 bc ca 1e de 3d 8c b7 02 be
       0.018431442 -0.011143831 0.10845716 -0.1276533
000040 13 40 59 bd ac 8a ae 3d 92 18 94 bd 79 65 9b 3d
       -0.05303962 0.08522543 -0.07231249 0.07587714
000050 40 a5 6d 3d c9 76 0e 3d c6 ae a4 3d fc 75 28 be
       0.058018923 0.03478125 0.08041148 -0.16451257
000060 da 41 0b 3e 1e 21 00 bd c1 d2 d7 bc 79 18 c0 bd
       0.13599339 -0.031281583 -0.026345612 -0.09379668
000070 b7 bc 64 bc 63 02 5f 3c 69 40 5f bd 89 7a e8 bd
       -0.013961009 0.013611409 -0.054504786 -0.11351497
