atropos/trained_model/onehot/no_answer/10/best_acc.pt (torch, 13714 bytes, 5 tensors)

conv1.bias f4 [32]
0	0xbd808595	-0.06275479
1	0xbd65eb3c	-0.05613254
2	0x3ab12df1	0.001351772
3	0xbd2799fc	-0.040918335
4	0xbc84c381	-0.016206505
5	0xbd250e6e	-0.040296964
6	0xbb3ab67f	-0.0028490124
7	0xbbced477	-0.006311949
8	0xbd770279	-0.060305092
9	0xbcdadae2	-0.0267157
10	0xbd864b42	-0.06557323
11	0xbd412138	-0.04715082
12	0xbd0368f8	-0.032082528
13	0xbce7decf	-0.028304486
14	0xbcfbbf14	-0.030730762
15	0xbd4ab25d	-0.049486507
16	0xbd846741	-0.064650066
17	0xbdae64c1	-0.08515311
18	0xbd76ca90	-0.060251772
19	0xbda71527	-0.08158331
20	0xbd8047bc	-0.06263682
21	0xbccb2a7f	-0.024800537
22	0xbd3829b5	-0.04496165
23	0xbd772d25	-0.060345788
24	0xbcc64969	-0.024204927
25	0xbd256513	-0.040379595
26	0xbbdc3505	-0.0067201876
27	0xbcf38a0c	-0.029728912
28	0xbc9e4468	-0.019319728
29	0xbd4fab2b	-0.050700348
30	0xbc890dd6	-0.01673023
31	0xbd32b0d8	-0.043625683

conv1.lin.weight f4 [32, 48]
0	0xbd37d5e9	-0.044881735
1	0x3e0bfc21	0.13670398
2	0x3eb2cee3	0.34923467
3	0xbe61baf4	-0.22043973
4	0xbe38629b	-0.18006365
5	0xbd1bed30	-0.038067997
6	0xbd0b726a	-0.03404466
7	0xbcebd76b	-0.028789243
8	0xbe492845	-0.19644268
9	0xbeaf5656	-0.34245557
10	0xbd943495	-0.07236592
11	0x3dab1483	0.08353522
12	0x3bdb58ae	0.006693921
13	0xbd99bf44	-0.07507184
14	0xbed12d1e	-0.40854734
15	0x3de092fe	0.109655365
16	0x3d7c042c	0.061527416
17	0xbeb17a6c	-0.34663713
18	0x3e4556ca	0.19271389
19	0xbd1e44cc	-0.03863983
20	0x3dfa3763	0.122175954
21	0x3decb74e	0.115584
22	0xbe6062e3	-0.21912722
23	0xbde1bab4	-0.11021939
24	0x3ea6fccb	0.3261474
25	0xbd558276	-0.05212637
26	0xbdba9494	-0.0911037
27	0x3eea1dd6	0.45725888
28	0xbdd5de38	-0.104427755
29	0x3e3f59d7	0.18686615
30	0x3ddf36eb	0.10899147
31	0xbe860035	-0.26172033
32	0x3e37941b	0.17927592
33	0xbe45982a	-0.19296327
34	0xbe837878	-0.25677848
35	0x3e5c5674	0.21517354
36	0xbe5cb231	-0.2155235
37	0xbea8c4fa	-0.3296278
38	0x3e80528f	0.25062987
39	0xbe462583	-0.19350247
40	0xbbc08e9c	-0.0058763754
41	0xbde03a07	-0.10948568
42	0xbe61c044	-0.22046
43	0xbd3d6cae	-0.046246223
44	0x3e2eb6fc	0.1706199
45	0x3d8866bc	0.0666022
46	0x3cb5725e	0.022149261
47	0xbe02b93c	-0.12765974
48	0xbe91f2bf	-0.28505513
49	0x3e0aae5e	0.13543078
50	0x3e6096e7	0.21932565
51	0x3e659778	0.22421062
52	0xbe9d5dda	-0.30735666
53	0xbddefbb8	-0.10887855
54	0x3d2cd771	0.04219765
55	0x3de04fed	0.10952745
56	0x3ee94b79	0.45565394
57	0xbe3a274f	-0.18179058
58	0xbe55d938	-0.20883644
59	0x3e1be2d7	0.15223251
60	0x3e3468ab	0.17618053
61	0xbe4f5a35	-0.20249255
62	0x3d16f1c2	0.036851652
63	0xbd094519	-0.033513162
64	0xbdb49248	-0.088169634
65	0x3e212215	0.15735658
66	0xbe18270d	-0.14858647
67	0xbbbac87a	-0.005700168
68	0x3e43e8b0	0.19131732
69	0x3e72809a	0.2368187
70	0x3e452779	0.19253339
71	0xbe7b35a3	-0.2453218
72	0x3eddf083	0.43347558
73	0x3f546ce1	0.82978636
74	0xbc8fb7db	-0.017543724
75	0xbd800a36	-0.062519476
76	0xbc82b419	-0.015955018
77	0x3dc41655	0.09574572
78	0x3dc8e3b8	0.09809059
79	0x3d67c6a9	0.05658594
80	0x3d322afd	0.043498028
81	0xbeaca44d	-0.33719102
82	0xbe5c8843	-0.21536355
83	0xbd61b2fa	-0.055102326
84	0xbe8d72dc	-0.27626693
85	0xbd9c8501	-0.07642556
86	0xbe9ddd63	-0.30832967
87	0x3e61a2e5	0.22034796
88	0xbdcfc7f9	-0.10145564
89	0xbcd09af4	-0.025464512
90	0xbdad687b	-0.08467194
91	0x3da2379a	0.079207614
92	0xbcc00fe3	-0.023445075
93	0xbe65e035	-0.2244881
94	0x3dd4bea6	0.10387926
95	0xbda1b4c5	-0.07895807
96	0x3d99a6e2	0.075025335
97	0x3e50e154	0.20398456
98	0x3d9abadd	0.075551726
99	0xbe33ff76	-0.1757792
100	0x3e10455b	0.14088957
101	0x3de16479	0.11005492
102	0x3e841262	0.25795275
103	0xbe637fac	-0.22216672
104	0xbcf1a2d2	-0.029496584
105	0xbde36f07	-0.11105161
106	0x3ea20939	0.3164766
107	0x3e1c84d9	0.15285052
108	0x3ce28de8	0.027655557
109	0x3c668795	0.014070411
110	0xbe8adb7c	-0.27120578
111	0xbeadb60f	-0.33927962
112	0xbe44bf0a	-0.192135
113	0x3dedcc44	0.11611226
114	0xbdab0849	-0.0835119
115	0xbe9b9b93	-0.3039213
116	0x3e4834a9	0.19551338
117	0xbd8b9248	-0.0681501
118	0x3e524c6b	0.20536964
119	0xbe3be6a0	-0.18349695
120	0xbed602a9	-0.41798905
121	0xbf2030ff	-0.6257476
122	0xbedb9b7b	-0.4289206
123	0xbedb1364	-0.4278823
124	0x3e1a4fd8	0.1506952
125	0xbde805db	-0.11329242
126	0x3e5d11c8	0.21588814
127	0x3df5c41e	0.12000297
128	0x3ea74a89	0.32674053
129	0xbe611fc8	-0.2198478
130	0xbeabe303	-0.33571634
131	0x3c44bd07	0.012007958
132	0x3cb066d0	0.0215334
133	0xbc436984	-0.011927012
134	0x3c95c438	0.018282041
135	0x3e114cf8	0.14189517
136	0x3e1227cb	0.14272992
137	0x3eb2db3e	0.34932894
138	0x3e4472f4	0.19184476
139	0x3e3ea6dc	0.1861834
140	0xbdc35e60	-0.09539485
141	0x3cf82a8a	0.030293722
142	0xbb572020	-0.0032825544
143	0x3e82d65e	0.25554174
144	0x3e585f4c	0.21130103
145	0xbd616490	-0.055027544
146	0xbe17234e	-0.14759561
147	0xbbd02f7b	-0.0063533164
148	0xbe8aa320	-0.2707758
149	0xbdaf2520	-0.08552003
150	0x3df733c6	0.12070422
151	0x3e923db3	0.28562698
152	0x3da2768f	0.079327695
153	0x3df3d93d	0.11906669
154	0xbd3bb090	-0.04582268
155	0x3e32396a	0.17404714
156	0xbd93d5f9	-0.072185464
157	0x3e57b9f0	0.21067023
158	0xbe31d350	-0.17365766
159	0xbdcfe0ba	-0.10150285
160	0x3e054e46	0.1301814
161	0xbf016a3b	-0.5055272
162	0xbccfb12a	-0.025353033
163	0x3ead28f6	0.33820313
164	0x3e362dc9	0.17790903
165	0xbe32ef17	-0.17474018
166	0x3e791b58	0.24326837
167	0xbdb307fc	-0.08741757
168	0xbe529925	-0.20566233
169	0xbe8a89fa	-0.27058393
170	0x3ecef889	0.40423992
171	0x3d12a61a	0.035802938
172	0x3e0e5325	0.13898905
173	0x3e1224bc	0.14271826
174	0x3e27ff72	0.16406038
175	0x3e5eeff5	0.21771224
176	0x3d5f6569	0.05454007
177	0xbe0e55f4	-0.13899976
178	0x3e98ce72	0.29845005
179	0x3e4798e7	0.19491921
180	0x3e36a60b	0.17836778
181	0x3e4ec36b	0.20191734
182	0x3d9f01f3	0.07764044
183	0xbe28651a	-0.16444817
184	0xbe822337	-0.25417492
185	0xbdd68734	-0.10475007
186	0xbe5d9180	-0.21637535
187	0x3ed06ea6	0.40709418
188	0x3e827e59	0.2548702
189	0x3e9fec80	0.31235123
190	0x3cecfc9a	0.028929044
191	0xbd91d9b8	-0.07121605
192	0xbd32da70	-0.04366535
193	0x3e810994	0.2520262
194	0xbe64386e	-0.22287151
195	0xbea7e664	-0.32792962
196	0x3e372917	0.17886768
197	0xbe4dfce6	-0.20116004
198	0x3de3350d	0.11094103
199	0x3de26b70	0.11055648
200	0xbe47e1d2	-0.19519737
201	0x3e144a7b	0.14481537
202	0x3da00051	0.0781256
203	0xbe2b5fb1	-0.16735722
204	0x3ec65824	0.3873912
205	0x3dc7845e	0.09742044
206	0xbd8bf084	-0.06832984
207	0xbe4bc571	-0.19899537
208	0x3e39d5a0	0.18147898
209	0xbdf44fb1	-0.119292624
210	0xbc092be2	-0.008372279
211	0x3d633c13	0.055477213
212	0x3dc1a07e	0.094544396
213	0x3e08b982	0.13352016
214	0xbeb80e7e	-0.35948557
215	0xbd5c7471	-0.053821985
216	0xbe8b3017	-0.27185127
217	0xbec34b83	-0.38143548
218	0xbf091bae	-0.5355786
219	0xbe62cf41	-0.22149374
220	0x3e51dcec	0.20494431
221	0xbeec2dbf	-0.46128651
222	0xbe537fcb	-0.20654218
223	0x3e664637	0.22487722
224	0x3e5b8936	0.2143906
225	0x3de6a6f8	0.112623155
226	0xbe81a776	-0.25323075
227	0xbe1d73bb	-0.15376179
228	0x3c4a7cf1	0.01235889
229	0x3e9209e9	0.28523186
230	0x3d245ee5	0.04012956
231	0xbdab4f75	-0.083647646
232	0x3eba0742	0.36333662
233	0x3e7db5b6	0.24776348
234	0x3dde53d9	0.108558364
235	0x3eaf9e57	0.3430049
236	0xbd8cef65	-0.068815984
237	0x3dccfd66	0.100092694
238	0x3c35b78e	0.011091126
239	0xbd2256dd	-0.03963362
240	0x3d45cc78	0.0482907
241	0xbe2dc3ac	-0.16969174
242	0xbe678d5a	-0.22612515
243	0x3c794850	0.015214995
244	0xbd5ab2e5	-0.053393263
245	0x3e0c92cc	0.13727874
246	0xbc8db7d7	-0.017299576
247	0x3e43e6eb	0.19131057
248	0xbe7740c7	-0.24145804
249	0x3d11da38	0.0356085
250	0x3caa9e67	0.020827485
251	0x3e654211	0.22388484
252	0x3e87608e	0.26440853
253	0x3d0f95c7	0.03505495
254	0x3e1300f3	0.14355831
255	0xbe8a2e4d	-0.2698845

conv_out.bias f4 [32]
0	0xbd876de8	-0.0661276
1	0x3d925432	0.07144965
2	0xbd89aa30	-0.06721914
3	0xbda96ca1	-0.082726724
4	0x3d8e14bf	0.06937551
5	0x3d7753d9	0.060382698
6	0x3d9a51bb	0.0753512
7	0x3d845a40	0.06462526
8	0xbd776e07	-0.060407665
9	0xbd945bc1	-0.07244063
10	0xbd82fdbd	-0.06396053
11	0xbd87213b	-0.06598135
12	0xbd30ad80	-0.043134212
13	0x3d8bdf29	0.06829674
14	0xbd62546d	-0.055256296
15	0x3d81132d	0.063024856
16	0xbd82b788	-0.06382662
17	0x3d85187f	0.06498813
18	0x3d686cef	0.056744512
19	0x3d7a100a	0.061050452
20	0x3d81b113	0.06332602
21	0x3d9d1f24	0.07671955
22	0xbdae6599	-0.08515472
23	0xbda3ee50	-0.08004439
24	0x3d876e11	0.066127904
25	0x3d89c732	0.067274466
26	0xbd9a70a2	-0.07541014
27	0xbd94d998	-0.07268065
28	0x3df19ce2	0.11797501
29	0x3d45ad8a	0.048261203
30	0xbda4bf45	-0.08044294
31	0x3d698bf9	0.057018254

conv_out.lin.weight f4 [32, 32]
0	0xbca58707	-0.020205988
1	0xbe5b3ede	-0.214107
2	0x3e8ae003	0.27124032
3	0x3de53059	0.11190862
4	0xbe34154c	-0.17586249
5	0xbdd1b696	-0.10239904
6	0xbdbdd35e	-0.09268831
7	0x3ec47091	0.3836713
8	0x3dbc7033	0.09201088
9	0x3e2b329e	0.16718528
10	0x3e202a44	0.15641123
11	0x3b9d1ed5	0.004794935
12	0xbe943609	-0.28947476
13	0x3eb0d38a	0.34536391
14	0xbe2054ea	-0.15657392
15	0xbe336ce8	-0.17522013
16	0xbdfc2e90	-0.123135686
17	0x3da0e72c	0.078565925
18	0xbe4e334e	-0.20136759
19	0x3e8ace18	0.27110362
20	0xbe96d476	-0.2945897
21	0xbe86d5f1	-0.263351
22	0x3e7f84f9	0.24953069
23	0xbe148a99	-0.14505996
24	0xbd57df06	-0.052702926
25	0x3da2c040	0.07946825
26	0xbe99ee66	-0.30064696
27	0x3dd07a64	0.10179594
28	0x3dc724ab	0.09723791
29	0x3d7b32c5	0.061327714
30	0xbe80abf5	-0.25131193
31	0x3d84d751	0.06486381
32	0x3eb73a20	0.35786533
33	0x3eb6c191	0.35694554
34	0x3d99ce99	0.075101085
35	0xbe9c9b36	-0.30587167
36	0xbe54e817	-0.2079166
37	0x3dc852d1	0.09781421
38	0xbe7955f7	-0.24349199
39	0xbed984ae	-0.4248404
40	0xbe99e173	-0.30054817
41	0xbe91a035	-0.2844254
42	0xbe76b862	-0.24093774
43	0x3dde39af	0.10850846
44	0x3dea3177	0.11435216
45	0xbec40866	-0.38287657
46	0xbd5ba857	-0.05362734
47	0xbe31979f	-0.17342995
48	0xbe264fb3	-0.1624134
49	0xbe8775d3	-0.2645708
50	0x3e853293	0.26015148
51	0xbe554a12	-0.20829037
52	0x3e68039a	0.22657624
53	0x3efa963d	0.48942748
54	0xbea3b41d	-0.31973353
55	0xbdbad771	-0.091231234
56	0xbc89db18	-0.016828105
57	0x3dbf3a2c	0.09337267
58	0x3eba975b	0.364436
59	0xbce1fb40	-0.027585626
60	0x3d2a3646	0.041555665
61	0xbedc6296	-0.43043965
62	0x3dfe23fd	0.12409208
63	0x3d340b2a	0.04395596
64	0x3c5d3fa3	0.013503942
65	0xbcfc227f	-0.030778168
66	0xbdb2af91	-0.08724893
67	0x3eb9abb2	0.36263806
68	0xbe57f2c9	-0.21088709
69	0xbd7be54b	-0.061497968
70	0x3d0e9885	0.034813423
71	0x3e2c9a3b	0.16855709
72	0xbd705415	-0.058673937
73	0x3ebd3ffa	0.36962873
74	0x3cfb5052	0.030677948
75	0x3e250d0a	0.16118255
76	0x3e336613	0.17519407
77	0xbc7ce39d	-0.015435127
78	0x3e210001	0.15722658
79	0x3e8e4be5	0.27792278
80	0x3e8590fa	0.2608717
81	0x3f134919	0.57533413
82	0xbeab6e72	-0.334827
83	0xbda19d25	-0.07891301
84	0xbcff0e41	-0.031134726
85	0xbec6a6e9	-0.38799217
86	0xbde46d62	-0.111536756
87	0xbe7ea551	-0.2486775
88	0x3ea4364f	0.32072684
89	0x3ea939d9	0.33051947
90	0xbdee394d	-0.11632023
91	0x3cb2c4df	0.021822391
92	0x3efdc9dc	0.4956807
93	0x3e8b4800	0.2720337
94	0xbeafcd76	-0.34336442
95	0x3e7c009f	0.24609612
96	0xbe0c04a8	-0.13673651
97	0x3c15caa5	0.0091425525
98	0xbe042b5f	-0.1290717
99	0xbe285977	-0.16440378
100	0x3d509099	0.05091915
101	0x3df514ae	0.11966835
102	0xbe5a45fb	-0.21315758
103	0x3ea161e6	0.31520003
104	0x3ee3ee3f	0.44517705
105	0xbd7185a9	-0.05896536
106	0x3e934962	0.28766924
107	0xbe35412f	-0.17700647
108	0x3e149c17	0.14512669
109	0x3e648836	0.22317585
110	0x3d7aafc4	0.06120278
111	0x3d239b73	0.03994317
112	0x3e85a392	0.26101357
113	0x3e699d4c	0.2281391
114	0xbe7a924a	-0.24469867
115	0x3e80a5dc	0.2512654
116	0xbd2eb9a2	-0.042657502
117	0xbeaa67cb	-0.33282313
118	0x3e813173	0.2523304
119	0x3d0a4a88	0.033762485
120	0x3ec9d521	0.39420417
121	0x3da1fd88	0.079096854
122	0xbda96ad2	-0.082723275
123	0x3d4a58f4	0.04940124
124	0x3e138e67	0.14409791
125	0x3e7ea20a	0.248665
126	0xbd961773	-0.07328691
127	0xbd042d06	-0.0322695
128	0x3e81ffaa	0.2539037
129	0x3eba2340	0.3635502
130	0x3e67013c	0.22559065
131	0x3e5b991e	0.21445128
132	0x3e4776f4	0.19478971
133	0x3d603d6f	0.054746088
134	0x3d9857f7	0.07438653
135	0xbc5163a9	-0.0127801085
136	0xbd9ac875	-0.075577654
137	0xbc7b8af9	-0.015352958
138	0xbda15217	-0.078769855
139	0xbe78684a	-0.24258533
140	0x3ba8ae6a	0.005147745
141	0xbe707d9f	-0.2348542
142	0x3eb84e5f	0.35997292
143	0x3e25776c	0.16158837
144	0xbd88e189	-0.066836424
145	0xbdea71ac	-0.114474624
146	0x3eda6098	0.4265182
147	0xbed3c300	-0.4135971
148	0x3db7931e	0.08963607
149	0x3ee62d04	0.4495622
150	0x3cbf784d	0.023372794
151	0xbe7622fb	-0.24036781
152	0xbd79f180	-0.061021328
153	0xbe961fcb	-0.2932113
154	0x3dafd84c	0.08586177
155	0xbe960751	-0.29302457
156	0xbea57a91	-0.32320073
157	0xbebb97df	-0.36639306
158	0x3ec57420	0.3856516
159	0xbec6455d	-0.38724795
160	0x3e69af81	0.22820856
161	0x3e95398e	0.29145473
162	0x3da53dc7	0.08068424
163	0x3e3e9a4f	0.18613552
164	0x3e0986db	0.1343035
165	0x3def1496	0.11673848
166	0xbe0a8ffb	-0.13531487
167	0xbec83043	-0.3909932
168	0xbee59d5a	-0.44846612
169	0x3d82769e	0.06370281
170	0xbe0b519a	-0.13605347
171	0xbe1717a8	-0.14755118
172	0xbac3be3b	-0.0014934012
173	0xbee492a7	-0.44643137
174	0x3e329b14	0.1744197
175	0xbece0800	-0.4024048
176	0xbdaa8fd4	-0.08328214
177	0xba97d9c7	-0.0011585288
178	0xbc89703f	-0.016777156
179	0xbe5f1fc4	-0.21789461
180	0x3d136c67	0.035992052
181	0x3e22706e	0.15863201
182	0xbe5a8ae2	-0.21342042
183	0x3e0c80df	0.13721035
184	0x3daf3045	0.085541286
185	0xbe8a5b52	-0.27022797
186	0xbd87d089	-0.06631572
187	0xbea3f393	-0.3202177
188	0xbe701481	-0.23445322
189	0x3cdf7d65	0.027281472
190	0xbdd7d03e	-0.10537766
191	0x3e213d71	0.15746094
192	0x3e64aad1	0.22330786
193	0x3eab2b7b	0.3343161
194	0x3e2cb593	0.1686614
195	0xbda97d63	-0.08275869
196	0x3c098fe7	0.008396125
197	0xbdd10514	-0.10206047
198	0x3ba2d30b	0.004969006
199	0xbea2381f	-0.31683442
200	0x3d05097f	0.03247976
201	0xbeb41c80	-0.35177994
202	0x3dcaaee2	0.098966375
203	0xbe20e770	-0.15713286
204	0x3ea25ae2	0.31709963
205	0xbdfbb166	-0.122896954
206	0x3ea92580	0.33036423
207	0xbd97ff55	-0.074217476
208	0x3e670883	0.2256184
209	0xbf0f6a84	-0.56021905
210	0x3dd4d85a	0.10392828
211	0xbe49ad48	-0.19695008
212	0xbe120b21	-0.14262058
213	0x3d4629c1	0.048379663
214	0x3c9d1a17	0.01917748
215	0xbe1c97f8	-0.15292346
216	0xbe278a55	-0.16361363
217	0x3d89017f	0.066897385
218	0x3efed3f3	0.4977108
219	0x3d0e2997	0.034707632
220	0xbef9d158	-0.4879253
221	0xbe23bac5	-0.15989216
222	0x3e24e9b1	0.16104771
223	0xbd1d4bf5	-0.038402516
224	0x3ed2f05a	0.41199
225	0x3ec7e473	0.3904148
226	0xbe5a843d	-0.21339507
227	0xbe63a92c	-0.22232503
228	0xbda7c32f	-0.08191525
229	0xbe0540c1	-0.13012983
230	0xbc73767f	-0.014859795
231	0x3db0c668	0.08631593
232	0xbeead079	-0.45862177
233	0xbe3d82b5	-0.18506892
234	0xbe806c6c	-0.2508272
235	0x3e9936aa	0.29924518
236	0xbdfe6654	-0.12421861
237	0xbe9df701	-0.30852512
238	0xbe4f89a3	-0.20267348
239	0xbec08ffd	-0.37609854
240	0x3d734cc0	0.059399366
241	0xbe0b914b	-0.13629644
242	0xbdf97246	-0.12179999
243	0xbeec8757	-0.46197006
244	0x3dd83587	0.105570845
245	0x3e15818c	0.146002
246	0xbe94aa57	-0.2903621
247	0xbe9ff1c2	-0.31239134
248	0xbe5438ae	-0.20724747
249	0xbe8f1e5f	-0.2795286
250	0x3e94a01a	0.29028398
251	0xbcbcc102	-0.023041252
252	0xbd68a316	-0.056796156
253	0xbdaeb56d	-0.08530698
254	0x3e88787e	0.26654428
255	0xbe16bb5b	-0.14719908

fc.weight f4 [1, 32]
0	0x3ea7a1a6	0.32740515
1	0xbe9b985d	-0.3038968
2	0x3e623cf1	0.2209356
3	0x3e239f7e	0.1597881
4	0xbe9014a9	-0.28140762
5	0xbe336cf9	-0.17522039
6	0xbe800db8	-0.25010467
7	0xbe99861e	-0.29985136
8	0x3e780d3a	0.24223796
9	0x3e407418	0.18794286
10	0x3e9e1a50	0.3087945
11	0x3ecbb4f9	0.3978651
12	0x3db3eea4	0.087857515
13	0xbedefc79	-0.43551996
14	0x3e104a61	0.14090873
15	0xbe8355a8	-0.25651288
16	0x3e8ed12d	0.27893963
17	0xbeb20cee	-0.3477549
18	0xbe6e0a00	-0.23246002
19	0xbe84eca8	-0.25961804
20	0xbea53434	-0.3226639
21	0xbe7af65f	-0.24508046
22	0x3e24b55d	0.1608481
23	0x3e4264b4	0.18983728
24	0xbe865f71	-0.2624469
25	0xbe5c2464	-0.21498257
26	0x3e10d577	0.1414393
27	0x3e2d92d9	0.16950549
28	0xbe63cb58	-0.22245538
29	0xbc707cd7	-0.014678202
30	0x3eb039c3	0.3441907
31	0xbe44fe15	-0.1923755
