atropos/trained_model/nhot/no_answer/add/4/best_acc.pt (torch, 16402 bytes, 5 tensors)

conv1.bias f4 [32]
0.12170865 -0.074147366 0.05912373 0.053114682 0.0057007736 -0.01297896 0.030894807 0.05688753
0.0081761805 0.03898228 -0.054182537 -0.19553888 -0.006492628 0.14249448 -0.04248839 -0.029877432
-0.15836838 -0.18257676 -0.10716947 -0.0009822816 -0.14715125 0.04760493 -0.22688608 0.044824988
-0.14563903 0.045129135 0.014908258 -0.19906652 0.18721113 0.041594863 -0.029468616 -0.18722114
00000000: 6242 f93d 93da 97bd b92b 723d c88e 593d
00000010: 8ecd ba3b b4a5 54bc 1b17 fd3c e602 693d
00000020: 63f5 053c e2ab 1f3d 82ee 5dbd 583b 48be
00000030: 1cc0 d4bb 13ea 113e 4e08 2ebd 84c1 f4bc
00000040: 522b 22be 67f5 3abe ab7b dbbd e7bf 80ba
00000050: d1ae 16be 63fd 423d d354 68be 689a 373d
00000060: 6622 15be 54d9 383d c441 743c 18d8 4bbe
00000070: 46b4 3f3e 605f 2a3d 2b68 f1bc e6b6 3fbe

conv1.lin.weight f4 [32, 69]
-0.16679159 -0.16963525 0.13997799 -0.0862519 -0.2616936 0.062146045 -0.087944634 -0.119942024
-0.38086793 0.030239528 0.24542086 -0.1684731 0.16453128 -0.04831597 -0.06928381 -0.38642916
-0.0071428297 -0.041854896 -0.2688177 -0.13386272 0.13031363 -0.3810687 -0.55190754 -0.32287428
0.21743362 -0.44382083 -0.24303393 0.3277777 0.19472225 0.34836134 0.3733298 0.12644972
-0.4873441 -0.008220695 0.41715857 0.042221714 -0.07657803 -0.19867626 -0.04725484 -0.4459083
-0.040236898 0.05877597 -0.10844769 0.38933608 0.17225027 0.6397777 -0.012117068 0.23085663
0.23186792 0.676405 0.51275295 0.25774595 0.30410042 0.076929055 0.15174145 0.11309945
0.4621574 0.16787359 0.40566534 0.36049494 0.0019236364 0.11407993 0.06134308 0.029436933
0.51242185 0.10816372 0.11247113 0.038281675 0.31542543 0.18221362 0.07287807 0.24354841
-0.00022687305 -0.040554665 0.013493555 0.057343006 -0.32637617 0.22959527 0.073172584 -0.025520343
-0.17953466 -0.015097361 -0.19568072 -0.30523387 -0.10556669 0.18622917 -0.0041163224 -0.08158299
-0.20157154 0.18707205 0.072570734 0.1249149 0.110346876 0.09535783 -0.028006133 0.12392981
0.21483277 0.03473255 0.17990157 0.098059915 0.061333194 0.25374967 -0.029732756 0.12595542
0.31585506 0.24376123 0.45957884 -0.041492935 0.44544342 0.23157808 0.057893503 0.08528525
-0.083716035 -0.35264638 -0.2992955 -0.26482192 -0.26106167 -0.06939357 -0.15178752 -0.4630185
-0.4658996 -0.09672732 0.00023947781 -0.3059011 -0.2646465 0.14698802 -0.100836225 0.029566126
-0.16850959 0.114164785 -0.22063322 0.050151862 -0.16041902 -0.2438646 0.067875065 -0.050393645
-0.22382478 0.13761939 0.018706668 0.13657327 -0.17756052 0.06267827 0.11568341 -0.013462754
-0.12618294 0.21107884 -0.3174136 -0.17563054 -0.19759516 0.25832763 0.051305927 -0.26235563
-0.05208076 -0.19956872 -0.032023758 0.013223999 0.046494193 0.06102137 0.029928483 -0.1362286
-0.23356324 -0.076164685 0.0057198084 -0.22414146 -0.11483548 0.12790982 -0.103903025 -0.056219373
0.56433487 -0.17184387 0.25551113 0.35638395 -0.25620753 -0.24979156 0.12928577 -0.32809314
-0.050184492 -0.16709425 0.26658916 0.16503815 0.08713688 0.4264768 0.3287346 0.4746159
0.42718926 0.29655492 0.34509727 0.43996906 0.13786858 0.34680688 0.45279932 0.05941675
0.10217132 0.11966904 0.057284698 0.04538132 0.17066756 0.4100825 0.17747012 0.16476424
0.017839089 0.23734726 0.43622229 0.22886927 0.35325262 0.19034922 0.33526033 -0.088041656
0.23471381 -0.12464044 -0.26418364 -0.30648357 -0.008690259 -0.014660136 0.23383698 -0.116903886
-0.26704127 -0.2897443 0.26231915 -0.14956225 0.15516858 -0.04325509 -0.16832313 0.15564612
0.108462155 -0.22316824 0.13150474 0.3397453 -0.316158 0.04729473 -0.23903154 -0.18621603
-0.43586355 -0.098949805 -0.31390703 -0.25949466 0.245887 -0.14772332 0.10371482 -0.1998343
0.15330403 0.23169422 -0.06412367 0.31272507 -0.23481405 -0.02351901 0.055194862 -0.14456628
-0.016287286 0.003183122 -0.08189504 -0.18204899 -0.0829792 -0.027273783 0.1722075 0.26022837
00000000: 6acb 2abe ddb4 2dbe 6456 0f3e d6a4 b0bd
00000010: b4fc 85be da8c 7e3d 511c b4bd 2aa4 f5bd
00000020: 1f01 c3be e3b8 f73c 9b4f 7b3e 3684 2cbe
00000030: e37a 283e f7e6 45bd ace4 8dbd 0bda c5be
00000040: 660e eabb 0a70 2bbd 79a2 89be 4f13 09be
00000050: f070 053e 701b c3be d049 0dbf c74f a5be
00000060: eba6 5e3e 7c3c e3be e3dd 78be 7bd2 a73e
00000070: 4565 473e 6b5c b23e 1525 bf3e 097c 013e
00000080: 2a85 f9be 18b0 06bc cf95 d53e adf0 2c3d
00000090: f1d4 9cbd ca71 4bbe 4b8e 41bd 184e e4be
000000a0: 72cf 24bd 12bf 703d d319 debd 0f57 c73e
000000b0: 6062 303e 79c8 233f ab86 46bc ae65 6c3e
000000c0: c96e 6d3e e128 2d3f c743 033f 47f7 833e
000000d0: 0db3 9b3e fb8c 9d3d 1c62 1b3e afa0 e73d
000000e0: e59f ec3e 0ee7 2b3e 5eb3 cf3e cb92 b83e
000000f0: 8722 fc3a bda2 e93d e242 7b3d b925 f13c
00000100: 142e 033f f184 dd3d 4457 e63d 3fcd 1c3d
00000110: 717f a13e 3596 3a3e 1941 953d c164 793e
00000120: c5e4 6db9 a61c 26bd 1214 5d3c 80e0 6a3d
00000130: c71a a7be 061b 6b3e 82db 953d 0a10 d1bc
00000140: efd7 37be ec5a 77bc 8760 48be 9d47 9cbe
00000150: 5933 d8bd dcb2 3e3e 37e2 86bb fc14 a7bd
00000160: c568 4ebe d18f 3f3e f79f 943d 62d3 ff3d
00000170: 8bfd e13d f74a c33d 1e6d e5bc eace fd3d
00000180: 1ffd 5b3e b843 0e3d 1e38 383e a3d3 c83d
00000190: 8438 7b3d 7aeb 813e 1c92 f3bc 75fa 003e
000001a0: c1b7 a13e 8b9c 793e eb4d eb3e 7ff4 29bd
000001b0: 2911 e43e ce22 6d3e bd21 6d3d 08aa ae3d
000001c0: 5073 abbd 118e b4be 433d 99be bd96 87be
000001d0: e0a9 85be 371e 8ebd 306e 1bbe c310 edbe
000001e0: 648a eebe f918 c6bd 561c 7b39 129f 9cbe
000001f0: bf7f 87be 0784 163e 3983 cebd a934 f23c
00000200: c78d 2cbe 3acf e93d aded 61be 0a6c 4d3d
00000210: e244 24be a4b7 79be 1502 8b3d 9169 4ebd
00000220: 5332 65be 19ec 0c3e ba3e 993c ddd9 0b3e
00000230: 6dd2 35be 775d 803d 6ceb ec3d e292 5cbc
00000240: 1a36 01be 0d25 583e 0984 a2be 7ed8 33be
00000250: 6356 4abe 8543 843e 2a26 523d 7a53 86be
00000260: a352 55bd be5b 4cbe 582b 03bd 79a9 583c
00000270: b270 3e3d 8bf1 793d 942c f53c 837f 0bbe
00000280: 342b 6fbe 3bfc 9bbd 3b6d bb3b 5785 65be
00000290: dd2e ebbd cbfa 023e 1ccb d4bd 4946 66bd
000002a0: 4078 103f d7f7 2fbe 5bd2 823e f577 b63e
000002b0: a22d 83be 5cc9 7fbe 7d63 043e d3fb a7be
000002c0: 418e 4dbd c11a 2bbe 607e 883e c3ff 283e
000002d0: d274 b23d 2b5b da3e e74f a83e db00 f33e
000002e0: 8db8 da3e 0cd6 973e 97b0 b03e a043 e13e
000002f0: 6c2d 0d3e ac90 b13e 50d5 e73e fa5e 733d
00000300: 323f d13d 0b15 f53d 5ca3 6a3d c3e1 393d
00000310: 7ac3 2e3e 55f6 d13e baba 353e f5b7 283e
00000320: 4823 923c 290b 733e 8758 df3e b55c 6a3e
00000330: 87dd b43e e8ea 423e 3ea7 ab3e 2f4f b4bd
00000340: d158 703e 7d43 ffbd 1443 87be 6aeb 9cbe
00000350: 9761 0ebc 1131 70bc f672 6f3e 4e6b efbd
00000360: a2b9 88be 5d59 94be b24e 863e d926 19be
00000370: 83e4 1e3e 402c 31bd e65c 2cbe b261 1f3e
00000380: 6821 de3d 3786 64be 2ea9 063e 19f3 ad3e
00000390: 76df a1be 1eb8 413d afc4 74be 6aaf 3ebe
000003a0: 8229 dfbe 32a6 cabd 6cb8 a0be 7cdc 84be
000003b0: cdc9 7b3e c844 17be 7068 d43d 5da1 4cbe
000003c0: bbfb 1c3e 4041 6d3e 4553 83bd 801d a03e
000003d0: 1873 70be f0aa c0bc 0214 623d 2f09 14be
000003e0: ea6c 85bc ed9b 503b 96b8 a7bd 0d6b 3abe
000003f0: 00f1 a9bd 456d dfbc 2a57 303e a73c 853e

conv_out.bias f4 [32]
-0.012745603 -0.036067884 0.009081092 -0.006703772 0.005998773 -0.011738617 0.009140114 0.033310097
-0.016914435 0.0059571527 0.0068915966 0.011014856 -0.012451636 0.011825931 -0.008181405 0.005832509
0.0077522406 -0.011846407 -2.9407991e-05 0.013128453 -0.028695093 -0.0043101367 0.0011506004 0.010130562
-0.013130803 -0.0070538297 0.016681107 0.009980117 0.009528986 0.0072098086 -0.007001474 -0.00757183
00000000: efd2 50bc ebbb 13bd dcc8 143c 51ab dbbb
00000010: 5b91 c43b 5453 40bc 6bc0 153c 2b70 083d
00000020: 2490 8abc 3834 c33b e7d2 e13b a877 343c
00000030: f201 4cbc 8dc1 413c 4d0b 06bc a21e bf3b
00000040: 8206 fe3b 6f17 42bc 2eb1 f6b7 b918 573c
00000050: f911 ebbc 0c3c 8dbb becf 963a a8fa 253c
00000060: 9422 57bc d023 e7bb d1a6 883c a583 233c
00000070: 771f 1c3c 4240 ec3b 9f6c e5bb 1d1d f8bb

conv_out.lin.weight f4 [32, 32]
0.25477302 -0.09831648 0.21639228 0.10382597 0.25442758 0.06918364 0.22133023 -0.11431193
0.079416156 0.026309857 0.058641355 0.0364894 0.10366589 0.48500177 -0.12559637 -0.21263407
-0.058995992 -0.20634225 -0.14696935 0.041087672 0.050288558 -0.10072807 -0.05368053 -0.1592332
-0.36927295 0.09928243 -0.11629765 -0.24085411 0.5290081 0.18261635 0.023960626 -0.32307354
0.40882635 0.061013896 -0.20509073 0.4589268 0.22898665 -0.021792099 0.3248724 -0.105238624
0.052842192 0.024758037 0.20214127 0.059677485 0.26951432 0.004975723 -0.094533436 0.24486858
-0.37819546 -0.17813978 0.39839318 0.22944123 -0.42338824 0.24643691 -0.08403903 -0.26013252
-0.15803014 0.11293174 -0.3547098 -0.30804703 0.529921 0.2416757 -0.04089656 0.07410173
-0.30950722 -0.15106101 0.074676745 -0.56034786 -0.37085176 0.055311877 -0.2707561 -0.24356508
0.31026757 -0.258306 0.017208336 -0.09926813 -0.036148194 -0.52318823 0.037304327 -0.19475853
-0.14431067 0.2618299 -0.12216308 -0.18983588 0.2132934 -0.17966154 0.20633183 -0.32141653
0.010925231 -0.1937892 0.38266686 0.11663636 -0.61676574 0.04345446 0.12921283 0.10197476
-0.07514834 0.19233656 -0.13336316 0.72750604 0.17572783 0.18728729 0.16640627 -0.126558
0.18035327 0.003700964 0.14866737 -0.2091139 0.21074067 0.42701855 0.052364398 -0.01614418
0.08774527 -0.09898336 0.30838317 -0.20779034 -0.2766576 -0.09975579 -0.45872027 0.068178214
-0.005123629 0.32068828 -0.24919261 -0.34664628 0.55579144 0.012846603 -0.25353354 -0.18093519
-0.23128471 0.2782228 0.17739116 -0.5658985 0.05469668 -0.18134777 -0.012447957 -0.24006194
0.31385428 -0.11954152 0.11425609 0.34678432 0.11947774 -0.34071028 0.38772678 -0.3120529
-0.033406783 0.16583548 -0.3072804 0.17181434 0.029864212 -0.28770143 0.13399637 -0.30727053
0.44184837 -0.024974076 0.119567126 0.010747003 -0.61170113 0.1841475 -0.16003677 0.27781937
0.35229668 -0.019156406 0.008957328 0.5955551 0.112736806 0.32152185 0.08065963 -0.035771757
0.1363948 0.09488312 0.38677955 -0.32347035 0.16561726 0.07404316 -0.39624068 -0.19584303
-0.2009815 -0.069503754 3.597204e-05 0.04115855 -0.05402936 -0.17581253 -0.47131428 -0.002183532
-0.37488073 0.32023463 -0.26019663 0.16643773 0.3410647 0.26645288 0.23983757 0.065797344
-0.3970627 0.24281354 -0.27976155 -0.537999 0.024018506 0.032035302 -0.17868342 -0.17159483
0.3110819 0.095877215 -0.08768611 0.16014622 -0.13835518 0.01428769 0.25354487 -0.23308958
0.32954448 0.10432716 -0.34157136 -0.27838 0.32015103 0.14221011 -0.0027762104 -0.17618051
0.13300672 -0.022659808 0.40844977 0.05824836 -0.48426905 -0.058237836 0.22958742 -0.0069573843
-0.30531955 -0.040622625 -0.25556135 -0.6919486 -0.3557302 -0.22274344 -0.3812281 -0.33575752
0.28374535 0.24715604 -0.02237368 0.03616306 -0.056164954 -0.12305299 -0.086846516 0.1325848
-0.1515554 -0.011056198 -0.09526038 0.18216862 0.03383278 0.10119892 -0.08053695 0.02119568
0.4454643 -0.30005893 0.16272785 0.39130983 -0.5887731 0.1715125 -0.09567486 -0.11820297
00000000: 9c71 823e 275a c9bd f095 5d3e b6a2 d43d
00000010: 5544 823e 27b0 8d3d 64a4 623e 601c eabd
00000020: f0a4 a23d c587 d73c eb31 703d e975 153d
00000030: c84e d43d 2752 f83e 569c 00be bfbc 59be
00000040: c8a5 71bd 624b 53be 227f 16be 8c4b 283d
00000050: 60fb 4d3d 854a cebd 1ee0 5bbd 070e 23be
00000060: 5811 bdbe 9654 cb3d 762d eebd 76a2 76be
00000070: 136d 073f c8ff 3a3e 1349 c43c e569 a5be
00000080: b051 d13e b5e9 793d 4e03 52be 74f8 ea3e
00000090: 7a7b 6a3e 5885 b2bc ad55 a63e 5987 d7bd
000000a0: 0e71 583d 5ed1 ca3c 1ffe 4e3e 6170 743d
000000b0: c8fd 893e 640b a33b bf9a c1bd d4be 7a3e
000000c0: d6a2 c1be 466a 36be 31fa cb3e a4f2 6a3e
000000d0: 58c6 d8be f559 7c3e a81c acbd 1730 85be
000000e0: a7d2 21be c248 e73d 869c b5be 57b8 9dbe
000000f0: e7a8 073f d679 773e 2783 27bd a6c2 973d
00000100: bb77 9ebe bdaf 1abe 1ff0 983d f572 0fbf
00000110: 48e0 bdbe b58e 623d 8ba0 8abe 2069 79be
00000120: 64db 9e3e af40 84be 7ff8 8c3c 174d cbbd
00000130: 2110 14bd aaef 05bf 6ccc 183d c86e 47be
00000140: 2dc6 13be 920e 863e a330 fabd 5664 42be
00000150: 9669 5a3e 32f9 37be a748 533e b590 a4be
00000160: bdff 323c ad70 46be e9ec c33e 0bdf ee3d
00000170: 5ce4 1dbf 4efd 313d 5e50 043e 25d8 d03d
00000180: 5fe7 99bd e0f3 443e 5a90 08be d63d 3a3f
00000190: fff1 333e 3dc8 3f3e 6866 2a3e 6c98 01be
000001a0: 87ae 383e df8b 723b 423c 183e f421 56be
000001b0: 67cc 573e 2da2 da3e 0d7c 563d cd40 84bc
000001c0: cbb3 b33d cab7 cabd 66e4 9d3e fec6 54be
000001d0: 11a6 8dbe c34c ccbd 62dd eabe 05a1 8b3d
000001e0: 1de4 a7bb 4131 a43e 592c 7fbe 9f7b b1be
000001f0: 5948 0e3f 8f7a 523c 26cf 81be 1347 39be
00000200: e6d5 6cbe 3873 8e3e 07a6 353e b9de 10bf
00000210: a009 603d 3bb3 39be 84f2 4bbc ccd2 75be
00000220: 82b1 a03e 2fd2 f4bd 19ff e93d b78d b13e
00000230: bfb0 f43d 9471 aebe 2084 c63e 66c5 9fbe
00000240: 8dd5 08bd c7d0 293e db53 9dbe 19f0 2f3e
00000250: cba5 f43c 9a4d 93be 5836 093e 9052 9dbe
00000260: f339 e23e 6f96 ccbc 9cdf f43d 3314 303c
00000270: 7298 1cbf 2a91 3c3e aee0 23be 573e 8e3e
00000280: 3b60 b43e e5ed 9cbc c2c1 123c 4d76 183f
00000290: 8ee2 e63d 839e a43e e030 a53d 6885 12bd
000002a0: 14ab 0b3e 1552 c23d f807 c63e e89d a5be
000002b0: 9297 293e f1a3 973d 0fe0 cabe 138b 48be
000002c0: 18ce 4dbe fc57 8ebd afe0 1638 de95 283d
000002d0: e44d 5dbd 3308 34be 1b50 f1be 9719 0fbb
000002e0: 5ef0 bfbe cbf5 a33e 7e38 85be a76e 2a3e
000002f0: 08a0 ae3e 836c 883e fb97 753e c2c0 863d
00000300: cd4b cbbe 1da4 783e e83c 8fbe 4dba 09bf
00000310: 75c2 c43c 7337 033d c9f8 36be 8eb6 2fbe
00000320: 2046 9f3e 465b c43d c694 b3bd 5ffd 233e
00000330: fbac 0dbe ea16 6a3c a2d0 813e 09af 6ebe
00000340: 0eba a83e 7aa9 d53d 71e2 aebe d387 8ebe
00000350: d6ea a33e 879f 113e 15f1 35bb aa68 34be
00000360: ea32 083e 10a1 b9bc 5420 d13e d595 6e3d
00000370: 1df2 f7be cc8a 6ebd f718 6b3e c5fa e3bb
00000380: d852 9cbe e963 26bd f0d8 82be 8b23 31bf
00000390: 4522 b6be db16 64be 5430 c3be 69e8 abbe
000003a0: 1247 913e 7916 7d3e 0249 b7bc b81f 143d
000003b0: 390d 66bd 3503 fcbd 96dc b1bd 4fc4 073e
000003c0: 5731 1bbe 0e25 35bc e017 c3bd 698a 3a3e
000003d0: 3e94 0a3d 6141 cf3d 8ef0 a4bd 90a2 ad3c
000003e0: e613 e43e 53a1 99be 21a2 263e c359 c83e
000003f0: d5b9 16bf f9a0 2f3e 2ef1 c3bd 6614 f2bd

fc.weight f4 [1, 32]
0.17281544 0.1672184 -0.24929026 0.16389136 -0.29408008 0.20573309 -0.16222657 -0.09806471
0.103373066 -0.18623868 -0.4019512 -0.16426589 0.31836936 -0.07622946 0.1803453 -0.18953262
-0.13509524 0.24506426 0.113158144 -0.1851591 0.076681815 0.14545457 0.03614099 -0.069058
0.23146783 0.28884065 -0.083421595 -0.16761625 -0.27294484 -0.23914804 0.22235487 0.1652151
00000000: 88f6 303e 4d3b 2b3e f245 7fbe 23d3 273e
00000010: aa91 96be b2ab 523e b91e 26be 27d6 c8bd
00000020: 42b5 d33d 5ab5 3ebe 8ccc cdbe 5135 28be
00000030: 4f01 a33e 311e 9cbd 70ac 383e d714 42be
00000040: 6856 0abe 20f2 7a3e 75bf e73d 599a 3dbe
00000050: 5b0b 9d3d 0bf2 143e 9308 143d 486e 8dbd
00000060: e705 6d3e ece2 933e f1d8 aabd 98a3 2bbe
00000070: 6dbf 8bbe 39e3 74be ffb0 633e 262e 293e
