atropos/trained_model/nhot/answer/add/8/best_acc.pt (torch, 18066 bytes, 5 tensors)

conv1.bias f4 [32]
000000 fc 20 b2 bc a4 db 87 bd b8 a3 e0 3c 1c b6 44 3d
       -0.021744244 -0.0663369 0.027421817 0.048025236
000010 cc e9 3b 3c 51 09 3f 3c 1c 7e 4a 3d f5 c0 b3 bd
       0.011469316 0.011659936 0.049436674 -0.08777038
000020 f9 14 ac 3d 8f 79 f4 bc 88 11 6f 3d d4 49 d3 3d
       0.08402438 -0.02984312 0.05836633 0.10316816
000030 d7 9e 84 3b 18 2b 36 3a b8 d5 80 3b 21 e8 32 bd
       0.0040472555 0.00069491705 0.0039317273 -0.043678407
000040 3f 77 de 3c 2c 6f ff bc 65 3d 9a 3c 7c 19 01 3d
       0.02715647 -0.03118094 0.018828103 0.031518444
000050 66 c4 d8 bd 19 af 98 3d a7 7b 2f 3d b3 40 9d bb
       -0.10584335 0.07455272 0.042842533 -0.0047989725
000060 ba 0d 7c 3c 15 28 f9 bd 37 65 38 ba bb 6e 85 bb
       0.015384132 -0.12165848 -0.0007034125 -0.004072038
000070 8f 9d 25 bc 64 84 cc 3d dd 08 b7 bd 99 44 85 bd
       -0.010108366 0.09986189 -0.089372374 -0.065072246

conv1.lin.weight f4 [32, 82]
000000 da 4e 4a bd e3 c3 5b be bb 19 1f be fb f4 05 3e
       -0.049391605 -0.21461444 -0.15537159 0.13081734
000010 bd 13 2b 3c 82 c3 60 bd fc 50 15 be f4 d0 42 3d
       0.010441718 -0.05487395 -0.14581674 0.047562554
000020 b3 9c ab be 88 ca 8b be bc 57 e9 3d 42 da de bb
       -0.3351799 -0.27302957 0.11393687 -0.0068009207
000030 cc 82 9e 3d 7a 23 59 be 7d 32 89 3e cd 2c 57 3e
       0.07739791 -0.2120494 0.26796332 0.21013184
000040 d7 cd 84 3d 36 1c a5 be 3c 94 21 bd e4 38 40 be
       0.06484573 -0.32248086 -0.039448008 -0.18771702
000050 f9 db 0d be e5 09 8a bd 1d 29 16 3e 03 2e 4a 3e
       -0.13853444 -0.067401685 0.14664121 0.19744115
000060 98 57 42 bc 6f 70 fd bd 27 a8 88 3e 5a dc 95 be
       -0.011861704 -0.12374961 0.2669079 -0.29269677
000070 38 2e 0a 3e 46 75 51 3d 9c 7c c9 be 10 41 8a be
       0.13494194 0.05113723 -0.39352882 -0.27002764
000080 6e f0 fa 3d dd d6 ba bc 91 9b 61 3d af b6 29 3e
       0.122528896 -0.022807533 0.05508 0.16573595
000090 08 85 42 be 7b 31 c2 bd 63 dd 78 be 78 56 e2 bd
       -0.1899606 -0.09482094 -0.24303202 -0.11051649
0000a0 04 8b 8a be 88 8e 55 be d2 2e 9c be a9 4d 89 bc
       -0.27059186 -0.20855153 -0.3050447 -0.016760664
0000b0 44 18 aa 3c d6 e1 5c be 5a 0f 38 3c b7 8b 5f 3d
       0.020763524 -0.21570525 0.011234129 0.0545766
0000c0 64 58 32 be 4b 28 99 3e 59 00 58 3e e0 da 28 3e
       -0.17416531 0.29913554 0.21093883 0.16489744
0000d0 bd 0b 80 3e 10 da 41 be 75 78 bc 3d 6d 68 5a 3e
       0.25008956 -0.1893084 0.09202663 0.21328898
0000e0 20 4b 28 3c df be a3 bd 0b 40 12 3d 75 b2 c5 bd
       0.010271817 -0.0799539 0.035705607 -0.096531786
0000f0 c0 bf 7f 3d 54 2c 78 3c de 31 2d 3e 16 47 3f 3e
       0.062438726 0.015147287 0.16913554 0.18679461
000100 5e ee ae bd 88 d9 ec bd 35 67 8c 3d 8a 49 5c 3d
       -0.08541559 -0.11564928 0.06855623 0.05378107
000110 2b 32 0f 3b 62 f6 ab bd c7 1f 60 3e 40 68 bc bc
       0.002184997 -0.08396603 0.21887122 -0.022998929
000120 82 9f 98 3d 82 71 6a 3d 10 95 75 3b e3 5a e0 3d
       0.07452299 0.057237156 0.0037472881 0.10954835
000130 2f b4 3c bc bf ec af bd 32 12 4e 3e 91 83 5d be
       -0.0115175685 -0.085900776 0.20124128 -0.2163222
000140 89 d4 31 3e 76 0a 94 bd a9 cb d9 bc 2b c0 6e 3e
       0.17366232 -0.07228558 -0.02658637 0.23315494
000150 7c cb 45 be 26 8f 8a bd 4e 33 13 3e 78 3e 14 bd
       -0.19315904 -0.06765585 0.1437504 -0.036192387
000160 f8 c5 49 3e 71 c8 09 bb bd 42 97 3e 29 e4 fd bd
       0.19704425 -0.0021024013 0.29543105 -0.12397034
000170 68 53 d5 bc 3d df 9c 3d 16 2a 28 bc 60 e0 bf 3d
       -0.026040748 0.07659767 -0.01026394 0.09368968
000180 40 6a e1 3d fa 81 e6 3d c1 c6 ee 3b de b8 8b 3d
       0.11006594 0.1125526 0.007286877 0.0682237
000190 4d 1e ad be 68 91 58 3d 50 93 65 3d e4 77 8a 3e
       -0.3381218 0.052873045 0.05604869 0.27044594
0001a0 66 f7 f4 3c 68 36 33 bc 06 91 36 3e ef 69 63 3e
       0.029903125 -0.010938264 0.1782876 0.22208379
0001b0 1d 52 25 be 3a fc 0f 3e 0f 75 bc bc 2a 6f ad 3e
       -0.16144605 0.1406106 -0.023005037 0.33873874
0001c0 b4 87 49 bd 52 10 cc bc 4f 45 d6 3b ac 43 c1 3e
       -0.049201682 -0.024910126 0.006539024 0.37746942
0001d0 69 10 ca bd aa 67 c9 3d f9 2b f2 bd ab 07 4f bd
       -0.09866411 0.098342255 -0.11824793 -0.050544422
0001e0 a6 88 9b 3e 98 ba 15 3e 84 87 34 3c 37 23 83 3e
       0.30377692 0.14621961 0.011018638 0.25612804
0001f0 bc 01 2f 3e 97 4f 73 be 41 b7 4d be 8e 2b 80 be
       0.17090505 -0.2376083 -0.20089437 -0.2503323
000200 28 ca d5 bd b2 61 00 bc 63 a3 b3 3d 54 43 87 bd
       -0.10438949 -0.007835792 0.08771398 -0.06604639
000210 58 7a 93 be 8f a5 c1 bc 0b 94 14 b9 56 ed 6b be
       -0.28804278 -0.023638515 -0.0001416953 -0.23039755
000220 2a 76 43 be b8 e7 a8 be 60 98 fe 3c 4f 1c b4 be
       -0.19088045 -0.32989287 0.031078517 -0.35177848
000230 fd e5 25 be 3b a7 6a bc 25 67 cb bd 56 67 ae 3d
       -0.16201015 -0.014322097 -0.09931783 0.085158035
000240 33 37 1c bc 8d 94 3f be c2 5a b9 bd 8b 4d 13 3c
       -0.009534645 -0.18709011 -0.09050514 0.008990656
000250 65 54 8b bd 66 ad 1c be 6c a9 aa be 1a cc 0a be
       -0.06803206 -0.15300521 -0.33332384 -0.13554421
000260 ab c6 24 be 32 04 8e be 19 5a bd 3d e3 5b 04 be
       -0.16091411 -0.27737576 0.092457004 -0.12925677
000270 b5 ea 35 be ef fa 63 3d c6 ee e5 bd 61 a1 ae bd
       -0.17765315 0.05565923 -0.11227183 -0.08526874
000280 fa fd aa 3d f8 4a 4a bc 8f c0 c2 bd 3c 6b 98 3d
       0.083492234 -0.0123469755 -0.09509384 0.07442328
000290 81 65 bd 3a 42 1c ac bd 03 f8 0a be 9a 18 9d 3d
       0.0014449806 -0.08403827 -0.13571171 0.07670708
0002a0 c8 70 5a 3d f7 db 9c 3d 6f a1 11 3d 3a a8 0a 3d
       0.053330213 0.076591425 0.035554346 0.03385184
0002b0 79 dd 82 be 43 8c cf bc 68 de 0a be 3f 08 6e be
       -0.25559595 -0.025335437 -0.13561404 -0.23245333
0002c0 b7 e0 ff 3d ad 1e 02 3e 95 44 bb bd b1 d3 c4 3d
       0.12494033 0.12707014 -0.0914394 0.096106894
0002d0 66 a9 e0 3b 7c 27 a0 bc 25 86 09 bd 0c 2f 9e 3d
       0.0068561314 -0.019550078 -0.033575196 0.07723817
0002e0 b8 5f 8d bd 54 08 87 bd a1 ae 29 be 2e a9 d2 3e
       -0.069030225 -0.06593385 -0.16570522 0.411447
0002f0 ec 24 68 3e 4c 44 1c bd 4e e1 06 3e db 97 3c be
       0.22670335 -0.03815107 0.13171884 -0.18417303
000300 41 15 51 be a8 1c e5 bc 92 09 a7 3e d3 14 5c bd
       -0.20418264 -0.027967766 0.3262449 -0.053730797
000310 eb b1 91 3d 53 a8 83 be ac 9a 99 bc 4a e1 27 3d
       0.07114013 -0.2571436 -0.018750511 0.040986337
000320 1c ce ab be 87 79 16 3d 8f bd 86 be 92 ca 45 be
       -0.33555686 0.03673699 -0.26316497 -0.19315556
000330 12 a4 cf bd e8 36 b3 bd 92 f3 87 be 52 bc 37 3e
       -0.10138716 -0.08750707 -0.26553017 0.17942932
000340 10 bb 77 3d 46 f4 2d be 59 37 32 bb 39 59 1a 3e
       0.06048113 -0.16987714 -0.0027193634 0.15073098
000350 d4 15 0c be 0f 66 01 3f 60 b0 9b 3e 3f 98 ff 3e
       -0.13680202 0.50546354 0.30408 0.49920842
000360 7f 24 a4 3e ed 52 94 3e 93 90 a0 3e e1 a7 f7 3d
       0.32059094 0.28969517 0.313603 0.12092567
000370 82 98 47 3e db 5d 9d 3e c5 72 99 bd c1 e0 c1 3d
       0.19491771 0.3073567 -0.07492594 0.094666965
000380 5f b1 54 3e 63 2e 5a 3d 92 dc 3c 3e fe 61 d2 3c
       0.20770787 0.053266894 0.18443516 0.025681492
000390 ca ef 8c 3e 3e e7 98 bc c7 ba 8b 3d d4 1d da 3d
       0.27526695 -0.018664952 0.06822734 0.106502205
0003a0 cb 6f 92 3e 40 13 5b 3d a4 2a 1c 3e 3e 7e af 3e
       0.28600916 0.053485155 0.15250641 0.34276003
0003b0 63 e7 7e 3e 66 24 fe 3c b8 0a a5 bd ca fa fc 3d
       0.24892955 0.031023216 -0.08058685 0.12352522
0003c0 f6 3a e4 bc f3 e2 1d bd 1f 4b 13 3e bb d9 97 3e
       -0.027860146 -0.038546514 0.14384125 0.29658303
0003d0 09 0e b9 3d 59 dc 57 3a 29 ef 6c be 4e 21 3a 3e
       0.0903588 0.00082344335 -0.23138107 0.18176767
0003e0 32 b2 1c be c2 74 25 bd 23 43 10 3e 53 e4 d2 3d
       -0.15302351 -0.040394552 0.1408811 0.10297456
0003f0 8f ab cf 3d c4 46 be 3b c5 4e be be 2c 3e 06 3e
       0.10140144 0.0058067758 -0.3716947 0.13109654

conv_out.bias f4 [32]
000000 48 9a c5 bc d4 b3 9a 3c 2a 48 b4 3c e9 36 c4 bc
       -0.024121419 0.018884577 0.022007067 -0.023951964
000010 f2 21 cb 3c 86 15 a0 3c 54 29 be bc 96 da ae bc
       0.02479646 0.019541513 -0.023213066 -0.021344464
000020 de 58 a2 3c 23 9b 08 bd 7f 5a aa bc 5a 3e ae bc
       0.019817766 -0.033351075 -0.020795105 -0.021269966
000030 1c 3a b2 bc d7 36 b8 bc a7 d5 c1 3c 01 8b 95 3c
       -0.021756224 -0.022487087 0.023661448 0.018254759
000040 0b 56 cd bc 99 6f a3 bc 9f c6 9a bc 37 3c be bc
       -0.025065443 -0.019950675 -0.018893538 -0.023222072
000050 00 57 ab 3c 8a 5a 6c bd 1f a7 b9 bc 66 40 b0 bc
       0.020915508 -0.057703532 -0.022662697 -0.021515083
000060 8f b9 a9 3c 9c 88 83 bb e7 4e 98 bc ed ba d2 3c
       0.020718364 -0.004014088 -0.018592311 0.025723899
000070 52 cb e1 bc 32 57 a4 bc f7 d5 bc bc be 10 b3 bc
       -0.027562771 -0.02006111 -0.023051245 -0.02185857

conv_out.lin.weight f4 [32, 32]
000000 d0 50 94 bc 36 c5 ec 3c b2 9e c6 3c ef 75 c3 3e
       -0.01810494 0.028902631 0.024245594 0.38175914
000010 83 c2 71 3e 25 9f 28 3e 73 dd 17 be 3b 21 3b 3e
       0.23609357 0.16466959 -0.1483057 0.18274395
000020 f1 aa fd be d4 e5 c8 bd 4a d2 22 be 47 02 2c 3e
       -0.4954448 -0.09809461 -0.15900531 0.16797744
000030 47 50 8c bb 30 15 28 be 0c b3 11 3e 1f 9f e3 3e
       -0.0042820307 -0.16414332 0.14228457 0.44457337
000040 a8 7d da 3c 66 88 c0 be c0 16 0b be 7d 94 06 3c
       0.026671246 -0.37604064 -0.13582897 0.008214113
000050 2f e2 31 3e 9c dd c3 3e 06 3f 32 3e 08 35 6c be
       0.17371438 0.38255012 0.17406854 -0.23067105
000060 9e 73 89 3e 9c 3f 05 be 98 f0 6f bd 3a d0 19 3e
       0.2684602 -0.13012546 -0.058579057 0.15020838
000070 38 1b ba bd fb a0 83 bd 1b 70 1b be c2 3d d7 3d
       -0.09087223 -0.06427189 -0.15179484 0.10509826
000080 b8 63 0f 3e 9f 33 26 3e d9 12 21 be ed 4c ef 3c
       0.14002883 0.1623063 -0.15729846 0.029211486
000090 0a a3 d9 3d 3a ec 4b bd 6a b6 a4 be b1 4b 0c bc
       0.106268 -0.04978583 -0.3217042 -0.008562968
0000a0 97 a0 a5 3e 80 93 95 3e 32 a0 d9 bd 0e ab 6f be
       0.32349083 0.29214096 -0.10626258 -0.23405096
0000b0 6a b4 ad 3d 91 75 24 3e 27 1e e8 bd 32 3e bf be
       0.08481677 0.16060473 -0.11333876 -0.3735214
0000c0 fc 47 a2 bd a9 90 ac bd 8e 4a c6 3d 36 30 ed 3c
       -0.07923886 -0.08426029 0.09682189 0.028953653
0000d0 31 3d 23 3d 63 fa 85 3c 16 13 d1 be d7 65 89 bd
       0.03985328 0.016354745 -0.40834874 -0.067088775
0000e0 02 2e 70 3c 38 56 f0 3d 5f aa 8d be cc af b2 bd
       0.014659407 0.11735195 -0.27669045 -0.08724937
0000f0 1b 51 79 3d 42 09 20 3e e4 cb 88 bd ca 1c 9c 3d
       0.060868364 0.15628532 -0.06679514 0.076226786
000100 b3 4a f0 3d 5a 68 d0 bd cb a6 33 be 83 b3 c9 be
       0.11732998 -0.101761535 -0.17544095 -0.3939477
000110 99 b2 78 3e 83 b2 cb be 31 cd ef 3d 76 a5 5c bd
       0.2428688 -0.3978463 0.11709059 -0.053868733
000120 db b7 ed 3e 12 dd 30 be 02 5a 21 be 5b 21 52 be
       0.46429333 -0.17271832 -0.15756992 -0.20520537
000130 e1 9a a8 be 85 5f a6 3e f3 44 98 be 2c 82 fd be
       -0.32930663 0.3249475 -0.29740104 -0.49513376
000140 1d 61 53 bd 43 ca 4d bd fc 45 a4 3d fa 7b 90 bd
       -0.051606286 -0.05024172 0.08021161 -0.07054897
000150 70 95 2d 3e 6c 7f e4 bc 9b 14 20 bc 52 bc 3d 3e
       0.16951537 -0.02789279 -0.009770538 0.1852887
000160 d8 ed bb bd 01 11 1e 3e 48 be b1 be 47 24 af 3d
       -0.091762245 0.15436174 -0.34715486 0.08551841
000170 ca 2e 13 be 9c 4e 24 be df 11 2a 3e fc 15 2c be
       -0.14373317 -0.16045612 0.1660838 -0.16805261
000180 6f ce e5 3b 31 08 95 3e cb 93 8a 3e b6 54 0c 3e
       0.007013134 0.29107812 0.27065882 0.1370419
000190 f9 79 f2 bd 72 5f b9 bd 6e 14 99 3e 42 c2 2e be
       -0.11839671 -0.09051408 0.298984 -0.17066291
0001a0 b6 b9 02 bf 81 7b 4b be 97 2d 28 3e 96 9a 9f 3d
       -0.5106462 -0.19871332 0.16423641 0.07793157
0001b0 59 d6 8b 3d 4c 4e df bc 30 e3 29 3d 80 29 f6 3e
       0.06827993 -0.027259015 0.04147643 0.48078537
0001c0 0c 1e d6 bd 47 40 0b bd 52 6e f1 bd c7 8e 0e bd
       -0.1045495 -0.033996847 -0.1178862 -0.03480413
0001d0 a2 b1 14 bd 80 30 bf 3d a2 18 69 bc 89 29 c0 bd
       -0.036302216 0.093354225 -0.014227064 -0.09382922
0001e0 c6 0c 6e 3d 5e 53 86 be 91 1d 96 3e 06 23 d2 bd
       0.05811765 -0.2623548 0.29319432 -0.102605864
0001f0 5a fb 55 3e 89 9e 62 3e f3 ec 5d be b7 eb ab be
       0.20896664 0.22130789 -0.2167242 -0.33578274
000200 4e 9f 36 3d 7d 18 9f bc cf f4 a7 3d 3f cf e7 be
       0.04458552 -0.019420857 0.082009904 -0.45275304
000210 be a7 9a bd fc 3b 2f 3d fa 1f 43 3d e6 13 72 be
       -0.075515255 0.042781815 0.047637917 -0.23640403
000220 28 40 df 3e 22 69 01 3e d3 f1 39 bd e5 ab 38 3d
       0.43603635 0.12637761 -0.045396637 0.045085806
000230 2c 08 ba bd 9c 83 5e 3e 7a ce 61 3c 13 a5 e6 be
       -0.0908359 0.21729892 0.013782138 -0.45047817
000240 6c c9 95 3c dc 07 1f 3d bc 73 03 3e cf 1c e8 3d
       0.018284522 0.038825855 0.12837118 0.1133362
000250 be 12 b5 3c 43 fc c5 be 79 e8 a6 3b e5 04 ee 3d
       0.022103664 -0.38669023 0.005093631 0.11622027
000260 6e 5e b4 be da 39 5d be ef cb ce be 1a a4 50 be
       -0.35228294 -0.216041 -0.40389964 -0.203751
000270 a8 ed 09 3e 98 35 21 3e e0 0e 2e 3e 71 24 89 3e
       0.13469565 0.157431 0.16997862 0.26785615
000280 35 c8 14 be dd 57 99 3e d2 ad 9a be 2a 91 d4 3d
       -0.14529498 0.29949847 -0.3021074 0.1037925
000290 c6 93 94 be 32 8c a8 be a9 57 86 be 09 fc ac 3d
       -0.29018992 -0.3291946 -0.26238754 0.084465094
0002a0 02 cd ac 3e ad 6d 27 3e 3a 5f b2 3d 8c 38 56 3d
       0.3375016 0.16350432 0.08709569 0.05230002
0002b0 0d 08 4e 3e 8d 90 33 be dc 5d 74 be 8b f9 95 be
       0.20120259 -0.1753561 -0.2386393 -0.2929195
0002c0 c7 3e e3 3d 50 df b1 3e af 58 b1 bd ea 97 4a 3e
       0.11095958 0.34740686 -0.08659493 0.19784513
0002d0 71 79 e5 bd c2 cc d9 3d 02 87 12 be a1 b9 c4 3d
       -0.11204804 0.106347576 -0.14309314 0.096057184
0002e0 75 5f a2 3d 59 3f 20 bd ea c8 a5 bd fd d0 8b 3e
       0.07928363 -0.039122913 -0.08094962 0.27307883
0002f0 91 f7 60 be bf 2c be be f7 82 78 3e ff 01 6f 3e
       -0.21969439 -0.37143514 0.24268709 0.23340605
000300 f7 9e 91 3e dd 6f d2 3d 6f 20 49 3e 0b cb 28 3e
       0.28441593 0.102752425 0.19641279 0.16483705
000310 cd 01 d4 bd cd 6e 25 3e 51 5a 05 be b4 79 9c be
       -0.10351906 0.16155548 -0.13022734 -0.30561602
000320 c5 15 44 be 15 a7 20 be c1 05 ab bd 42 dc 1d 3d
       -0.1914893 -0.15688737 -0.08350707 0.038540132
000330 96 7d 54 3d 86 fd a5 bc 78 74 ec 3e 60 a7 9b 3e
       0.05187758 -0.020262491 0.4618261 0.30401134
000340 71 41 a2 3e 6e 1e 0c be 21 1d b0 bd 0d 20 ae 3d
       0.31690553 -0.13683483 -0.08599306 0.08502207
000350 fd c7 9a 3d 74 71 ce 3e 36 ee e3 3e c6 09 1f 3e
       0.07557676 0.40320933 0.44517678 0.15531072
000360 31 11 4c 3d a6 63 5f be 42 22 da 3d ff 17 93 be
       0.049821083 -0.21815357 0.106510654 -0.28729245
000370 5e 3a 2c 3e 25 ae 98 3e 12 35 62 3c 4a a6 d2 be
       0.1681914 0.29820362 0.013806598 -0.41142493
000380 71 30 1e 3d 13 3c ce 3d 5a ef 9c 3c 2d c0 16 3e
       0.038620416 0.10070052 0.0191571 0.14721747
000390 a8 31 76 3d 20 c7 f5 bd 45 e5 ce 3d 2b 50 5f be
       0.06010595 -0.12000871 0.101023234 -0.21807925
0003a0 c8 e4 86 be 3b e2 6a 3e 2a ff c5 bd d1 d4 94 3e
       -0.2634642 0.22937863 -0.09667809 0.29068616
0003b0 b6 50 9b 3e 06 b0 29 be 4d 3e 3a 3e c8 ed 2b bd
       0.30335015 -0.16571054 0.18187828 -0.041974813
0003c0 5c 06 24 bd cd e0 a1 be b2 16 48 3e 5a 95 15 be
       -0.040045127 -0.31616822 0.19539908 -0.14607754
0003d0 db 6c 78 be 35 3a f2 bd 09 3e e0 3e 63 d6 39 3d
       -0.24260275 -0.11827508 0.4379733 0.04537047
0003e0 ac 06 53 3e a7 2f 4e be b7 55 f2 3e 6a b6 31 3d
       0.20608014 -0.20135365 0.4733102 0.043386854
0003f0 85 eb a1 3d 87 6f a3 3e dc db a4 be 1f 33 8e bb
       0.0790625 0.31921026 -0.3219899 -0.00433959

fc.weight f4 [1, 32]
000000 e7 80 f6 3d 31 13 1c be 14 62 97 be 2e cc 3c 3e
       0.12036305 -0.15241696 -0.29567015 0.18437263
000010 72 83 da bd 0a 43 68 be 97 80 a0 3e 04 1b 8d 3e
       -0.106696025 -0.22681823 0.31348106 0.27559674
000020 8e 85 2a be 64 74 42 3e c6 0c 48 3e 72 d3 83 3e
       -0.1665251 0.18989712 0.19536123 0.25747257
000030 fc 68 1d 3e 7b 81 09 3e 70 95 4b be ad 76 33 be
       0.1537208 0.13428299 -0.19881225 -0.1752574
000040 52 c6 cb 3d 0b c8 55 3e 7b f5 11 3e 82 94 11 3e
       0.09949936 0.20877092 0.142538 0.14216807
000050 78 d1 4c be 4f 04 8b 3d c2 f2 3b 3e ef 03 f9 3d
       -0.20001781 0.06787931 0.18354324 0.121589534
000060 b0 9a 51 be 56 b3 57 bc 8b 19 1a 3d 82 b5 f1 bd
       -0.20469165 -0.013165316 0.037622016 -0.11802198
000070 59 e5 27 3d 54 d4 0a 3e 5a 7a 01 3e b1 9c 76 3e
       0.040990207 0.13557559 0.1264433 0.2408321
