atropos/trained_model/onehot/answer/7/best_acc.pt (torch, 13714 bytes, 5 tensors)

conv1.bias f4 [32]
000000 b4 9c 60 3c 3f 02 5e 3c 58 ab 07 bc dd a2 c1 bc
       0.013709236 0.01355034 -0.008280598 -0.02363723
000010 a9 9a 68 3c 0c 19 e1 bb 73 ba 46 3c d7 cd ba ba
       0.01419703 -0.006869441 0.012129414 -0.0014252019
000020 17 8a d5 3c 54 70 93 3b c9 cc dc bc 3a 0d 82 3c
       0.026066823 0.0044994745 -0.026953118 0.015875448
000030 82 76 b4 bc a8 06 86 ba 35 2b 94 3c d5 1a 1d 3d
       -0.022029165 -0.0010225372 0.018087009 0.038355667
000040 2f c6 97 3d 6f bb ba bc 9e 82 09 bb ed 51 e4 3c
       0.074108474 -0.022794453 -0.0020982395 0.027871097
000050 bd 7b 69 bc 68 f2 55 3c e2 a8 f1 3c 72 15 48 3d
       -0.014250693 0.013058282 0.029499475 0.048848577
000060 ac 6d 40 3c e4 0d 86 3c 65 dd 96 bb 9f 3e d0 bb
       0.011744898 0.016364045 -0.004604029 -0.0063551213
000070 28 0f 8d 3b ed 8a ee bb d3 18 aa 3b 54 57 8d 3c
       0.0043047853 -0.007279745 0.0051909476 0.017253555

conv1.lin.weight f4 [32, 48]
000000 3c 61 ee 3d b7 f8 bf bd 50 67 6b 3e 60 f4 91 3e
       0.1163964 -0.093736105 0.2298863 0.28506756
000010 ce ca 13 be 87 db a3 3d 62 64 e8 bc 45 e6 1a bd
       -0.14432833 0.08000856 -0.028368179 -0.03781726
000020 91 ea 7e be 14 9b 80 3d ca 6e 71 3e 77 73 fb bd
       -0.24894167 0.06279579 0.23577419 -0.122778825
000030 b5 4e 3e 3e 0e 6f a5 be fb 38 17 3e 06 29 77 bd
       0.18584712 -0.3231129 0.1476783 -0.060341857
000040 1e cf 7a 3b 79 6f 39 3e 68 6a fc bd 34 81 1c bd
       0.0038270424 0.1810893 -0.12324983 -0.038209155
000050 ed 10 31 be f7 15 6b 3e a9 d5 6e 3e 76 02 bb 3d
       -0.17291613 0.22957598 0.23323692 0.09131329
000060 2c 0f 3f 3e 5c 0d b7 3e 0c 4b 23 3e f7 c2 80 bd
       0.18658131 0.3575238 0.15946597 -0.062871866
000070 b6 9c 2b bd b6 b8 48 be 0e 39 7a be 95 44 e8 3d
       -0.041897498 -0.19601712 -0.24435827 0.11341206
000080 13 a6 36 3e 64 4f 3d be 8f ac 14 bd ed c2 04 bc
       0.1783679 -0.18487316 -0.036297377 -0.008103115
000090 ea 8c 87 bd d0 92 1c be d2 2f 11 3e 8c 6f 3b 3d
       -0.06618674 -0.1529038 0.14178398 0.045760676
0000a0 e4 58 ae bd f9 f2 61 3e 8e ca cb bd 9d 27 4b be
       -0.08513048 0.22065343 -0.099507436 -0.1983933
0000b0 e3 86 b5 3d 52 bc 6c be ca 62 ef 3b ca 85 6e 3e
       0.08863618 -0.23118713 0.0073054777 0.23293224
0000c0 dd 14 4f 3d fb d6 71 3d 8e 8b 80 3e 59 3c 1d bd
       0.050557006 0.059042912 0.25106472 -0.03838763
0000d0 5d f9 89 3d 92 a7 c5 3d 45 80 8c 3e 6e e8 73 3e
       0.067370154 0.09651102 0.27441612 0.23819134
0000e0 ae 8e f8 bd 97 7c ad 3d 79 f0 61 be 61 cd 8e be
       -0.12136589 0.08471029 -0.2206439 -0.27891067
0000f0 b8 f8 6f 3e e1 8a a5 3e 42 9e 77 3d 0e f6 8c 3d
       0.23434722 0.3233252 0.06045366 0.06882869
000100 26 89 a2 3d 12 7e 64 be 29 ae 8a bc 1d 11 7f be
       0.07936315 -0.22313717 -0.01692875 -0.24908872
000110 05 eb 00 be 38 61 c5 3d d1 d1 4e be ab 17 b9 bd
       -0.12589653 0.09637684 -0.20197226 -0.090377174
000120 1c e7 3d 3e 65 d6 57 be 8c aa 71 3e 6f 6f 60 be
       0.18545192 -0.21077879 0.23600215 -0.21917509
000130 5f 0b e5 3d 0e 80 a9 bd cc 5f 75 be 4a 07 6b be
       0.111838095 -0.082763776 -0.23962325 -0.22952
000140 b4 a8 2b 3e 57 5b ac 3c 7a 78 b4 bd 53 63 0a 3e
       0.16763574 0.021039648 -0.088120416 0.13514452
000150 8c 8c 52 3e 20 df 02 3e 35 c8 77 3d 2e 28 6f be
       0.20561427 0.12780428 0.060493667 -0.23355171
000160 f9 35 81 be 3e 06 90 be 88 a4 53 be 31 60 a2 bc
       -0.2523649 -0.28129762 -0.20668232 -0.019821258
000170 4f 0f 81 3d f0 1f da bc 83 ae 67 bd ce 9a 60 be
       0.06301748 -0.026626557 -0.05656291 -0.21934053
000180 dd 01 51 3e 28 e2 3d be 3c ed 52 3e 07 95 21 be
       0.20410867 -0.18543303 0.2059831 -0.15779506
000190 fa b8 15 be 4b 4a 3f be ae d7 57 3e 4a 00 25 3e
       -0.14621344 -0.18680684 0.21078369 0.16113392
0001a0 65 02 07 be b2 6d 75 bd 6d 35 c1 3d a2 5f 10 3e
       -0.13184507 -0.059919067 0.09434018 0.14098981
0001b0 5d 13 60 be 2b c2 96 bd 42 dc 60 3e ba 09 32 bc
       -0.21882387 -0.07361253 0.21959022 -0.010866577
0001c0 ff 81 71 3e 12 9c 88 3d 42 98 e0 3d b7 64 17 3e
       0.23584746 0.06670393 0.10966541 0.14784513
0001d0 a1 ae 65 be 12 85 7b bc 6a 5d 62 3c d8 eb 89 3d
       -0.22429897 -0.015351551 0.013816217 0.06734437
0001e0 26 77 23 be 4e 82 a0 3d e6 84 25 3d 15 68 97 bc
       -0.1596342 0.07837354 0.040409945 -0.018482247
0001f0 7f 07 ce 3d 2e d7 52 bd 26 b1 1d 3e a5 62 2c 3d
       0.100600235 -0.051474743 0.15399608 0.042086262
000200 37 fb 1a 3e 48 a6 20 be 19 a7 85 bd 27 25 31 3d
       0.15134893 -0.15688431 -0.06526012 0.04324832
000210 ef 11 6f 3d 84 35 09 be c2 98 43 be 28 aa 15 3d
       0.058366712 -0.13399321 -0.19101241 0.036539227
000220 2d b9 8d 3e d6 b3 46 bd d0 13 95 3d 45 04 9e be
       0.2768034 -0.04851135 0.072791696 -0.30862632
000230 9c eb 78 be a2 f5 d2 bd b1 a2 29 be d6 2b 6b be
       -0.24308628 -0.10300757 -0.16565968 -0.22965941
000240 2d a6 27 3e 3b 8a c7 3c 13 21 78 bd 23 0b 96 be
       0.16371985 0.024357906 -0.060578417 -0.29305372
000250 4e 9d 4c 3e 06 1c 74 3d d3 85 38 3d 9d 77 66 be
       0.19981882 0.059597038 0.0450495 -0.22506566
000260 56 3c 8a bc 6a d7 48 be 5e 12 af bd 83 f3 88 3e
       -0.016874474 -0.19613424 -0.08548425 0.26748285
000270 b6 33 1a 3e 00 62 86 3c ef f0 9a 3e 92 d1 5a 3e
       0.15058789 0.016404152 0.30261943 0.21369007
000280 e1 d2 f9 bd 90 05 18 3e 0c 37 80 bd 5b ef 18 be
       -0.12198425 0.14845872 -0.06260499 -0.14935057
000290 ba 9c 26 be dc 96 26 3e 48 2c a9 bd dd 51 2f be
       -0.16270724 0.16268486 -0.08260399 -0.17121072
0002a0 cc 2c 89 bd 22 4a 2e be 53 ac c9 3b 72 d7 17 3e
       -0.066979975 -0.17020467 0.006154576 0.1482828
0002b0 98 b0 9f 3d e2 ca 1f 3e 9b d6 63 3e 7b fb 16 be
       0.077973545 0.15604737 0.22249834 -0.1474437
0002c0 17 5c 3c 3e 95 56 96 3e 3a d8 37 3e 4e 7c 14 be
       0.18394504 0.29362932 0.17953578 -0.14500543
0002d0 29 4b 07 3e 1e 3c 54 3d 36 39 1a 3e 01 9a 03 3d
       0.13212265 0.051815145 0.15060887 0.03212929
0002e0 8b ba 3e 3e 39 ba f3 bd 12 4c 27 be 1a 53 67 be
       0.18625848 -0.119007535 -0.16337612 -0.22590294
0002f0 e1 04 88 bd 8b 7a 72 bd 91 df 9b bd 81 27 14 3c
       -0.066415556 -0.059198897 -0.07611001 0.009042622
000300 8a ec 89 be 7a 46 5b 3e 37 6c 8a 3d c2 9a 59 3e
       -0.26938277 0.21413603 0.067589216 0.21250442
000310 48 1a 59 3e e0 cf 76 3e a4 35 5b bd 2b 73 61 bc
       0.21201432 0.24102736 -0.053517953 -0.013760368
000320 8e aa 83 be d7 9d 86 3d 9e 5f 7a be 13 78 2c 3e
       -0.2571606 0.06573074 -0.24450538 0.1684268
000330 71 5a 93 3a 8b b2 98 3e 98 a9 8e 3d 8f db 6b be
       0.0011242164 0.29823717 0.06965941 -0.23032974
000340 23 a0 c1 3d 40 98 86 be 36 27 fe bd 4e ca 48 be
       0.09454372 -0.26288033 -0.12409823 -0.19608423
000350 f3 76 09 3d f3 12 7f be 5f 10 bc be c4 54 96 be
       0.033560704 -0.24909572 -0.3673124 -0.29361546
000360 5b 9a 65 be 42 2b da bb 09 86 f2 3d 44 11 ad 3d
       -0.22422163 -0.0066579888 0.118419714 0.08450559
000370 88 f1 35 be a1 13 47 3d 86 71 4f 3e 56 b9 5b 3c
       -0.17767918 0.048602704 0.2025815 0.013410887
000380 6a 45 0f 3e 90 ed 3e be 63 00 46 3e e3 1e 20 3e
       0.13991323 -0.1864531 0.19336085 0.15636782
000390 f4 3e 03 3d 3e 29 97 be d6 f4 17 bd 33 e6 93 3c
       0.03204246 -0.29523653 -0.037098728 0.018054103
0003a0 25 d9 90 be c4 32 33 be 54 2f 3d 3e c6 98 a6 be
       -0.28290668 -0.17499834 0.18475085 -0.32538432
0003b0 13 ec f8 3d 5b ba 3a 3e f1 68 29 3e 22 26 33 3d
       0.121544026 0.18235151 0.16543938 0.04373754
0003c0 1c d7 d0 3b a9 81 13 3d 68 59 2a be 68 47 5a be
       0.0063732993 0.036012325 -0.16635668 -0.21316302
0003d0 28 9f 0c be 42 7b fe bc 9e 52 fa bd e3 84 2e be
       -0.13732588 -0.031064633 -0.12222789 -0.1704288
0003e0 56 94 2f be d0 ae b6 3d 70 0d 43 3e 2f a0 4d 3e
       -0.1714643 0.089200616 0.19048095 0.20080636
0003f0 47 ed 57 3e 38 36 60 be 6e 62 87 be 17 11 0c be
       0.21086608 -0.21895683 -0.26442283 -0.13678394

conv_out.bias f4 [32]
000000 d9 1c 9b bc ec f8 62 3b 40 a3 d2 3c 48 1c d8 3c
       -0.018934654 0.0034633232 0.02571261 0.026380673
000010 23 57 c7 3c 10 81 e3 3c 2d 36 ca bc 4a 9f d9 bc
       0.024333542 0.027771503 -0.024684036 -0.026565213
000020 de 85 d0 bc 08 57 d6 3c 84 c8 1b bd b3 9f e9 bc
       -0.025454458 0.026164547 -0.038033023 -0.028518533
000030 93 10 ae bc a9 a3 8c 3c 54 b2 53 3c 0c e2 79 3c
       -0.021248138 0.017167883 0.012920935 0.015251648
000040 b6 a6 98 bc 48 8b a2 3c 6b 74 c4 bc 68 e7 c1 bc
       -0.018634181 0.019841805 -0.023981294 -0.023669913
000050 d3 78 d2 bc 6b 19 27 bd 38 c9 ca bc 8d a6 ce bc
       -0.02569238 -0.040795725 -0.024754152 -0.025225902
000060 40 ab be 3c 75 b4 cf bc ba a7 a9 bc 70 c5 c5 3c
       0.023275018 -0.025354603 -0.020709861 0.024141997
000070 c8 72 cb 3c 5f a5 da 3c c5 ce af 3c db 48 d1 3c
       0.024835005 0.026690183 0.0214609 0.025547436

conv_out.lin.weight f4 [32, 32]
000000 ff 64 64 bd bd 4c 36 3c 96 e1 91 be 5a 0c a4 bd
       -0.05576038 0.011126694 -0.2849242 -0.080101684
000010 b2 1b b6 3e d7 fe a9 bd b5 49 e8 3d 5b 55 e9 bd
       0.35568005 -0.0830056 0.113421835 -0.113932334
000020 f5 71 9f be aa 3d b8 3d 78 61 5a 3e 71 d2 a0 3e
       -0.3114163 0.089961365 0.21326244 0.31410554
000030 09 3f 78 3e 8a f6 53 3e 23 67 00 3d c1 44 d7 bd
       0.24242796 0.20699516 0.03134836 -0.10511161
000040 e4 fd 73 bd f2 7d 7d 3d 66 18 6c be f0 a7 6a 3d
       -0.0595683 0.06188769 -0.23056182 0.057289064
000050 a4 6a 80 bd 76 d0 e0 bd 20 20 95 3e 99 5a 27 bd
       -0.0627034 -0.10977261 0.29126072 -0.040857885
000060 84 3f 99 bd d7 0e 51 be 37 84 03 3e db 6f 12 be
       -0.07482818 -0.20415817 0.12843405 -0.14300482
000070 2a 4c 25 be 5e 14 85 be 27 64 68 bd e0 e1 12 3e
       -0.16142336 -0.259921 -0.056736138 0.14343977
000080 c5 5b 93 be 70 6c df bd 0f b4 09 3d ac 6a 86 3e
       -0.28780952 -0.10909355 0.033618983 0.2625326
000090 c8 b4 0d be 1c 0a ab 3d 42 43 e0 3d d6 d0 9e be
       -0.13838494 0.083515376 0.109503284 -0.31018704
0000a0 c1 bc 6b be 82 16 6e 3e 0d 16 38 3e e3 f2 42 3e
       -0.23021223 0.23250774 0.17977162 0.19037966
0000b0 17 1c 91 be 77 64 a6 3d db 36 6a bd f4 a0 78 3e
       -0.28341743 0.08124631 -0.05718122 0.24280149
0000c0 53 c8 5b be 53 4f 6b bd 08 c0 15 3e aa f2 38 be
       -0.21463136 -0.057448696 0.14624035 -0.18061319
0000d0 4a 44 43 3e 29 a7 f3 3d 55 cc 46 3e dc f4 60 3e
       0.19069019 0.11897118 0.19413884 0.21968406
0000e0 05 25 f8 bd d3 fe be 3d 81 4b 1f 3e 95 21 bd bd
       -0.12116436 0.093259476 0.15556146 -0.09234921
0000f0 6f e3 fe ba 45 58 d8 3d 55 74 1c 3e 2d d5 89 be
       -0.0019446443 0.10563711 0.15278752 -0.26920453
000100 3c b9 6c be af 18 3b be 5a e9 8e be 0f e7 53 3e
       -0.23117536 -0.18271135 -0.27912408 0.2069361
000110 9d e9 d7 3d c6 ed 03 3c 21 38 f8 bd 4f 77 33 be
       0.10542605 0.008052295 -0.12120081 -0.17525981
000120 2c fd 5f 3e 14 fc 44 3e 87 a1 2f 3e aa 8a 64 be
       0.21873921 0.19236785 0.17151462 -0.22318521
000130 00 3c 67 3e 9f 26 a0 3e dc f4 8b be 04 1c 46 be
       0.22581482 0.31279466 -0.2733525 -0.19346625
000140 6c 21 f0 bd 4a cf bb bd e1 b2 69 3d 29 36 12 3e
       -0.11725125 -0.091703966 0.057055358 0.14278473
000150 af d0 96 be 65 f8 ac 3e f2 66 ca bb 71 ee 9d 3e
       -0.29456088 0.3378326 -0.006176823 0.3084598
000160 de b2 ad 3e 45 77 16 be 1e f2 7f 3e 05 5e 5b be
       0.33925527 -0.14693935 0.24994704 -0.21422584
000170 0d af 39 bd 4f 1d 95 be 32 b9 06 be ce a1 5c 3e
       -0.045332957 -0.29123923 -0.13156584 0.21546099
000180 cc 9b 42 3d 96 d8 96 3b 7e 27 6f be dc 46 01 be
       0.04751186 0.004603456 -0.23354909 -0.12624687
000190 69 2d 3a bd 98 ad 0e 3e ff b0 be 3d d3 b7 50 be
       -0.045453463 0.13933408 0.09311103 -0.20382623
0001a0 82 cc 87 3e 91 3a 2f 3e 99 8a 91 3d d5 65 6a be
       0.26523215 0.17112185 0.071065135 -0.22890408
0001b0 6b 6d 82 be 53 df 48 be 6d 73 72 bc 7a df a6 be
       -0.25474104 -0.19616441 -0.014798027 -0.32592374
0001c0 6e cb 55 3e c9 2c 09 be aa 06 7e 3d 25 4d 90 bd
       0.20878384 -0.1339599 0.062018074 -0.07045964
0001d0 4d 44 6f bd 06 73 3e 3d dd 9b 16 be 55 34 87 3e
       -0.058414746 0.046496414 -0.14707895 0.26407114
0001e0 eb b2 29 3e 98 b2 6d be ed 2c dc 3d 4e 72 7c 3e
       0.16572158 -0.2321266 0.107507564 0.24652979
0001f0 5f cf 3a be 94 09 92 be 31 e6 01 be 34 44 4e bd
       -0.18243168 -0.28522933 -0.12685467 -0.050358012
000200 8b 5b b7 bd cc c4 01 be ca 2b 9c be a2 87 2b be
       -0.08953007 -0.12672728 -0.30502158 -0.16750959
000210 66 34 7e be 76 d9 19 bd 7b 07 0a 3e 2a 82 10 3e
       -0.24824676 -0.037560903 0.13479416 0.14112154
000220 0f 13 57 be b0 51 b4 3c b1 ff d5 3d 52 33 05 3d
       -0.21003364 0.022011608 0.1044916 0.032519646
000230 66 bc 6d be 45 cb d3 3d ac c7 9f bd 87 94 f8 bd
       -0.232164 0.10341505 -0.07801756 -0.12137704
000240 ff da e6 3d b9 35 59 be 22 b1 67 3e 1e e8 9c 3e
       0.11272239 -0.212119 0.22626165 0.3064584
000250 46 db 8d be 4e 13 84 3e fe 48 98 be 3b 1c 1f 3e
       -0.27706355 0.25795978 -0.2974319 0.15538113
000260 0b 96 3b 3d 7b 75 74 be 01 c5 f4 bd 37 c9 aa bd
       0.04579739 -0.2387294 -0.11951638 -0.0833916
000270 9d 62 90 be b3 f8 29 be 27 3c 97 be ed b8 63 be
       -0.28200236 -0.16598777 -0.2953808 -0.22238512
000280 70 f2 9e bd f2 84 9b be 4e a9 25 3d 11 eb 7c bc
       -0.07761085 -0.30374867 0.040444665 -0.015436904
000290 e2 24 db bb 23 b8 88 be 6c 4c 85 be 4f b6 bc 3d
       -0.0066877464 -0.26702985 -0.26034868 0.0921446
0002a0 69 5b 27 3d c5 48 a9 bd ac ba aa 3d 07 9f 83 3d
       0.04085866 -0.08265833 0.08336386 0.064268164
0002b0 dc 50 46 be 95 76 42 3e 8f cb c2 be 8e b2 7b be
       -0.19366783 0.18990548 -0.38045928 -0.24579832
0002c0 0b a9 ba 3d cc d5 19 be 0b e4 12 be f7 3e 79 bd
       0.09114274 -0.15022963 -0.14344804 -0.060851064
0002d0 0f 41 ec 3c 60 8e 77 bd 8e da 92 be 78 60 5b be
       0.028839616 -0.060438514 -0.2868237 -0.21423519
0002e0 d4 a0 d6 3d 53 ae a4 be 37 42 04 bd 81 49 25 3e
       0.10479894 -0.3216425 -0.03228971 0.16141321
0002f0 89 d3 d4 bd f9 a1 e3 bd 25 f3 98 bd 7f 0f b7 3e
       -0.1039191 -0.11114878 -0.07468251 0.3575401
000300 aa 95 83 3e 31 01 a2 3e ce b9 82 3e 41 28 93 3d
       0.25700122 0.31641534 0.25532383 0.07185412
000310 3b 0d 42 3e 21 8c 5f 3e bc 2e 58 3e 52 38 a5 3b
       0.1895036 0.21830799 0.21111578 0.0050421143
000320 cb 99 03 be 85 b9 a0 be 6b 0d f9 bd fc ea c2 bd
       -0.12851636 -0.3139154 -0.121607624 -0.09517476
000330 90 3d c6 3d 3a 5f ec 3d 98 88 c5 3c 5b 69 70 3d
       0.09679711 0.115416005 0.024112985 0.058694225
000340 9e b5 8f 3c 7d ff 41 3e 27 8e 8a be 55 87 75 ba
       0.017542657 0.18945117 -0.2706158 -0.00093661743
000350 2b 43 88 3e 59 bc 61 be c9 4a 9e 3e 5d 39 95 be
       0.26613745 -0.22044505 0.30916432 -0.29145327
000360 c2 9e 89 be 5d 7f 83 3d f7 4d 40 bc 1e 55 50 be
       -0.26878935 0.06420777 -0.011737338 -0.2034497
000370 35 f8 bb 3d ef ea 47 be 12 38 49 3e 47 80 80 be
       0.09178201 -0.19523214 0.19650295 -0.25097868
000380 f3 32 bf 3c 28 50 a5 3e 37 c7 06 be 9b 76 92 3e
       0.023339724 0.32287717 -0.13161932 0.28606114
000390 d5 69 b4 3e 02 48 3b 3e 83 a9 4d be dc 63 99 3d
       0.35236993 0.18289188 -0.20084195 0.0748975
0003a0 9e e0 b1 be 9c a2 18 be d7 3b d4 bc e3 e7 a4 3e
       -0.34741682 -0.1490578 -0.02590744 0.32208166
0003b0 df 06 4b 3e e9 98 cb bd 11 f7 23 bd fa c6 a6 3e
       0.1982684 -0.09941275 -0.040030543 0.32573682
0003c0 87 63 19 be 3b 59 05 3e 04 a1 90 3d 07 fe fd bd
       -0.14979373 0.1302232 0.07061961 -0.124019675
0003d0 10 76 13 3e 58 5e da bd bb 83 ad 3e 6b 2a 0f bc
       0.14400506 -0.10662526 0.33889565 -0.008738141
0003e0 8b 43 a7 ba 81 bf bc 3d ee 04 ee 3d a2 7a 07 be
       -0.0012761218 0.09216214 0.11622034 -0.13230374
0003f0 bd 82 61 3e 48 1b ff 3d 67 f3 76 3e de 30 b2 be
       0.22022529 0.12456375 0.24116288 -0.34802908

fc.weight f4 [1, 32]
000000 e0 26 ac 3c af de 8d 3c 76 d8 3e be 82 e9 1f be
       0.02101463 0.017318098 -0.18637261 -0.1561642
000010 97 f4 06 be f2 e2 0e be b1 90 3b 3e 8b 05 48 3e
       -0.13179241 -0.1395376 0.18316914 0.19533364
000020 6f 38 e9 3d 56 ab 3a be 3e 1e fa 3c 4a c5 bc 3c
       0.11387717 -0.18229422 0.030531999 0.023043294
000030 c9 1f 65 3d 9b 0f ba bc 71 0e a5 bc d9 f9 ad bc
       0.055938516 -0.02271252 -0.020148488 -0.0212373
000040 64 7b 10 3d a5 23 4f bd 2f 85 13 3e 8e 78 0e 3e
       0.035273924 -0.050571103 0.14406274 0.13913175
000050 cb 1d 4c 3e 01 91 dd 3d bc 24 68 3e 1e 72 23 3e
       0.1993324 0.10818673 0.22670263 0.15961501
000060 d4 0a 86 bd 6f 44 20 3e 0f 37 42 3d 23 ed 3e be
       -0.06545034 0.15651105 0.04741579 -0.18645148
000070 df 85 28 be be bc 57 be c5 73 17 be e1 b3 71 bd
       -0.16457318 -0.21068093 -0.14790256 -0.059009437
