atropos/trained_model/nhot/answer/not_add/5/best_acc.pt (torch, 17042 bytes, 5 tensors)

conv1.bias f4 [32]
00000000: 5870 143d 9183 12bb 5c9a dbbb 1a11 71bd
00000010: 61d7 23bc 71ec 03bc bb0f 86bc 6477 e7bb
00000020: 5561 cdbc b1fe 3abd 608d cb3c 133f 263c
00000030: fd15 41bd c5d9 01bd 6d52 68bc 4544 ddbc
00000040: bff7 d8bb 6875 af3c 0c01 c13c 1dd4 8ebb
00000050: 79e9 973d 0a55 d1bc bf57 39bc 19ae ee3c
00000060: cc49 c2bc 0e5b 8c3c 19ec 153c 344d 1b3d
00000070: c7a8 183d 1ba2 dc3c 8d47 d33c 8632 63bb
0.03623995 -0.0022356252 -0.0067017507 -0.0588542 -0.010000081 -0.0080519775 -0.016364923 -0.007063793
-0.025070826 -0.04565305 0.024847686 0.010146874 -0.04714011 -0.03170182 -0.014179808 -0.027010093
-0.0066213305 0.021418288 0.02356007 -0.004358782 0.07417578 -0.025553245 -0.011312424 0.02913575
-0.02371683 0.017133262 0.009150528 0.037915424 0.037270334 0.026932767 0.025790954 -0.0034667565

conv1.lin.weight f4 [32, 74]
00000000: 375f 37be 5139 9e3d 2f49 efbd 6719 423e
00000010: b1af 7a3d 08e2 b53d fc4d ab3d 797c fb3b
00000020: e18f 90be 9212 2d3d 69aa 933d f162 383d
00000030: c128 3fbd 79da c4bd e969 443e 44ef 77bd
00000040: ea4d 45be 7230 803e b119 e93d ccb3 3bbe
00000050: bff5 7dbe 662c 393d 6145 373e 95f5 eb3d
00000060: 6875 423e 9003 dfbe 0681 953d 920f 2dbc
00000070: 1932 163d a5ac 213d 1467 29bc 5daa 1bbd
00000080: ecc9 fc3a f7a3 15bd 5873 313e 574b 2f3e
00000090: e1ab 5ebd 4dc4 443e 1a2d 8c3e 6781 2dbe
000000a0: 15ee 153c c38c acbe 4c5a 86be cb25 8d3e
000000b0: 59a1 4e3e e1a8 f83d 839e 04be 05fa be3e
000000c0: 323a 0fbe 8571 a53e 0a44 823b 9826 2d3e
000000d0: fa1c 013e 5855 973d 9e8a 1cbd 7796 9c3e
000000e0: 19f0 993e 215c 213e 42dc ba3d 99c7 d33d
000000f0: bfef 0dbe 6f72 5f3e 3d3c 743e 8f6e eebd
00000100: af08 823e c98f 623e 79e5 6cbe a9ed 143e
00000110: a8ba 613e 1bc1 33be 7417 07bd df3a 4d3e
00000120: f8ba 803e cbf5 acba 338f 28bd 432e 99bd
00000130: d339 803d 5d4b 12be 92be 59be ebe6 37bd
00000140: 2575 653c 12e8 a3bb 55e0 ebbd 51de cfbd
00000150: 4db1 26bd 4dc5 3fbe 18fe 493c fb1f fb3d
00000160: d4c1 bc3d 27a0 5a3c ecfd 5ebe 993a 893d
00000170: 4587 19bc 5205 0b3e 6563 383e be0e 4cbb
00000180: 8e2d 593e 7ea7 ae3d b7c6 6dbd 9ea5 d33e
00000190: 80c7 953e f18c 123e 9b21 41be 2e91 6d3b
000001a0: 8493 a7bd f1a2 02bd c674 373e 5f8d b9bd
000001b0: bd7d d8bd 3a28 423e f043 71be 078a 35be
000001c0: 13cb 27be ca12 253e f771 273d 8993 b73e
000001d0: 7363 0dbe 666f 05be cd34 9cbe 3d10 0a3d
000001e0: 94b3 0abe 1545 1ebe 9dc7 133e 95fc e6bc
000001f0: 83af 57bc 588d 96bb 2899 82be f07b c3bd
00000200: e550 fbbd f2cd f7bd 2a8f 7ebe a411 d23c
00000210: 2620 6cbe e348 043d bf16 7dbd ca76 6cbe
00000220: 91e0 343e 5c66 acbd e7fa 123e 077a f93d
00000230: 6252 43be 56e9 63be 28bb 9abd 1432 09be
00000240: 44aa 21be 3766 a13d 47fe b3bd e14b 84bd
00000250: c937 2a3c b2c6 fc3d 5ea3 603e 69a5 443e
00000260: 2f23 d13d 74d3 3c3e 9450 0cbe e5be cdbc
00000270: 4edf 6abc b4ee 0dbc 44e3 fe3d ee34 22bd
00000280: 7b05 06be 9c1f fa3d c948 103e 78d3 f6bc
00000290: 7500 fcbd c79e cc3d 790d 473e 7780 9b3d
000002a0: f93e 0e3d d59e 27bd ef8e 9ebc f06f 30be
000002b0: 60a4 27be 179d a23d 6d72 943c 2c7c ffbd
000002c0: 6870 ccbd c93c d63d c1fd 78be 86ce fa3d
000002d0: 49de a23d dbe5 75bd 1071 cd3c 73bf 0e3b
000002e0: 2451 46be 07a8 563d ad4c 01be 3a7f ccbd
000002f0: fdfc 5c3d 61c9 a3bc 1cd7 79be 4ad6 d8bd
00000300: efe9 aa3e 8630 3e3e 273e bd3d 4164 d73d
00000310: 5131 833e bc39 c13c cb00 cdbd 9132 8d3e
00000320: 5ac0 ddbc 8a03 24bd 1c75 b13e a5da 2fbd
00000330: 9c21 f23c ae77 76bd 6ff3 883e 37d3 823e
00000340: bccd 1e3e 3048 893e 6141 c33d 0648 bdba
00000350: fb6a 753e a744 563e b3f1 823e 6ebc a03c
00000360: a09b 5a3d 23e3 4e3e 07c5 ac3d 52ea d7bc
00000370: f495 973e 64e7 6f3e 425e 493e b56e 4bbe
00000380: ecf0 06be d188 843e c8d7 5fbe 32f9 3abe
00000390: 0bf9 ab3d 38c6 acbb 6893 aa3d 8442 123e
000003a0: 4059 a8be be74 3f3e b214 35be 30c2 333e
000003b0: e7de 893d 0022 223d 971d 073e c9d9 debd
000003c0: e997 ce3b f360 923d e4e4 d7bd 03a7 e33d
000003d0: 8e8e bcbd 4da2 cf3d 65d5 2f3e 0489 0a3c
000003e0: c8f4 19be 1d34 c1bc 3606 9f3c 23e9 1dbe
000003f0: ddfb ce3d ebaf 75bd b58e 96bd 2d9c 21be
-0.17907415 0.07725776 -0.116838805 0.18955003 0.06120271 0.08881003 0.08364484 0.0076747504
-0.2823477 0.04225404 0.072102375 0.045016233 -0.046669725 -0.09611983 0.19181027 -0.060530916
-0.19268003 0.2503696 0.11381853 -0.18330306 -0.24800776 0.045208357 0.1789756 0.115214504
0.189901 -0.43557405 0.073 -0.010562794 0.03666887 0.039471287 -0.010339517 -0.038004268
0.0019286252 -0.036533322 0.17329156 0.17118584 -0.054363135 0.19215508 0.2737816 -0.16943894
0.009151001 -0.33701143 -0.26240766 0.27567896 0.20178737 0.12141586 -0.12951092 0.37300125
-0.13987043 0.3231317 0.003975396 0.16909254 0.1260871 0.07389325 -0.038218133 0.30583546
0.30065992 0.157578 0.09124042 0.103408046 -0.13860987 0.21820997 0.23851104 -0.11642181
0.2539725 0.22125162 -0.23134412 0.14543785 0.2204386 -0.17554133 -0.03298135 0.20041989
0.25142646 -0.0013195811 -0.04115219 -0.07479527 0.06261029 -0.14286561 -0.21264103 -0.044897955
0.01400498 -0.00500203 -0.11517397 -0.10149825 -0.04069643 -0.18727608 0.012328647 0.12261959
0.09216657 0.013343847 -0.21776551 0.0670063 -0.00937063 0.13576248 0.18006666 -0.0031136717
0.21208784 0.0852804 -0.058050837 0.41337293 0.2925377 0.14311577 -0.18860476 0.0036249864
-0.08182433 -0.031893674 0.1791564 -0.090601675 -0.10570858 0.18960658 -0.23561072 -0.17728435
-0.1638606 0.16120449 0.04088017 0.35854748 -0.13807468 -0.13030776 -0.30509034 0.033706892
-0.13545066 -0.1545604 0.14431615 -0.028196612 -0.013164404 -0.004594486 -0.25507474 -0.095451236
-0.12271289 -0.12099828 -0.248593 0.025643177 -0.23059139 0.032296073 -0.06178927 -0.2309219
0.1766379 -0.08417961 0.14353524 0.12181478 -0.19074395 -0.2225698 -0.075552285 -0.1339801
-0.15787607 0.07880824 -0.08788734 -0.06459785 0.010389277 0.123425856 0.2193732 0.19203724
0.10211789 0.18440038 -0.13702613 -0.02511544 -0.014335467 -0.008662868 0.12445691 -0.03960126
-0.13088028 0.1221306 0.14090265 -0.030130133 -0.12304775 0.09991222 0.19438733 0.07592862
0.034728024 -0.04092296 -0.019355265 -0.17230201 -0.16371298 0.07940119 0.018120969 -0.12474856
-0.09982377 0.104608126 -0.2431555 0.122464225 0.07952554 -0.06003366 0.025078326 0.0021781593
-0.1936689 0.052406337 -0.12626906 -0.09985204 0.053952206 -0.019993486 -0.24398464 -0.105877474
0.33381602 0.18573198 0.0924037 0.10517169 0.25623563 0.0235871 -0.10009917 0.27577642
-0.02706926 -0.040042438 0.3465966 -0.042933125 0.029557042 -0.06017273 0.26748225 0.2555177
0.15508169 0.26812887 0.095339544 -0.001444102 0.23966591 0.20924626 0.25575027 0.0196211
0.05337107 0.20203833 0.084360175 -0.02635685 0.29606593 0.23428112 0.19664863 -0.1986645
-0.13177842 0.25885633 -0.21859658 -0.18259123 0.083971106 -0.005272653 0.08328897 0.14283186
-0.32880592 0.18696877 -0.17683676 0.17554545 0.067319684 0.039583206 0.13194881 -0.10881383
0.00630473 0.07147398 -0.10541704 0.11115839 -0.09206878 0.10138378 0.17171247 0.008455519
-0.15034783 -0.02358442 0.019412141 -0.15420966 0.10106633 -0.05998222 -0.07351438 -0.15782233

conv_out.bias f4 [32]
00000000: 3671 7cbb 8cdc 3cbc a588 fb3b cee4 3c3c
00000010: 1216 4fbc e55e d53b f2d2 32bc f14f aa3c
00000020: 9b40 90bb 7cad 85bc 746a 1aba 838c 93bb
00000030: 1e5e f5bb a5c7 94bc 3e3b 00bc 4e59 2ebc
00000040: 1b74 1d3c ed6c 5f3b 4596 95bb 005e a93b
00000050: cd0b 193c 519b d9bb 74c9 ecbb db7b ac3c
00000060: 5340 3fbb 8c1c 14bc e353 3abc bbb9 17bc
00000070: 5538 f3bb 11be 1a3c 0686 58bd d54c 24bc
-0.0038519627 -0.011527192 0.0076762014 0.011529161 -0.012639539 0.0065115565 -0.010914551 0.020790072
-0.004402233 -0.016318075 -0.00058904965 -0.0045028343 -0.0074880263 -0.018161604 -0.007826624 -0.010641409
0.009610201 0.0034092024 -0.0045650327 0.0051686764 0.009341192 -0.0066408296 -0.0072261635 0.021055153
-0.0029182627 -0.009040009 -0.011372539 -0.00926059 -0.007422487 0.009444729 -0.05286219 -0.010028084

conv_out.lin.weight f4 [32, 32]
00000000: cb7c 823e 25f4 cfbe 410d 6dbe 638e efbd
00000010: cd25 39be 0337 143e b252 ba3e 2e95 78bd
00000020: e94b dc3d d5b3 0ebc 604c a73d 6e40 a5bc
00000030: af48 903d bf1f db3c 0d7a f8bc e5e6 6d3e
00000040: 1419 15be d97a 8ebd 0de9 35bd f9ea 6d3d
00000050: 5dde c6be e0c8 90bd 5b1a 9fbe aee9 b8bd
00000060: 6a0a 61bd 5448 b4be 57f7 263e 4bf1 f73d
00000070: a03c 023e 3413 6fbc 544d b6bd 966f 53bd
00000080: f2ad 7b3e 0f03 28be 85ac 6ebe 88af 763d
00000090: 6841 fabd dcab dcbd bbf6 27bc d111 b43e
000000a0: f5d5 6f3e 777f a43c 1566 9b3e 584c 28be
000000b0: cf16 183e c670 433e dd29 3c3e 9e8d d33d
000000c0: 2e4b 633e c6a6 80be 0533 503e 4446 473e
000000d0: 16d1 0dbe 7498 8e3e 7ee0 35bd ec7a c3be
000000e0: ce1f 1bbd 2128 663e 3f27 033e 86ab 82bd
000000f0: ed40 cbbe 87ff 4b3e 4dff 833d 4168 793e
00000100: fb98 1abe 8f04 adbd 5d13 5a3d d49f 9ebe
00000110: 912e eabd 8a96 ae3e 9cba 76be 6750 a2be
00000120: 7639 2a3e 8dde c4bc d431 94bd 40d2 843e
00000130: 72c5 d23d 4a1f df3d 0316 a7be 5dee f8bd
00000140: 3825 41be 4538 46be afec a8be fb86 83be
00000150: 48be a63e 21ee 083e fde8 383e 0a70 23be
00000160: 4db2 e5bc 77ad 12be e4bb 28bd 38b0 7e3d
00000170: 0cdb a43e 2004 a7be 9ff7 9dbc f190 13be
00000180: 6fbd aebe 91dd cf3e 7574 143d 04b5 17be
00000190: 2264 673e 20ee 913e 0f93 e43d cf9f 94bd
000001a0: 4952 98be 02c1 46be 7934 3b3d 7959 963e
000001b0: 7f6e a9bd e1f4 8bbe 12e5 94be b0de 893e
000001c0: 23c2 40be 5138 e5bd a10d c5be 3e81 dcbd
000001d0: 5f9c 1e3e 291a 403e 82a0 be3e 02b3 23be
000001e0: ea95 073e 04c6 babd 3c9e 26be 2a0b 3e3e
000001f0: dda3 4b3e ab9c ae3d 7340 a93e dd73 4bbe
00000200: a348 623e 1931 5cbe 6b3e 85be 6ef8 c43e
00000210: e17d a23c edfd 99be 187d 343e 6b8d 2f3e
00000220: a417 49be 4738 02be da22 a23e 69b5 85be
00000230: 5ccc 513e f3c2 8c3c 40b0 7d3e 8911 f9bd
00000240: 36c7 8b3d dcb3 6bbe 289c b93d bf5e 903e
00000250: de79 763d df38 b83b af83 acbd 1bab 21be
00000260: 1709 933e 609c 15be 9689 19bd aef8 443e
00000270: 4be2 72bd e781 683e d89d 353e 230c 993e
00000280: 8a20 7e3d 8404 243e 4c69 473e eca2 94be
00000290: b653 a1be 9560 63bd 1df2 b5be ab34 17be
000002a0: b123 8fbe 98a9 8fbe a9a3 f6bc 1a93 a13e
000002b0: 8b76 5b3e 48b6 74be 7acc 8abd a632 09bd
000002c0: a14d 01be 8c47 80be 5527 97be 6cd8 8dbe
000002d0: c0e0 a03e 5464 273d 7f0f 6c3e 61b0 033e
000002e0: 71ee 59be 1fd2 41be 15db a8be a432 963e
000002f0: 924c ce3d 1da9 8d3d 886f f63c c744 f6bd
00000300: 1b61 8a3d 2462 72be 83e9 393e fce9 723e
00000310: a5a3 603e 7209 9b3d 49fb a63e e6b4 853e
00000320: aa87 283e ba43 9abd f93f 05bd ac60 24be
00000330: 9c0c ca3e 2778 3d3e 29fe 7c3d 93de 0abe
00000340: 3413 8c3c 8307 123c da9d a33c 569f c13e
00000350: 5707 aabe dd74 793e 2d8d a1be 6803 d4bd
00000360: d9ef e2bc 0cc7 88be e11c a43c c01c b3be
00000370: 8fd5 bb3d 9600 d53e 2490 98be a2f4 a63e
00000380: 7eb2 6fbe 5e53 833e fd0b f6bc 38df db3b
00000390: b408 0b3e 6252 ee3d b737 7fbe 1edb f5bd
000003a0: 277e 463e b0d5 793c 7dae bbbe 1250 aabd
000003b0: 41bc 15bd e985 963b e736 b3be c125 11be
000003c0: 357f 823d e3ff bcbd c49c e6be cc6d f9bd
000003d0: 38a5 9e3e ec4c 6c3d 8191 efbd d384 9a3d
000003e0: d3f8 37be b637 ad3e cdaf 653c 65ac b83d
000003f0: 0ad6 043e e090 013e 9c3c 3abe d51c 993d
0.25485834 -0.40615955 -0.23149587 -0.1169708 -0.18080826 0.1447411 0.36391217 -0.060689144
0.10756666 -0.0087098675 0.08168864 -0.020172324 0.07045113 0.026748536 -0.030331636 0.2323261
-0.14560348 -0.06957025 -0.044411708 0.058085416 -0.38841525 -0.07069564 -0.31074795 -0.09028946
-0.054941572 -0.35211432 0.1630529 0.1210657 0.12718439 -0.014591981 -0.08901468 -0.05162009
0.24578074 -0.16407417 -0.23307998 0.060225993 -0.122195065 -0.10774967 -0.010251696 0.35169843
0.23421462 0.020080311 0.3035132 -0.16435373 0.14852451 0.19085988 0.18375345 0.10329746
0.22196648 -0.25127238 0.20331962 0.19460398 -0.13849291 0.27850688 -0.044403546 -0.3817972
-0.03787213 0.22476245 0.1280794 -0.06380372 -0.39697972 0.19921695 0.06445179 0.24356176
-0.1509742 -0.08448135 0.053241123 -0.30981314 -0.11434663 0.34099227 -0.24094623 -0.31701967
0.16623482 -0.024031902 -0.072360665 0.25941658 0.10291566 0.1089464 -0.3263398 -0.12154839
-0.18861854 -0.19357403 -0.32993075 -0.2568892 0.32567048 0.13372089 0.18057628 -0.15960708
-0.028039122 -0.14323984 -0.04119481 0.062179774 0.3219837 -0.32620335 -0.019283114 -0.1441076
-0.341289 0.4059873 0.036243875 -0.14815146 0.22596791 0.28501987 0.11160862 -0.072570436
-0.2975028 -0.19409564 0.04570434 0.29365137 -0.082730286 -0.27335265 -0.29081017 0.2692771
-0.18824057 -0.11192382 -0.3848696 -0.107668385 0.15489338 0.1875998 0.37231833 -0.15986255
0.13240781 -0.091198 -0.16271299 0.18558946 0.19886728 0.08525976 0.33056983 -0.19868417
0.22098021 -0.21503104 -0.26024184 0.38470787 0.019835414 -0.30076542 0.17625844 0.1714379
-0.19637924 -0.1271678 0.31667215 -0.26114967 0.20488113 0.017182803 0.24774265 -0.12161548
0.06825106 -0.2301783 0.090629876 0.28197286 0.060174815 0.005622014 -0.08423554 -0.15787928
0.28717873 -0.14610434 -0.037484728 0.19235489 -0.05929784 0.22705804 0.17735994 0.29892072
0.06204275 0.16017348 0.19473761 -0.2903055 -0.3150918 -0.05551203 -0.3553628 -0.14766185
-0.27956918 -0.28059077 -0.030107336 0.31557542 0.2143194 -0.2389766 -0.06777282 -0.033495568
-0.1262727 -0.25054586 -0.29522195 -0.2770418 0.3142147 0.040867165 0.23052786 0.12860252
-0.21282364 -0.18927811 -0.32979646 0.2933551 0.100731984 0.069170214 0.03008248 -0.12024837
0.06756803 -0.2367025 0.18155484 0.2372207 0.21937425 0.07570161 0.3261359 0.26114577
0.16458002 -0.07532449 -0.032531712 -0.16052502 0.39462745 0.18502866 0.061765824 -0.13561468
0.017099 0.008912924 0.01997273 0.37816876 -0.33208725 0.24360986 -0.3155302 -0.10352212
-0.027702259 -0.2671436 0.020033302 -0.34982872 0.091715924 0.4160201 -0.2979747 0.32608515
-0.23407933 0.25649542 -0.030035013 0.0067099594 0.13577539 0.11636807 -0.24923597 -0.12004684
0.19384061 0.015248701 -0.36656561 -0.083160535 -0.036556486 0.0045936 -0.35002825 -0.14174558
0.06371919 -0.09228494 -0.45041478 -0.12179145 0.30985427 0.057690546 -0.116976745 0.075448655
-0.17966013 0.33831567 0.014018965 0.09017257 0.12972274 0.12652922 -0.18187183 0.074762024

fc.weight f4 [1, 32]
00000000: cfb7 9b3d 55f6 223e 9d88 4cbe bae9 f9bd
00000010: 62db 583e 4c6b 53be aaaa 4c3e 67d7 7bbd
00000020: bd3d 353e df0c 083e 3c38 6d3d 165f 363e
00000030: 1879 783e b9e1 bc3d db4f 4f3e be76 af3d
00000040: 4547 5bbe b5a9 9bbd 6e81 af3d a9c7 35bd
00000050: 9e98 53be 09f1 8c3e 2fb8 083e 5230 90bd
00000060: e9f3 e93d 3f79 093e 738d fe3d 90d4 493e
00000070: 7b4b 4f3e bdb1 80be f722 173d ffe6 3b3d
0.07603418 0.1591428 -0.19973989 -0.12202783 0.21177438 -0.206464 0.19986978 -0.06148472
0.17699333 0.1328616 0.057914957 0.1780971 0.24264944 0.09222741 0.20245306 0.0856757
-0.21413906 -0.076007284 0.08569609 -0.044379864 -0.20663688 0.27527645 0.1335151 -0.07040466
0.11423475 0.13425158 0.12429323 0.19709992 0.20243637 -0.25135604 0.03689858 0.045874592
