atropos/trained_model/nhot/answer/not_add/2/best_acc.pt (torch, 13842 bytes, 5 tensors)

conv1.bias f4 [32]
000000 67 02 22 3d a5 70 a6 bd 72 58 d8 3c 00 fc 6a bc
       0.039553072 -0.08126954 0.026409362 -0.014342308
000010 b0 37 35 bd 9e 8c 80 bd 08 f6 ee bc 59 4c 8a bd
       -0.04424256 -0.062768206 -0.029170051 -0.067528434
000020 34 ef c5 3d 71 93 84 3d 55 b0 12 bd 27 08 02 bd
       0.09664765 0.06473435 -0.035812695 -0.031746056
000030 1d 82 4b bc b5 e1 c7 3b 36 7c 2c bd 1c 95 40 bd
       -0.012421158 0.0060999044 -0.042110644 -0.0470172
000040 72 48 a5 3c e8 0d a0 bc d4 23 c1 bb c1 aa 6f bd
       0.020176146 -0.019537881 -0.0058941636 -0.058512453
000050 96 0d 35 bd 9a 04 45 bd 3f 85 64 3d de 8d 4e 3c
       -0.04420241 -0.04810009 0.055791136 0.012607066
000060 1a 20 05 bd 48 1c d5 bc 94 3e a9 bc ff 69 24 bd
       -0.032501318 -0.026014462 -0.020659722 -0.04014015
000070 65 99 99 bb 9e e6 31 3b 43 b0 d5 3b 2b da 97 bd
       -0.0046874755 0.0027145515 0.006521256 -0.07414659

conv1.lin.weight f4 [32, 49]
000000 9d 50 21 be ae 7d 1e bc ed 8a 2d be ed d3 32 3e
       -0.15753408 -0.009673519 -0.16947527 0.17463656
000010 e3 c8 be bb 1e 52 6d 3e 5c 34 b3 bb b9 a3 e7 3b
       -0.0058222874 0.23175856 -0.005468888 0.007069078
000020 32 e5 65 bd 2f 9d f3 3d a9 3b 24 3e a3 59 1a bd
       -0.05612678 0.11895215 0.16038384 -0.03768314
000030 a3 54 c0 bd 9c ce b6 bd af 6c d2 be 36 ab 89 be
       -0.09391143 -0.08926126 -0.41098544 -0.26888436
000040 33 b8 62 be 08 e9 90 3e 6b 94 22 be 37 86 fb 3d
       -0.22140579 0.2830279 -0.1587693 0.12281459
000050 c6 7a 26 3e 72 e1 c3 bd 52 89 53 3e 1a 1b 25 be
       0.16257772 -0.09564485 0.20657852 -0.1612362
000060 15 72 84 bd 10 fc 82 be 07 f6 69 be 59 d3 74 be
       -0.06467072 -0.25582933 -0.22847758 -0.23908748
000070 16 f0 28 be e1 6b ff 3b 5b da 3a be e8 c5 38 3d
       -0.16497836 0.0077948426 -0.18247359 0.045110613
000080 79 0f 71 be dc 5b 5f be 5e 2a 59 be ff da 34 3b
       -0.23541059 -0.21812385 -0.21207568 0.0027596352
000090 ee 43 08 3e fe e9 20 be 78 9c 6e 3e 2a 9d 2b be
       0.13307163 -0.15714261 0.23301876 -0.16759172
0000a0 66 98 09 3e 71 e4 a3 3d 07 32 05 3d 8c 4c 39 3e
       0.13437042 0.08002556 0.032518413 0.18095607
0000b0 0a 3e b6 bd 27 8a 48 3b d0 3c 6a bc 3d ce 1d 3e
       -0.08898552 0.0030599923 -0.014296725 0.15410705
0000c0 b6 3e 3e bd b1 04 0d bc 5d 1e 8e bd 71 0f a6 3e
       -0.046446525 -0.008607076 -0.06939385 0.32433656
0000d0 6d 4d 39 3e e6 d8 f6 bd 22 7d 29 3b f1 d4 79 bd
       0.18095942 -0.12053089 0.0025861938 -0.060994092
0000e0 01 4e 14 bd 64 64 fd 3e 2c 99 98 bd 76 5c 2d bd
       -0.036207203 0.49490654 -0.0745109 -0.042324506
0000f0 2d 39 a3 3d 21 5c 20 be 5f ee 16 be 10 8d 2a be
       0.0796989 -0.15660144 -0.14739369 -0.16655374
000100 fa 55 0d be 39 54 8c be 53 ee 07 be d0 10 3e 3e
       -0.13802329 -0.27408007 -0.13274507 0.18561101
000110 f2 de f2 bd 3f c4 86 3d c9 e7 c5 3e 30 19 44 3d
       -0.1185893 0.065804 0.386534 0.047875583
000120 b3 74 4d 3d 49 d7 ad 3e 39 44 a7 3e 32 1c 68 be
       0.05016012 0.33953312 0.32669237 -0.22667006
000130 95 2c 3d 3e e7 50 81 bd 1e 31 77 3d 92 8e 08 be
       0.18474038 -0.06314259 0.060349576 -0.13335636
000140 0c 58 bb bd f7 bc 88 be e9 2c 3f bd 7b 17 83 3e
       -0.09147653 -0.2670667 -0.04667369 0.25603852
000150 76 c4 7a 3e 82 83 08 3e ca af 31 3e 3b 91 e1 bd
       0.24489006 0.13331416 0.17352214 -0.11014029
000160 15 50 7a 3e 82 78 25 3c e3 d4 d9 3d a3 8a 5c be
       0.24444611 0.010099532 0.10636308 -0.2153726
000170 dd 06 80 be 83 a9 02 3c 83 aa 06 3e 75 cb 83 be
       -0.25005236 0.007974985 0.13150983 -0.25741163
000180 2a cb 80 ba 64 4c 2b 3c ff a4 81 be 21 16 92 3c
       -0.0009826173 0.010455225 -0.25321195 0.017832818
000190 c7 fd 2a 3e bd 9e 24 3e a5 f2 86 bc aa 5b dc 3d
       0.16698371 0.16076179 -0.016473124 0.10759671
0001a0 64 98 63 3d 0c 62 60 3a 42 22 86 3c 78 e9 1f 3e
       0.055565253 0.0008559532 0.016373757 0.15616405
0001b0 55 8a 3e 3e f9 a9 e7 3d 1c 1e 09 3e 79 d2 cc 3d
       0.18607457 0.113117166 0.13390392 0.10001082
0001c0 8d 12 d5 3b c6 77 8a bd c9 dc 1e be b2 95 7b 3e
       0.0065024556 -0.06761126 -0.1551391 0.24568823
0001d0 14 5c b6 3d 75 0d 0d 3e f5 73 dd bd 85 63 48 be
       0.08904281 0.13774665 -0.10813133 -0.19569214
0001e0 c6 ef 7f bd 4c be d6 bd 4e de 7e be 2f 39 24 be
       -0.062484525 -0.10485515 -0.2488949 -0.16037439
0001f0 f3 17 1e be 81 10 1d be 67 78 84 be 21 bf 52 be
       -0.15438823 -0.15338327 -0.2587311 -0.20580722
000200 c6 d2 17 3c 7a 1e ec bc 24 63 85 3d 68 0e 94 3e
       0.009266561 -0.028823126 0.0651305 0.2891724
000210 15 34 28 bd c3 eb 08 be bd 78 0d 3e a0 19 89 3e
       -0.041065294 -0.13371186 0.13815589 0.26777363
000220 82 53 96 be 3a 79 06 be 8d 02 1a 3e d0 31 ab bd
       -0.29360586 -0.13132182 0.15040036 -0.0835911
000230 fd 7b ca 3d 8e 55 db 3d 7b ec 4d 3e ac 3e 4b 3e
       0.0988693 0.10709678 0.20109741 0.19848126
000240 50 29 c1 3e b6 26 e2 bd bf 78 b9 3e 4e b3 5b be
       0.3772683 -0.1104254 0.36224934 -0.21455118
000250 2c db 16 3e f5 36 8e be 90 41 02 be 26 83 e4 3d
       0.14732045 -0.27776304 -0.12720323 0.11157827
000260 c2 6d 1f 3e 94 3b 00 3e a3 6a 3b bd 4f a2 11 be
       0.15569213 0.12522727 -0.045755994 -0.14222072
000270 5a 48 91 bd d3 87 97 3e aa f7 37 be 04 f1 8c be
       -0.07093878 0.29595813 -0.1796557 -0.2752763
000280 79 9c d4 be 36 f4 77 be da 40 ef bd d1 9e 39 3e
       -0.4152563 -0.24214253 -0.11682291 0.1812699
000290 59 52 3f bd 64 eb f7 3d 38 9c 3d 3e 49 84 74 3d
       -0.046709392 0.12105444 0.18516624 0.05969647
0002a0 e6 3d 19 be 40 f7 be 3d 7b 63 2a 3e 1a 25 ce bb
       -0.14965019 0.09324503 0.16639511 -0.006291044
0002b0 97 a6 4d be 84 bb 8c be 1a 9c 1b bf ad 99 fd bc
       -0.2008308 -0.27486813 -0.6078507 -0.030957067
0002c0 bf c5 90 be dc 95 19 3e da 0b 2a be 15 e6 af be
       -0.28275868 0.14998573 -0.16606084 -0.34355226
0002d0 ed e3 8e 3e 2a 4d 8d bd 1a cd f6 bd 52 2f 99 3e
       0.2790827 -0.068994835 -0.12050839 0.29918915
0002e0 4a bd 79 3e e4 92 60 bd 16 32 a9 3e ff 15 00 3e
       0.24388614 -0.054827586 0.33046025 0.12508391
0002f0 64 14 c1 3e 4c c1 a3 3e fe f3 b4 3e f8 a0 50 3d
       0.3771087 0.3198341 0.353424 0.05093476
000300 80 77 1c bb 43 c8 f1 3e 7c b2 31 3d 14 d4 8f 3e
       -0.0023874938 0.472231 0.043383107 0.2809149
000310 c6 88 c4 3c 5f f5 5f bd 84 5b 8a 3e c4 af cb bd
       0.023991 -0.054677363 0.27022946 -0.09945634
000320 b4 aa 93 3d 18 00 15 bd 2e 4b 97 bd 26 8b 30 3e
       0.072102934 -0.036377043 -0.07387386 0.17240581
000330 8f 1d 27 3e 3c 2e b2 be 60 29 0f be 49 71 ab 3e
       0.1631987 -0.348009 -0.13980627 0.33484867
000340 43 2a af bd 1f 53 69 bd 25 fc 48 be 1f 9b 24 3e
       -0.08552983 -0.056964036 -0.19627436 0.16074799
000350 12 de 43 be d6 fd c5 bd f7 0a 62 3e 22 a8 ed bc
       -0.19127682 -0.09667556 0.22074495 -0.029010836
000360 82 ec 8e 3e fd 22 e0 3d d0 4d 44 3e 23 bc 5e be
       0.27914816 0.109441735 0.19170308 -0.21751456
000370 3e 0b ad 3e 38 2c 73 3e 83 d3 0c 3e b2 1d 9b 3e
       0.3379764 0.23747337 0.1375256 0.30296093
000380 f2 93 aa 3e c0 29 03 3e 54 6b ae be bd 2a 68 3d
       0.33315998 0.12808895 -0.3406626 0.056681383
000390 53 01 2c 3d 5c 0f 99 3e 63 38 26 3d 30 c0 65 3e
       0.04199345 0.2989453 0.04058112 0.22436595
0003a0 fe bf 80 3e b1 ed 02 be 38 b4 63 be ec c8 ec bc
       0.25146478 -0.12785985 -0.22236717 -0.0289044
0003b0 86 dd 3a 3e 98 b4 3c 3d 4d 39 98 bd d8 67 90 bd
       0.18248567 0.046070665 -0.07432804 -0.070510566
0003c0 52 dc 40 3d 1b b9 e6 bd ed 96 74 be 1c f9 30 3e
       0.047085114 -0.11265775 -0.23885699 0.17282528
0003d0 4b 42 48 be 5f 1c 31 be a5 29 da 3e ae 4f 91 3e
       -0.19556539 -0.17295979 0.42609897 0.28381103
0003e0 87 25 2d bd d8 c8 cd 3d dd a4 13 be 5a ad 5b bd
       -0.042272117 0.100480735 -0.14418359 -0.053632118
0003f0 b3 ec 61 3d d4 22 b0 3c 31 4d 9d 3d 9c e1 d9 bd
       0.055157375 0.021500982 0.07680739 -0.10638735

conv_out.bias f4 [32]
000000 e8 8e ee bc 8d 15 a9 3c d1 15 e4 3c f4 df a5 3c
       -0.029120877 0.020640159 0.027842434 0.02024839
000010 5e e5 a3 3c 4b 15 aa 3c a3 6b ac 3c 0e 98 b9 bc
       0.020006832 0.020762106 0.021047419 -0.022655513
000020 69 34 a5 3c 5f ca 85 bc a1 22 c6 bc 62 aa 93 3c
       0.020166593 -0.01633185 -0.024186434 0.01802558
000030 d6 32 c7 bc fa 43 d5 bc 72 57 ea bc 8e 64 91 3c
       -0.024316233 -0.02603339 -0.02860615 0.017748144
000040 9a 77 ec 3c 8f af d6 3c e0 0a 08 3d 8e 95 f3 3c
       0.028865624 0.02620676 0.033213496 0.0297344
000050 07 43 ba bc d7 0a ae 3c af ed ad bc 3a 46 b6 bc
       -0.02273704 0.021245403 -0.0212315 -0.022250284
000060 7b 6e cb 3c 69 93 b3 bc a7 58 b8 3c 80 3f bc 3c
       0.024832955 -0.021920877 0.02250321 0.022979498
000070 4e df 9e bc 33 63 b5 3c c4 38 ee 3c 22 f3 b2 3c
       -0.01939359 0.022142028 0.029079802 0.02184445

conv_out.lin.weight f4 [32, 32]
000000 e8 8e 0d 3e ab 41 a2 be ae 80 98 3e 94 9e a1 3d
       0.13824046 -0.31690726 0.29785675 0.078915745
000010 54 63 9c be e0 f5 10 bf 96 2c 20 3e 40 23 72 3e
       -0.3054453 -0.56625175 0.15642008 0.2364626
000020 14 09 06 bf a8 2d a7 bd 08 46 df 3e da 58 3d 3e
       -0.523576 -0.08163005 0.43608117 0.18490925
000030 6f a0 44 be 29 08 a0 3e 37 36 80 bd ee 3e 98 be
       -0.19201826 0.31256226 -0.06260341 -0.29735512
000040 5a 3d 7b 3e 31 73 6d be 01 70 a3 3e 8a e7 9d be
       0.24535123 -0.23188473 0.3192139 -0.30840713
000050 87 ad 50 bd 66 8c a5 3e a1 db 27 be c4 e9 e8 be
       -0.05094674 0.32333678 -0.16392376 -0.4549085
000060 81 85 07 3d 3d 71 d9 3d 32 7c 73 3c 74 19 ca be
       0.033086304 0.106173016 0.014861153 -0.39472544
000070 64 03 67 be 71 fd 21 bc cc 4b 95 3e fa c3 88 bd
       -0.22559887 -0.009887085 0.2915939 -0.066780046
000080 31 7b 32 3e 1d 01 60 3e 06 b8 24 3c 8b 94 17 be
       0.17429806 0.21875425 0.01005364 -0.14802758
000090 be 80 7c 3e a6 b0 ea 3a 64 d2 c8 be 3e a4 8d be
       0.24658486 0.0017905429 -0.39223015 -0.2766437
0000a0 21 27 16 3e c6 8a 56 be 1f e3 82 be 0a ce 85 3e
       0.14663364 -0.20951375 -0.25563905 0.26133758
0000b0 95 bd 18 be ae cf b4 be 68 76 68 3e 22 1e fa bd
       -0.1491607 -0.35314697 0.22701418 -0.12212779
0000c0 c9 d6 75 be db 11 3f 3e 20 ce 2e bd 46 fa 63 3e
       -0.24007715 0.18659155 -0.042677045 0.2226344
0000d0 f5 57 6c be b2 c4 12 bd 2e 7c 0b be c7 d8 c9 3e
       -0.23080428 -0.035832115 -0.1362159 0.394232
0000e0 9c 54 0d be 26 22 32 3e 35 07 1f 3e 89 4b 81 3d
       -0.13801807 0.17395839 0.15530093 0.06313235
0000f0 f5 c1 95 be 87 56 f2 3d 79 dd a9 be ad 91 72 3d
       -0.2924954 0.1183291 -0.33176783 0.05922096
000100 4e 4f f5 bd 0d 83 b9 3e f8 20 e9 3d ba 28 fd be
       -0.11978017 0.36232796 0.113832414 -0.49445134
000110 49 1d 53 3e c9 e1 70 3e 28 4f 8b 3a e1 26 2a 3e
       0.2061664 0.2352363 0.0010628449 0.16616394
000120 d1 68 f9 3e 0c 31 2c be df b8 f8 bd 3e e9 4d be
       0.4871278 -0.16815585 -0.12144636 -0.20108506
000130 1a 52 04 bb f5 a4 a0 3b 7a ae 83 be f5 e2 0e bd
       -0.0020190538 0.004902477 -0.25719053 -0.03488441
000140 47 da 7f be 42 8d 11 be 82 05 a5 be 21 63 f7 3d
       -0.2498561 -0.14214042 -0.32230765 0.12079454
000150 11 dd cf be a7 78 80 be c6 22 9c be c8 a5 cd bc
       -0.40598348 -0.2509205 -0.3049528 -0.025103465
000160 17 7f 75 be e1 34 bb 3d 2d 00 bd 3c 8d 32 97 bd
       -0.23974262 0.09140945 0.023071373 -0.07382689
000170 b1 ab d2 3d d0 e7 f2 bd 73 25 e7 bd a3 5a 74 3e
       0.10286654 -0.11860621 -0.1128644 0.238627
000180 3a 32 11 3c e2 14 5a 3e a4 2a 1f be 08 c3 97 3d
       0.008862073 0.21297029 -0.1554361 0.07410246
000190 76 e0 85 3d 7d 0a 38 bd d4 0d a4 be 6e 91 19 3e
       0.06536953 -0.044931877 -0.320418 0.14996883
0001a0 77 ba e4 3e d9 c2 98 bc 35 da 79 be bc b4 83 3e
       0.4467351 -0.018647598 -0.24399646 0.25723827
0001b0 91 82 c2 be cd f1 82 bd 8b 5c 2c be cc 90 9e 3e
       -0.3799024 -0.06393776 -0.16832177 0.30969846
0001c0 ae 3f 2f 3e 58 ae e6 3c 44 4d c0 3c 46 f0 02 3e
       0.17114136 0.028159305 0.023474343 0.1278697
0001d0 2d 90 b6 be f4 80 8b bd 31 34 c1 bd 83 6f f7 3e
       -0.35656872 -0.06811705 -0.09433783 0.48327264
0001e0 52 c8 a4 bd 69 81 26 3b 5b 44 21 3d 28 56 55 3e
       -0.080460206 0.0025406724 0.03937183 0.20833647
0001f0 00 d3 7d 3e bb fa 07 3e 0e bc 73 be 15 a9 61 3e
       0.24787521 0.1327924 -0.23802206 0.22037156
000200 55 4b 6f 3e 6f c1 13 be 8c 93 32 bd 40 37 94 be
       0.2336858 -0.14429258 -0.043597743 -0.28948402
000210 64 ac 8e 3e 5a 85 a9 3e 80 43 fa bd 99 d7 03 be
       0.278659 0.33109552 -0.12219906 -0.12875213
000220 6b 52 27 3f 2e bd 0c 3e 88 38 65 be 12 b8 86 bc
       0.65360135 0.13744041 -0.22384846 -0.016445193
000230 ee 2f 72 3c 5f 58 41 be 06 c2 8f 3e ab ca 78 bd
       0.014781935 -0.18881367 0.28077716 -0.060740154
000240 58 ea 15 3e 05 9f f1 bd 5e f3 2d 3e cc 1a 61 3e
       0.14640176 -0.11797909 0.16987368 0.21982878
000250 67 6e 57 3e 10 22 a7 be 7a 57 b8 bc a3 54 51 3e
       0.21038209 -0.32643175 -0.02250265 0.20442443
000260 8f 9c 89 3d 71 36 b2 be 3c 5d 13 bd 42 5e 31 be
       0.06719314 -0.3480716 -0.035977587 -0.17321113
000270 91 db 96 be 7e eb 66 be 4f 44 32 3e 7c d6 a4 3e
       -0.2946439 -0.2255077 0.1740887 0.3219489
000280 53 30 00 bd b1 5d 78 bd 3a 32 4a be 00 a7 99 be
       -0.031296086 -0.060636226 -0.19745722 -0.30010223
000290 d1 36 68 3e 13 9a b2 bc 4c 8e 80 be 49 66 48 3d
       0.22677161 -0.021801984 -0.25108564 0.04892567
0002a0 58 a9 4b 3e a7 a5 8a 3d 3e 41 7c be b8 10 cf 3d
       0.19888818 0.06769877 -0.24634263 0.10110611
0002b0 aa 97 8c bd 07 94 4d 3c da 0d 57 bd 1e 2f ad 3e
       -0.06864865 0.0125474995 -0.052503444 0.3382501
0002c0 fe 53 eb bd 3e b0 4c 3e a7 27 7a bd da 5c 42 3e
       -0.114906296 0.19989106 -0.06107297 0.18980733
0002d0 90 c2 07 be 34 41 12 bc 73 3f 97 bd f7 04 e1 3e
       -0.13257813 -0.008926678 -0.07385149 0.439491
0002e0 ce 3c 43 be d9 4c 3a 3e 4c dc 6c be cf 62 6d 3e
       -0.19066164 0.18193378 -0.23130912 0.23182224
0002f0 fb 79 4d be f9 76 66 3e ad 0e b5 3d a1 81 b3 bd
       -0.20066063 0.22506322 0.0884069 -0.08764959
000300 2e 3b 99 be 75 bb cc 3e 16 26 87 3e 7d 6b 97 be
       -0.29927963 0.39986768 0.26396245 -0.29574195
000310 66 e5 64 3e 6c bb f7 3e de 46 87 be f5 7a 11 3e
       0.22353134 0.4838518 -0.26421255 0.1420706
000320 cf cc e2 3e 5d 34 db bd fe 95 86 3d 89 06 a3 bd
       0.44296882 -0.10703347 0.065715775 -0.07960231
000330 c6 b1 71 3c c3 cf 7f ba bb 5d fa 3c c5 07 42 bc
       0.014751857 -0.0009758437 0.030562272 -0.011842673
000340 5a be e0 bd 21 f4 92 3c 53 14 4f 3e 78 28 a5 3e
       -0.10973807 0.017938675 0.20222597 0.32257438
000350 4a 61 99 3c c6 18 e6 3d b2 11 74 bd 1c 27 bc 3e
       0.018723149 0.11235194 -0.059587188 0.36748588
000360 37 54 b9 bd 14 b4 c8 be 5b cb 8a 3e 66 f4 fd 3d
       -0.09049266 -0.3919989 0.27108273 0.12400131
000370 e0 86 94 3e 32 f0 2d 3e f7 69 a4 be 79 20 0f 3e
       0.2900915 0.16986158 -0.32112095 0.13977231
000380 ea 2b 5e 3b 76 17 ae bd c2 fc 10 be 40 2d 73 3e
       0.0033900687 -0.085005686 -0.1415892 0.2374773
000390 e8 46 9f be fb 70 0a bf de 3c 91 bd cb 01 2e 3e
       -0.31108785 -0.54078645 -0.070916876 0.16992871
0003a0 97 7a 1b bf 1c 8c 35 be 0e 07 a6 3e 34 df ca 3d
       -0.6073393 -0.17729229 0.32427257 0.09905854
0003b0 d7 b4 30 3e ef 76 27 be 73 fd c0 bc 07 d1 b4 ba
       0.17256485 -0.16353963 -0.023558354 -0.0013795205
0003c0 64 79 6c 3e 29 8c 3b 3d 6e cc a7 3e ef 05 55 be
       0.23093182 0.045787964 0.32773155 -0.20803045
0003d0 2b 77 fd 3c 03 5a 6b bd 8d 2d 40 be d4 6a a7 bd
       0.030940613 -0.05745889 -0.18767376 -0.08174673
0003e0 9e 87 05 3e d9 70 a8 3e 2a 97 8f 3e 09 68 8e bd
       0.13040015 0.32898596 0.28045017 -0.06953437
0003f0 fc c7 0b 3e f5 b9 70 3e a6 95 9e 3e 9d 59 30 3e
       0.13650507 0.23508437 0.30973548 0.17221685

fc.weight f4 [1, 32]
000000 58 c3 4d 3e c4 44 76 be c0 d8 f8 bd 0f fe 9b be
       0.20094049 -0.2404967 -0.12150717 -0.3046727
000010 54 44 40 be 45 f9 32 be b1 30 62 be 15 da 62 3e
       -0.18776065 -0.17477901 -0.22088887 0.22153504
000020 c4 a7 09 be 22 42 11 3e 5b 43 48 3e b1 0e 0c be
       -0.13442904 0.14185384 0.19556944 -0.1367748
000030 56 f8 33 3e c4 51 3f 3e 14 9f a8 3d 0b ce 3a be
       0.17575201 0.18683535 0.08233467 -0.18242662
000040 d8 a3 1d be a8 de 39 be df 49 2b bd a3 0a 76 be
       -0.15394533 -0.18151343 -0.041818496 -0.24027495
000050 5c e5 32 3e 31 62 51 be b8 1a 32 3e 51 9d 8a 3e
       0.17470306 -0.20447613 0.17393005 0.27073148
000060 77 93 3d be 31 8a e2 3d a3 f0 a8 be f9 60 9a be
       -0.18513285 0.11061514 -0.3299609 -0.3015211
000070 5a aa 48 3e 5c e0 2d be 85 54 33 be 9b ec 61 be
       0.19596234 -0.16980118 -0.1751271 -0.22062914
