atropos/trained_model/onehot/answer/10/best_acc.pt (torch, 13970 bytes, 5 tensors)

conv1.bias f4 [32]
00000000: 8a71 d13c 8007 16bb 6f94 dbba 7473 d23c
00000010: 070a cf3b abd1 123c b442 ecbc abdd 713d
00000020: 7eeb 9b3c e902 d83c 72fb f13b 0f67 c4bb
00000030: 3eaa 893d a721 493c b2f1 da3c 5cc0 8a3c
00000040: 3a3e e0bc b76b da3b 5578 b2bc 924b 8b3c
00000050: b6cf 1b3d be3f 00bd df67 98bc c539 2ebb
00000060: 6a97 37bc 1d52 e9bb c348 a13a 54c1 a03a
00000070: 5bc0 72bc c6de 8d3d 2631 923c 9ef6 a0bc
0.025566835 -0.0022892654 -0.0016752611 0.025689818 0.006318334 0.008961122 -0.0288404 0.05904929
0.01903319 0.026368575 0.007384711 -0.005993731 0.06721924 0.01227609 0.026726577 0.016937427
-0.027373422 0.0066656726 -0.021785894 0.017003808 0.038039885 -0.03131079 -0.018604217 -0.0026584726
-0.0112055335 -0.0071203844 0.001230501 0.0012264648 -0.014816369 0.06927256 0.017845701 -0.019648846

conv1.lin.weight f4 [32, 50]
00000000: 98a6 9e3c a586 3ebe d38a a73d 28b9 21bd
00000010: 5d1b d83c 77e1 2c3e d040 753e 6a49 83be
00000020: c4a3 683e c2ad 363e aa32 7c3e 43fb 17be
00000030: 2f60 41be 044f c23e da63 16be dfe8 8ebe
00000040: 803e 20be f40a d93c c127 84bc 256a 49bd
00000050: 54a2 3ab9 7c03 64bd d118 03be 82d4 323e
00000060: c253 25be b036 4bbd 463e 01be 8f08 67be
00000070: 69d2 5fbe 2784 d33c 4e63 05bc ae5a 64bd
00000080: 723f 6ebe 8cdc acbe 9ac8 2fbd 73b5 843c
00000090: 3e32 ebbd 17e9 0ebc ac28 e93d 81d4 81be
000000a0: b25d 1dbd 8cc8 833e a888 dfbc 4f80 08be
000000b0: bb1a 6bbd aa24 a4be 8fa5 7abe 0c6c 7a3e
000000c0: 97e0 64be 543b 123e 2664 f63d 33c9 d7bd
000000d0: 904b 07bd 2777 ad3d 09dd a43d 24a2 40bd
000000e0: 6626 6ebe 1568 853d 6a88 403e cd05 893e
000000f0: 9a83 98be 3dbb a63e a842 b3bd 60c7 063d
00000100: e3c0 9e3d 5cb4 d33d a3f9 3fbe e324 99be
00000110: eb51 03bd fa31 bebd c48b eabc 894d 8cbe
00000120: b2d7 e8bd 040b 053e feb5 933d 1fb3 2d3e
00000130: 5720 a33d ab10 3f3d ecba d9bd 3a93 c3bd
00000140: 958e d8bd 9b48 8cbe cf5f 683e 9e08 52be
00000150: 4bfb 833e abbb 723d 3cd1 2bbe 62df 953c
00000160: 5ebf 573e d5b2 5c3b f5a8 86bd b00c 84bd
00000170: dd77 15bd 8a5b 04be 38a6 31be ccde 65be
00000180: 3b0b 24be 57d9 05bd 3e1a 84be 8aad a2bd
00000190: 151a 253e 76fe 303d 96cb 5a3e 6c40 373d
000001a0: 7efb f23d 8e42 2ebd 6961 80be 2cc3 4abe
000001b0: 5d8d e63d df1f 773e 8ff6 c43c 2863 b1bc
000001c0: 8938 d2bd 8d1c 843e 18ac 03be 6a8a 983e
000001d0: 1b9e 31be 8926 70be c175 883d 2559 c9bd
000001e0: 5ca2 66ba fff5 df3d e738 d33d 9c2c 1b3e
000001f0: 7fef be3d 3fa6 5a3e 7dcb 483c 834f 76be
00000200: 358e b9be 775a 27bd 2153 6b3b e06e 9ebe
00000210: 12fd ad3d ff6c b93c 67b6 a5bd bd28 28be
00000220: c6b5 5ebe 4b9d 7c3d 08a2 593e dfaf cc3c
00000230: ffc1 82be e748 043e cc16 2fbc 1a1f 35bd
00000240: 19e8 8b3e 0155 56be 4613 19be 046f 073e
00000250: 74c7 593d 56d4 3cbd 8015 773e 69ef 9abe
00000260: d093 953b 1439 85be 026a 543e 9e56 48be
00000270: 1549 5fbe 1368 9f3e df9c 35bd 9bf3 a03e
00000280: 62c2 6d3e 49cc 6c3e 1043 df3c f71d 46bd
00000290: 7e7e 3e3e 9e1b 873e ac5b e93d 7315 4e3e
000002a0: 3215 adbd be54 6f3e 1426 173e 8225 5c3d
000002b0: 2c38 c23d 544d f53c 56df 90be a89f 9abd
000002c0: ab2a a8bc 3c94 393c 7932 f6bd 6e75 88be
000002d0: 2ca7 a8be d1a7 80be 4c0d 9cbe c9b3 2c3e
000002e0: 732f 103e 3f79 1a3e 5f05 ac3d 3351 103e
000002f0: a829 8dbe 5b8f edbd 1d9b 173d ac52 20be
00000300: bf7c 53be f7ca 253e 97ca 07be ba4e 703e
00000310: a887 013e e3df 953e 1388 b8bc 1014 3fbd
00000320: 70f2 843e 42d2 9cbd 4be4 46be 8ee4 23be
00000330: 27b2 8ebd 2586 d03d 46d5 563d 58ab b13d
00000340: 0270 52be f98a 49be 7154 c23d 971c b73e
00000350: 05ea 48be 2e55 89be 6414 303d dfcd 773e
00000360: bfd7 463e b9d2 0e3e b13a cd3d 8432 6abe
00000370: 39e5 27be c984 85be 7b6b 92bc 43eb e23d
00000380: ee03 e33c 3ca8 2f3e b18e b43c 9715 18be
00000390: 2727 b5be cc3a 17be c98c 64be 6ce5 16be
000003a0: eb47 08be 8111 6d3c 06eb 8b3d 4afd 9d3c
000003b0: 4572 d93d beca 26be a6bf 1cbe ff7c ef3d
000003c0: 2247 8fbe 8e55 d4bd f0f7 293e 67ec c8bd
000003d0: b66f 92be bc17 8d3c 3e82 c3bd 44e9 8fbb
000003e0: a0a9 a13c b6e2 263e 5ee8 15be ba47 46be
000003f0: 15d4 99bd a51b 9bbd 98f1 00be a1a5 323e
0.019366547 -0.1860605 0.081807755 -0.03948322 0.026380235 0.16882883 0.23950505 -0.25641948
0.22718722 0.17839721 0.24628702 -0.14841942 -0.18884347 0.3795091 -0.14686528 -0.27912042
-0.15648842 0.02649448 -0.016132237 -0.049173493 -0.00017798814 -0.055667385 -0.12802435 0.17463878
-0.16145232 -0.0496127 -0.12621412 -0.22561859 -0.21857609 0.025819851 -0.008141352 -0.05575054
-0.2326639 -0.33762014 -0.042915918 0.016199803 -0.11484192 -0.008722565 0.11384711 -0.2535744
-0.038419433 0.25738943 -0.027286842 -0.13330196 -0.05739854 -0.32059222 -0.24477218 0.24455279
-0.22351299 0.14280444 0.120308205 -0.105364226 -0.033031046 0.08469992 0.080499716 -0.04702963
-0.23256835 0.06513993 0.18802038 0.26762238 -0.29787904 0.32564726 -0.08752948 0.032904983
0.07751634 0.10337135 -0.18747573 -0.29910955 -0.032060545 -0.09286876 -0.028631099 -0.27402905
-0.113692656 0.12992483 0.07212447 0.1696286 0.07965153 0.046646755 -0.10631356 -0.095495656
-0.1057407 -0.27399144 0.22692798 -0.205111 0.2577766 0.059261005 -0.16779035 0.018294994
0.21069095 0.0033675928 -0.06575195 -0.064477324 -0.036491264 -0.12925544 -0.17348564 -0.22448272
-0.16019909 -0.032677975 -0.2580127 -0.07943256 0.16123231 0.043211423 0.21366724 0.04473917
0.118643746 -0.04254394 -0.25074318 -0.19801015 0.11257432 0.24133252 0.02404335 -0.021653727
-0.102646895 0.25803033 -0.12858617 0.29793102 -0.17345469 -0.234522 0.06663085 -0.09831456
-0.0008797997 0.10935592 0.10313588 0.15153736 0.09323024 0.2135248 0.012255547 -0.24053769
-0.36241308 -0.04085776 0.0035907703 -0.30943966 0.08495535 0.022634981 -0.08091431 -0.1642179
-0.21749029 0.061673444 0.21253216 0.024986206 -0.25538632 0.12918435 -0.010686588 -0.044219114
0.27325514 -0.20930864 -0.14948758 0.13225943 0.05316873 -0.046100937 0.24129295 -0.3026078
0.0045647398 -0.2602011 0.20743564 -0.19564292 -0.21805222 0.3113409 -0.044339057 0.31435856
0.23218682 0.23124804 0.027253658 -0.04836842 0.1860294 0.26388258 0.11394438 0.2012537
-0.08451308 0.2337217 0.1476062 0.053746708 0.0948337 0.0299441 -0.28295392 -0.07549983
-0.020528158 0.011326846 -0.12021346 -0.26652092 -0.32940042 -0.25128034 -0.30478895 0.16865458
0.140806 0.15085314 0.08399462 0.14093475 -0.27570844 -0.115996085 0.037013162 -0.15656537
-0.20653056 0.16190706 -0.13260876 0.23467532 0.12649405 0.29272375 -0.022525823 -0.046649992
0.25966215 -0.07657291 -0.19423024 -0.16005155 -0.069675736 0.10181836 0.052449487 0.08675259
-0.2055054 -0.1968192 0.09488762 0.35764 -0.19620521 -0.268228 0.042988196 0.24199627
0.19418238 0.13947572 0.1002096 -0.22870833 -0.16396035 -0.2607787 -0.017873516 0.11080029
0.027711835 0.1715402 0.022040697 -0.14851986 -0.35381433 -0.14768523 -0.2231933 -0.14735955
-0.13308685 0.014469505 0.068319365 0.019285817 0.10617498 -0.16288278 -0.15307483 0.11693763
-0.27983958 -0.10367881 0.16598487 -0.09810715 -0.28600854 0.017223231 -0.09546326 -0.004391821
0.019734204 0.16297421 -0.14639422 -0.19363299 -0.075111546 -0.07573632 -0.1259216 0.17445995

conv_out.bias f4 [32]
00000000: 899c 44bb 3b94 27bc 2d30 813c fb6b 183c
00000010: 676a 0d3c 4f04 2b3c 864b 96bc 44f0 623b
00000020: b90a 083c 7e43 033c e665 fabc bcae 043a
00000030: 6908 09bc 8936 173c 4712 533c c952 fbbb
00000040: ee1b 06bc 4611 04bc 0170 febb b27e ddbb
00000050: aaa6 b73b 9a97 5dbc d307 c93b 0e32 70bc
00000060: ab1c 113b 9b66 04bc 2304 fe3b 2ea8 abbb
00000070: 5855 5d3c f029 4fbc 1596 d63b 3969 20bc
-0.0030000529 -0.010228212 0.015770042 0.009303088 0.008631325 0.010438039 -0.01834656 0.0034628073
0.008303338 0.008011697 -0.030566167 0.0005061438 -0.008363822 0.009229311 0.012882776 -0.007669781
-0.00818537 -0.008060759 -0.0077648167 -0.006759488 0.0056045847 -0.013524914 0.006134966 -0.0146603715
0.0022142332 -0.008081104 0.007751958 -0.0052385544 0.013509117 -0.012644276 0.006548653 -0.009790712

conv_out.lin.weight f4 [32, 32]
00000000: a916 26be e363 d53c 39a8 853e 3115 9b3d
00000010: b708 ae3e 4dfa ef3d efd9 89be ff2e 6e3e
00000020: 2a51 be3d 6ab3 4b3e a0f0 493d 1218 553d
00000030: 224f 75be 3efd 063d 57da 423e 51d4 533d
00000040: 5821 84be 1c35 693e 41d4 b73b ca1a ff3d
00000050: 3250 9fbe adda 51be be32 2b3d 5cf8 203d
00000060: 9188 9cbd 9fb0 5f3e 410a 463e 7b0e 323d
00000070: 1a4e b3bc 28bd e23d 9667 0e3e 3829 a23d
00000080: 08fb 973c 4c89 563e eedb d3bc e3ed d83c
00000090: 1905 2ebe c67b 903e 919f 89be 44e8 8b3d
000000a0: fca4 863d db68 39be f784 6ebe 46b7 833e
000000b0: fb36 db39 57d8 483d c436 a53e a707 193c
000000c0: 7aa8 273e 651a 1bbc 5f8b 41be 1e53 9d3d
000000d0: 1617 b3be f912 a83e 4a87 4c3d 393f 6fbe
000000e0: 302b 8d3d f440 9e3e 4db3 31be 2305 a33d
000000f0: d9f2 833e 6ee1 b9be 0f44 b63e 1924 79be
00000100: 5810 8b3d 6c63 3f3b bea3 6c3e 28d0 1dbe
00000110: c292 4fbe b4f4 5cbe 3394 903c 7e36 053e
00000120: 2558 c0be edac 8c3e 1d58 173e 8bb7 2e3e
00000130: be3d 713e 31b3 203e b23a 2e3c c81f 4bbe
00000140: 5165 aebe 14f8 923e d96b 8c3e 8e35 a5be
00000150: d532 813c 521c 2c3e 78cf 32bb 1bf2 d0bc
00000160: c806 fcbd 6ab4 2ebe 8e40 08be e0ac 623c
00000170: d9ac 523d 65f7 fe3d 5b95 373e c28d 87be
00000180: 5399 2abe b589 b1be 5819 c1bc 65d5 793e
00000190: 2f27 a1be 1e44 a73c 2593 b8bd 45b3 d9be
000001a0: dc00 b3be 0235 9b3e c1f1 283e 7e6a 183e
000001b0: 13de 3a3e b280 b2bd d38c c03d bbc4 71be
000001c0: 55df a33d 76df e23c 134e 6bbe e99a 5abe
000001d0: 8b07 37be e076 f4bd d4e4 8ebd 8a1b 86be
000001e0: 7241 1a3e d6a5 debd bb9c 383d f939 03bd
000001f0: 4647 1a3c 0c37 953e f40f 9fbe cf64 5b3e
00000200: 22fd 63bd 615a d13d 319b 2dbe 6b01 823e
00000210: 5ca3 60be e2cc 223d 30c3 67be bb06 57be
00000220: ff80 a53c 3f89 7e3e f318 193d c379 96be
00000230: b593 2d3e ad27 40bd e65f 62be 0871 adbe
00000240: 499f afbc 434f 66bd 420d 9c3c 3de8 8bbe
00000250: ff5b 4fbd 4931 14bd 611a 3fbe 07b5 223e
00000260: 9bd3 fb3d 99d5 b3bd 6d39 563d 05b2 1cbe
00000270: 5e0a ab3d c23f 063e b28f 97be 30e6 143e
00000280: 4b76 1e3e 9d4f 103e d5f1 21be bda8 aa3c
00000290: c67e 8dbe c63e 583e 157a 0c3c 9edf cf3d
000002a0: 900d a93d 1cf4 38be ab7d 8ebe 819c c63d
000002b0: 4eda 553e 8322 a9be 8dbb 05be e9e6 33be
000002c0: 0f7b a9be 5632 333d e474 4b3d 7977 0c3e
000002d0: e75b a63d 69f8 8fbe 7cf3 95be 24b4 8f3d
000002e0: 81b4 2abe 1948 76bc 189b 67be 7e91 95be
000002f0: 637e f1bd 12d7 09bd 08fb febd b4f1 66be
00000300: c570 b3bd 5523 ac3d f975 533e bf8c 053b
00000310: 1612 6b3e 9c71 823e eee8 01be ac17 383e
00000320: b899 40be 98ff 6abe 5dec 173e acbf 943d
00000330: 567b 9abe 82cf c3bd 8cbf 8dbe 952d 17be
00000340: 56cb fabd 66c4 e63c 6f2b 01be 1abc 03bc
00000350: 48bf 803e 88be c7bd faba 93bd 267c 96be
00000360: b0b0 513e fd0f 8bbe ad46 7b3e d414 27be
00000370: c44e 113a 74ac a8be fbed 5a3e 6aa9 d2bd
00000380: 5ba6 15be e8da 383c 9d21 ddbc ae24 47bd
00000390: 0c79 6f3e 677b b6bc 9991 833e ef9f b1be
000003a0: a127 9fbe 70e9 67bc 2eb2 adbc 4304 603e
000003b0: 5192 b2ba dee0 a0be b271 373e 0e16 343e
000003c0: 14b7 cd3d ee46 1b3e e1d2 903a 2637 833d
000003d0: 55d8 2a3e ee0a a6bb b8c7 6e3e 544b 2cbe
000003e0: eabb ffbd 0676 67be 0deb a4be e6df 79be
000003f0: 8e55 02be aa17 183d 12e4 823d 8f94 54be
-0.16219582 0.026048606 0.26104906 0.07572401 0.33991024 0.11717663 -0.26924083 0.23260115
0.092928246 0.1989266 0.049301744 0.05202491 -0.23955968 0.032956354 0.19028603 0.051716153
-0.2580669 0.22774166 0.0056100194 0.124562815 -0.31115872 -0.20493574 0.04179644 0.039299354
-0.076432355 0.2184472 0.19339849 0.04347084 -0.021887828 0.11071235 0.13906702 0.07918018
0.018552318 0.20950812 -0.025861707 0.02648062 -0.16994132 0.28219432 -0.26879552 0.068314105
0.06574437 -0.18106405 -0.2329291 0.25725764 0.000418119 0.049034443 0.32268345 0.009340203
0.16372862 -0.009466742 -0.18900822 0.07681869 -0.3497855 0.32826975 0.04993371 -0.23363961
0.06893003 0.3090893 -0.17353554 0.07959964 0.25771216 -0.36304802 0.355988 -0.24330176
0.06790227 0.0029203547 0.23109338 -0.15411437 -0.20270827 -0.21577722 0.017648792 0.13009068
-0.3756725 0.27475682 0.14779706 0.17062204 0.23558709 0.15693356 0.010634111 -0.19836342
-0.34061673 0.28704894 0.2742603 -0.3226742 0.015771309 0.16807678 -0.0027284306 -0.02550607
-0.12305981 -0.1706101 -0.13305876 0.013835162 0.05143437 0.124495305 0.17928068 -0.2647534
-0.16660051 -0.34675375 -0.023571655 0.2439781 -0.31475207 0.020418223 -0.090124406 -0.42519584
-0.34961593 0.3031388 0.16498472 0.14884374 0.18248777 -0.08715953 0.0940186 -0.23610203
0.080015816 0.027694445 -0.22979002 -0.21348156 -0.17873971 -0.11936736 -0.06977239 -0.26192886
0.15064028 -0.108714744 0.045071345 -0.03203771 0.009416407 0.2914356 -0.3106686 0.21425174
-0.055661328 0.102223165 -0.16953732 0.25391707 -0.21937317 0.039746173 -0.22633052 -0.20998661
0.020203112 0.24857043 0.03737731 -0.29389772 0.16950877 -0.046912838 -0.22106895 -0.33875299
-0.021438258 -0.056227934 0.01904929 -0.2732562 -0.050624844 -0.036179814 -0.18662407 0.15889369
0.1229622 -0.08780975 0.05230086 -0.15302284 0.08351587 0.13110259 -0.29601818 0.14540935
0.15474813 0.1409287 -0.15814908 0.020832414 -0.27635783 0.21117696 0.0085740285 0.101500735
0.0825454 -0.1806187 -0.27830252 0.096978195 0.20884058 -0.33034143 -0.13059826 -0.17568554
-0.331017 0.043749176 0.049672022 0.1371745 0.08122998 -0.2811921 -0.29287326 0.07016781
-0.1667042 -0.015031838 -0.22617757 -0.29212564 -0.117916845 -0.033652373 -0.12450224 -0.2255314
-0.087617435 0.084051766 0.20650472 0.002037808 0.22956118 0.25477302 -0.12686512 0.1797778
-0.18808639 -0.22949064 0.14836259 0.07263121 -0.30172223 -0.09561063 -0.276852 -0.14763482
-0.122458145 0.028169822 -0.12614225 -0.008040452 0.25145936 -0.09753138 -0.07213397 -0.29391593
0.20477557 -0.27160636 0.2453868 -0.16316539 0.0005543048 -0.3294407 0.21379845 -0.102862194
-0.14614241 0.01128266 -0.026993567 -0.048618965 0.2338602 -0.02227564 0.2569702 -0.34692332
-0.31084922 -0.014154777 -0.021203127 0.21876626 -0.0013623928 -0.3142156 0.17914465 0.17586538
0.10044685 0.15163776 0.0011049175 0.06407003 0.16684087 -0.005067221 0.23318374 -0.1682561
-0.12487014 -0.22603616 -0.3221058 -0.24401817 -0.12727949 0.037131943 0.06391157 -0.20759796

fc.weight f4 [1, 32]
00000000: c3ad 743d cdaa 1b3e ec7c 74bd d958 45be
00000010: 1a65 38be f63e aebc 5f0a bf3c b241 6fbd
00000020: 8f90 7ebe 511b 80be 0100 db3b 28b0 183d
00000030: b5b8 1d3e b7c0 fbbd 4886 76bd b722 6f3e
00000040: 3727 473e 4c55 4a3e 064d 493e a707 5c3e
00000050: 962b 15be 5f45 b33d 2de5 10be cd6e 643d
00000060: fd63 01bd 9439 293e cbdc 15be 47fc e13d
00000070: 43ed eabd aa23 c83d b3e6 40be 0d97 a0bb
0.059736025 0.15201874 -0.059689447 -0.19272174 -0.18007317 -0.021270256 0.023320375 -0.05841226
-0.24859832 -0.2502084 0.00668335 0.03727737 0.15402491 -0.12292617 -0.060186654 0.23353086
0.19448553 0.197591 0.19658288 0.21487294 -0.14567408 0.08753466 -0.14149924 0.05576973
-0.031589497 0.1652587 -0.14635007 0.11034446 -0.11471035 0.097724274 -0.18838005 -0.004900819
