atropos/trained_model/nhot/no_answer/not_add/1/best_acc.pt (torch, 12946 bytes, 5 tensors)

conv1.bias f4 [32]
00000000: e8c1 b83c 2211 03bd 70ca f5bc a4e8 fc3a
00000010: 0d20 94bd f34d bbbc f44d c93c 6801 be3c
00000020: e9f3 16bd 8762 f6bc 3532 333d 2602 1abc
00000030: bfe7 6abc c200 2d3b bc7c babc e4d2 5ebd
00000040: 9c9d 4fbd 7a1d 8fbc 210b 2cbd bd5c b5bd
00000050: d82e cfbd a345 1c3a 8fd3 3d3a cb5e cfbd
00000060: 1d36 debd 81ac 173b 6ec4 933d 96f2 fabb
00000070: 4102 66bd fad8 d2bd 00f3 f5bb ef15 1fbd
0.0225534 -0.03199876 -0.030003756 0.0019295407 -0.07232676 -0.022864318 0.024573304 0.02319403
-0.036853705 -0.030076278 0.043749053 -0.009399926 -0.014337479 0.0026398157 -0.022764556 -0.05440034
-0.050687417 -0.01747011 -0.0420028 -0.08855579 -0.101163566 0.00059613044 0.00072413025 -0.10125502
-0.10850165 0.0023143592 0.072152 -0.007658313 -0.056154493 -0.10295291 -0.0075057745 -0.038839277

conv1.lin.weight f4 [32, 42]
00000000: e972 7fbe 772c c7bd 7465 84be 92f1 5dbe
00000010: 517d 2b3d 9d53 dfbc 6640 a1bc f6ee 51be
00000020: 6544 84be 619a aa3d 0107 a3bc 77b2 623e
00000030: 2633 35be eb9f b1be 0722 c9bd 81a4 cebd
00000040: c72d 95be 41d6 d2be bf2a 05be 7b25 22be
00000050: 4b5c e43d ea18 013e 35c0 453e d284 643e
00000060: ff56 17be 6354 08be 9885 7ebb e893 353d
00000070: fd28 2fbe 5de2 73be c3e0 90be fd57 1bbe
00000080: b109 19be f562 fb3d f049 84be 39a3 7bbe
00000090: d521 00bd 65fb 73be 2146 373e a55d 46be
000000a0: 5c1a c83d 23e1 09be 63bd 3b3e bd41 2cbe
000000b0: 1d4e 05be 6d61 293e ca64 32bd 5a86 613e
000000c0: ec11 f4bc d620 9f3e 2f2b 8e3c 3162 00bd
000000d0: 1bd0 83be d284 a3bc ce3f 4cbe 3e98 aebd
000000e0: 592e 753d 317f 2ebc c6b9 b6be 479b 7f3e
000000f0: 43fa d3bd 8ef6 05be e61d 363e ec74 a93c
00000100: b442 72be 7262 a4bd ca19 8bbe 53ed b53d
00000110: 075d 7c3d 008d debe 1948 65be aa99 743e
00000120: 9988 983e d047 323e 06e2 65be 4da3 f4bc
00000130: 0bcb 533e c008 71be 51bb 69be 44ce 0e3e
00000140: 4ef2 cc3d d66f 173e d5b4 673e eaec 84be
00000150: 4166 cbbd 638a 56be 921b aa3e 0d67 003e
00000160: f8e5 b6bc 1ea4 723e 3886 613e 3044 ba3e
00000170: 9a6f c1bd a60e 18be 5f07 00be 93aa 8a3d
00000180: 2f33 6ebe 405f e5bd b70d 553d 2b3b a13b
00000190: 2e34 c4bd 649a 543e 7dc6 8fbc 6b68 6e3e
000001a0: 3e0f 70bd 4c9e fabd 7d01 d2be 9d5d f33c
000001b0: 158d 58be 433e 9ebe 87ec 8a3d f8ef 803e
000001c0: 441a 673d 25cd b93e 3412 433e d036 78be
000001d0: 26c1 72be bb16 9abe 038d 173e c09e 9ebb
000001e0: 6529 edbd 4d1e 66be 7ae9 353e 390a 8ebe
000001f0: 7daa 38be e8a0 17be 5283 633c de57 b63d
00000200: 39af 4fbe 95e7 7cbd ca29 84be 94bc 753c
00000210: 6d56 873d db1b 9d3d f295 8a3e eabe e2bd
00000220: 40b0 c1bd a595 e3bc 8311 813e 82b3 29be
00000230: daad 223e dc12 553c 9c5c 123d bfc7 a7be
00000240: 92f1 893e 1b6f 113e b16d 59be 042a ab3e
00000250: 479f a53e 4a99 d93c b6a7 d13e f367 ad3e
00000260: 4812 03be 4c24 a43c e016 8ebc 888a 543e
00000270: 172b bcbd ae8d e4bd 06ce 913d efd2 b03e
00000280: f9d4 6a3e 2302 17bd b701 bfbc 907f 2f3e
00000290: a4d8 553d 4bf4 a93e 100d a43e edf6 8e3e
000002a0: d6eb efbd c699 4a3e 9c9e b7bd 313c 053d
000002b0: f420 45bd 948c 063d 26c3 7d3c f912 b9be
000002c0: 57c3 d2bd 1197 f63d 5de8 25be fda8 0cbd
000002d0: c7e6 5e3e d5d8 2bbe ddb5 a83d 10fa 8d3e
000002e0: 2fec 3fbd 0f69 a9be acd6 b63e eba4 093e
000002f0: b070 28be 1368 37be cb78 1d3d c9cd 2a3d
00000300: dc84 5dbe f7f9 71be 49f0 56be b10b 48be
00000310: 1380 a33c 2a74 66be 326d 743e 35fb a6bd
00000320: 73c1 a23d 29b0 813e 7626 1ebe c80d 833e
00000330: d762 88bc e71a b4bd 42bb aa3e 5123 353e
00000340: 9db1 773e c3f7 833e 96b9 093d 3c8c af3e
00000350: e9b6 323c 00b0 9cbd d65d 02be bc98 83be
00000360: 6d90 2fbe 39d0 c7be ffb4 6b3e 7173 893e
00000370: e9c8 91be f386 303e a566 a3bc 3946 b83d
00000380: d902 a3bd 0377 de3d d7d2 6e3e 87d8 8f3d
00000390: 31cd 7d3e 28a1 f3bd 9445 1b3e 62cd edbd
000003a0: 7683 573e 646d 4e3e 8450 12be d27a ecbd
000003b0: 52bb bb3e 0d7c 18be fec0 36be a4c2 c1bd
000003c0: e5c7 88be d25d 753e b241 57bc 670b 713e
000003d0: e7cd f2bc fa36 54bd b277 003e d5b6 c53e
000003e0: e913 363e cd86 1c3e efbf 113e f739 603e
000003f0: 3966 bbbd 24ad 483d c4bb e1bd 1769 de3d
-0.24946178 -0.09725278 -0.25858653 -0.21674183 0.041867558 -0.02726155 -0.019684028 -0.20501313
-0.2583343 0.08330227 -0.0199008 0.22138391 -0.17695293 -0.3469232 -0.09820943 -0.100899704
-0.29136488 -0.41179088 -0.13004588 -0.1583461 0.11150416 0.1260716 0.19311602 0.22316292
-0.1477928 -0.13313441 -0.0038836952 0.044330508 -0.1710548 -0.2381682 -0.2829648 -0.15170284
-0.14945103 0.12274734 -0.2583766 -0.24573983 -0.031282265 -0.23826368 0.17897846 -0.1937166
0.09770653 -0.13464789 0.18333964 -0.16821952 -0.13018079 0.16541071 -0.04355315 0.22023907
-0.029793702 0.3107974 0.017354576 -0.031343643 -0.2574471 -0.019960795 -0.19946215 -0.08525132
0.059858654 -0.010650442 -0.3568861 0.24961577 -0.10350468 -0.13082334 0.17784843 0.020685636
-0.23658258 -0.080265895 -0.27168113 0.088831566 0.061612155 -0.4346695 -0.22390784 0.23886743
0.29791716 0.17410207 -0.22449502 -0.029863024 0.20682923 -0.23538494 -0.22825362 0.13945872
0.100071535 0.14788756 0.22627576 -0.25962 -0.09931613 -0.20951228 0.3322416 0.12539311
-0.022326455 0.23695418 0.22023857 0.36380148 -0.094451144 -0.14849338 -0.12502812 0.06770816
-0.23261712 -0.11199808 0.052015033 0.0049203834 -0.09580265 0.2076202 -0.017550701 0.2328202
-0.058608286 -0.12237224 -0.4101676 0.029707724 -0.21147569 -0.30906877 0.06783395 0.25183082
0.056421533 0.36289325 0.19049913 -0.2423966 -0.23706493 -0.30095467 0.14799885 -0.004840702
-0.11580161 -0.22472496 0.17764845 -0.27742174 -0.18033786 -0.14807475 0.01388629 0.08903478
-0.20281686 -0.06174429 -0.25813133 0.014998574 0.06608281 0.07671329 0.27067524 -0.1107157
-0.09457445 -0.027781317 0.25208673 -0.16572383 0.15886632 0.013004985 0.03573285 -0.32769582
0.26942116 0.1420254 -0.2123325 0.33430493 0.3234808 0.026562352 0.40948266 0.3386837
-0.12799942 0.020036839 -0.017344892 0.2075597 -0.09187906 -0.11159836 0.07119374 0.3453593
0.22932805 -0.036867272 -0.023316247 0.17138505 0.052208558 0.33194193 0.32041216 0.27922764
-0.11714904 0.19785222 -0.08965799 0.032528106 -0.04812713 0.03284891 0.015488422 -0.36147287
-0.10291164 0.120405324 -0.16201921 -0.034340847 0.21767722 -0.16781934 0.08237813 0.27729845
-0.0468561 -0.33087966 0.35710657 0.13441817 -0.16449237 -0.17910795 0.038445275 0.04170016
-0.21632713 -0.2363051 -0.20990099 -0.1953571 0.019958531 -0.2250525 0.2386978 -0.08153383
0.07947054 0.25329712 -0.15444359 0.25596452 -0.016648693 -0.08794194 0.3334599 0.17689253
0.24188848 0.25774965 0.033624254 0.34286678 0.010907867 -0.07650757 -0.12731108 -0.25702465
-0.17144938 -0.3902605 0.23018263 0.26845887 -0.28473595 0.17238979 -0.019946406 0.08997769
-0.079595275 0.108625434 0.23322617 0.07023721 0.24785306 -0.118959725 0.1516326 -0.11611439
0.21046242 0.20158917 -0.14288527 -0.115468636 0.36666352 -0.14891072 -0.17847058 -0.09460953
-0.26715007 0.23961571 -0.013138222 0.23539506 -0.029639198 -0.051810242 0.1254566 0.38616052
0.17781033 0.15285797 0.14233373 0.21897112 -0.09150357 0.048993245 -0.110221416 0.10859888

conv_out.bias f4 [32]
00000000: 49bc 07bd 62f6 06bd 1928 123d d029 083d
00000010: 9086 05bd b957 023d aa20 fdbc eba4 eabc
00000020: 5cf7 f73c f959 083d f39e 093d e6a0 0c3d
00000030: f528 0c3d 6c2e ff3c 23e7 fc3c df54 01bd
00000040: a379 03bd 6265 0bbd 103e b63c c481 f43c
00000050: 5617 0c3d 7256 e0bc 4816 11bd 7c36 02bd
00000060: d856 103d f60a 053d bfc7 fdbc a710 f9bc
00000070: 6871 b7bc 6047 0abd 7f74 0abd 73a6 013d
-0.033138547 -0.032949813 0.03568277 0.033243 -0.032599032 0.03182194 -0.030899365 -0.028643092
0.030269317 0.03328893 0.03359885 0.034333132 0.034218747 0.031150065 0.030871933 -0.03157508
-0.032098424 -0.034032233 0.02224639 0.029847033 0.034201942 -0.02738497 -0.03542164 -0.03179024
0.03523907 0.032481156 -0.030979035 -0.030403448 -0.022392944 -0.033759475 -0.033802506 0.03165288

conv_out.lin.weight f4 [32, 32]
00000000: 3af7 89be 06e4 00bd 4806 93be 3841 6dbc
00000010: 211f dd3e 152a 593d 720d 75be c6dc d1bd
00000020: 6da6 d0bd 5b87 663e db16 14be 4d79 853d
00000030: 13d8 7abe 7538 983e be5c 9dbd bac7 753d
00000040: 3dfb 903d 93d6 b33e 6546 b2be ab37 f6bd
00000050: 546a 26be f802 113d f79f 9fbe f839 753e
00000060: 559b 64be 6284 e43c fdbc c5bd e018 823e
00000070: 974c 3e3e 5695 413e 1c2d f0bd fe42 d6bd
00000080: 2e53 17be f17d 46be 5fdb e1bd d639 da3c
00000090: 1fc5 9e3e 5c68 113e 8a22 5dbd 5c3b 86be
000000a0: 9500 49be 856e 653d 0874 023e ecd8 2d3e
000000b0: 3421 22bd 2d9f 153d a31f 28bd 6f46 7d3e
000000c0: 4bb4 533e ad0a 9fbd 63e3 41bd 33fe 8fbe
000000d0: 51c7 143e f844 233d f0e1 6abe b7a8 b33e
000000e0: 0061 053e be57 2a3a 96e3 e9bd dc99 42be
000000f0: d992 fc3d cdba 7e3e d855 603e e654 c33e
00000100: 771b a4bd 6e91 ac3e 1620 983e 152a 5ebe
00000110: 6140 cfbe 8bfe 47be 512c 653e 2448 5b3d
00000120: 3221 cb3e d838 2e3a 02ac 85be 8b72 96be
00000130: dbe1 853e 14a7 b4be b53f 2c3d 9d7d 493e
00000140: e0e9 5ebd fa95 bebd 524a b63d abf3 94bd
00000150: b485 c0be 5478 59bd 5209 023f 3a84 c1bc
00000160: 0d4c d73e f52e c2bd 0ac6 943e 81a8 903b
00000170: 0773 c03d 379a 09be 1c8d 0a3e e57c 323d
00000180: b336 0abe 8c69 9c3e 2509 ab3d 6775 6dbd
00000190: 0817 f53d 75fc 503c d5d5 ad3d b743 bfbd
000001a0: 2fe9 d13d 5aaf b0be eb88 94be 0137 72be
000001b0: 6fd1 973c 0c81 00bd e1b2 013e 0b2b dfbd
000001c0: 65cf 84be f3cf 49be 26ce a63e 9755 953c
000001d0: 973f a1be 669e 65be 99e2 d8bd b808 1e3e
000001e0: 34db 4abd e673 09be 765b a03e 8498 043e
000001f0: 4090 8bbe 1994 423e 885a d23d 4002 f63d
00000200: 8a97 e7be e242 c4be 1b25 05bc 72e8 573d
00000210: e4e1 bc3d e935 02be 4db9 aabd f433 5ebe
00000220: 2dcf 6a3e 2630 413e c299 c13e 6355 673e
00000230: 1c5f 2abe f5d7 863e 09f9 893d b149 44be
00000240: 9882 88bd 1de9 ba3e d095 a7be ed90 fcbd
00000250: 2cab aa3b ba24 5bbe df19 c73d b487 723e
00000260: e4c0 1cbe f5c5 183e 5b85 07be 1794 ae3b
00000270: ffcf aebd 52b2 af3d 7918 96be 0d30 3b3d
00000280: 687c ce3e 2dc6 8fbc b8c5 0c3d b771 d23d
00000290: fed4 ce3d bb6e b0bd 99a2 a03d c192 723e
000002a0: c5d3 433e 8f47 8bbd 0812 bebe 84af f0bc
000002b0: 5cf7 443e f435 54bd fdbd 113e d8ee 8e3e
000002c0: 9183 76be dfc7 183e 49aa 6fbe e7a8 b73e
000002d0: f93f 38be ddc2 48be 6ca6 07be cef1 0f3e
000002e0: 212d ad3e b412 73be b9d4 6bbe 3e28 6b3e
000002f0: 9b3b 903d 681c b4bc fbc2 a73e 95b2 07bd
00000300: b715 48bd c069 06bd 98b3 18be aaf0 473e
00000310: c0e7 28bd 3182 ca3a 1b57 9bbe 84cb 76be
00000320: b75f 6f3e 3624 6dbc ea13 173b f347 423e
00000330: 6088 25be acf2 773e f6e9 5c3e 0d2f 9bbe
00000340: 2407 bfbd 7db1 e33b 4e13 623d 2ac4 e5bd
00000350: 038f 41be b28f 79bd 76fc afbe 5043 973e
00000360: 5301 21bd f274 3ebe c1ed b1be 78e9 0cbe
00000370: 71d6 5b3e 7571 f9bc f7e9 723e 4b8f 4a3e
00000380: af97 263e 977b 3b3e 3116 1fbe 9a4f 303e
00000390: 403b d0bc de07 dd3c 354c 8dbe cdc3 86be
000003a0: de7a 06be 0816 14be 3dc0 f13d 1f82 45bd
000003b0: ca79 43be 0127 6ebe 4472 293e c432 d23d
000003c0: ed04 c93c 08bc 683e ee9d 78be ee62 543e
000003d0: f64f c4bd 5a72 343e dbb0 ffbd 1e05 3f3e
000003e0: 6516 0b3e c9e1 7d3e 9d40 183e bb2e 02be
000003f0: 2d5a 4cbe 2c17 a23e 2419 fe3d bf20 c33c
-0.2694643 -0.03146746 -0.2871573 -0.014480881 0.43187812 0.05301865 -0.2393091 -0.10247187
-0.10187993 0.22512572 -0.14461844 0.06517277 -0.24496488 0.29730573 -0.07683705 0.060004927
0.0707917 0.35124645 -0.34819332 -0.120223366 -0.16251498 0.03540322 -0.3117673 0.23947895
-0.2232488 0.027895156 -0.09655187 0.25409603 0.18583904 0.18904623 -0.11727354 -0.104619965
-0.14777824 -0.1938398 -0.1102817 0.026638906 0.31009766 0.14199966 -0.053988017 -0.26217163
-0.19629128 0.056013603 0.12739575 0.1697728 -0.039582446 0.036528755 -0.041045796 0.247339
0.20674245 -0.07765708 -0.047335993 -0.28123626 0.14529158 0.039860696 -0.22937751 0.35089657
0.13025284 0.000649806 -0.11420362 -0.19004005 0.123326965 0.24875946 0.21907747 0.3815071
-0.08013051 0.33704704 0.2971198 -0.2169574 -0.40478805 -0.19530694 0.22380187 0.053535596
0.39673764 0.00066460436 -0.26107794 -0.29384264 0.26148877 -0.3528372 0.042052943 0.19676824
-0.05442226 -0.093059495 0.08900894 -0.072730385 -0.37602007 -0.05309327 0.5079547 -0.02362262
0.4205021 -0.094816126 0.29057342 0.0044146185 0.0939694 -0.13437735 0.13530391 0.04357614
-0.13497429 0.30549276 0.083513536 -0.05797329 0.119672835 0.012755503 0.08488051 -0.093390875
0.10249554 -0.34508783 -0.2901071 -0.23653795 0.018532483 -0.03137307 0.12665893 -0.10896882
-0.2593948 -0.19708233 0.32579154 0.018229289 -0.31493828 -0.22423705 -0.10590095 0.15433013
-0.049525455 -0.13423118 0.3131978 0.12948805 -0.27258492 0.19001807 0.10271174 0.12012148
-0.45232803 -0.38332278 -0.008126522 0.05271191 0.09222773 -0.12715878 -0.083361246 -0.21699506
0.22930594 0.18866023 0.3781262 0.22591166 -0.16637844 0.26336637 0.06736953 -0.19168736
-0.06665534 0.36505976 -0.32731485 -0.1233233 0.0052083936 -0.21400729 0.097217314 0.23684579
-0.15307957 0.14919265 -0.13234465 0.0053277123 -0.08535766 0.08578934 -0.29315546 0.04570012
0.4032929 -0.017550552 0.034368247 0.10275596 0.10099219 -0.0861487 0.07843513 0.23688795
0.19123752 -0.06800758 -0.37123132 -0.029380567 0.19234985 -0.051809266 0.14232631 0.27916598
-0.24073626 0.14919995 -0.23404802 0.3587105 -0.17993154 -0.19605584 -0.13247079 0.14057085
0.33823493 -0.23737603 -0.23030366 0.2296457 0.07042619 -0.021986201 0.32765946 -0.033129293
-0.048848834 -0.032815695 -0.1491226 0.195254 -0.04123664 0.0015450177 -0.30339894 -0.24101073
0.23376356 -0.014473965 0.0023052641 0.18972759 -0.16165304 0.24213666 0.21573624 -0.30309334
-0.09327534 0.0069486485 0.05519419 -0.11219056 -0.18902211 -0.060928054 -0.343723 0.29543543
-0.039307903 -0.18599299 -0.34751704 -0.13760936 0.21468522 -0.030449608 0.23722063 0.19781224
0.162688 0.18308865 -0.15535809 0.17217866 -0.025418878 0.02698129 -0.27597204 -0.2632126
-0.13132808 -0.14461529 0.11804245 -0.048219796 -0.19089428 -0.23257066 0.16547495 0.10263589
0.024538482 0.22727978 -0.24278995 0.20740864 -0.09585564 0.17621747 -0.124849044 0.18654296
0.13582762 0.24793161 0.14868398 -0.12713139 -0.19956274 0.31658304 0.12407139 0.023819325

fc.weight f4 [1, 32]
00000000: 1be6 82be 7579 6dbe 1140 3c3e 9909 1c3e
00000010: 428f 95be 1c06 353e dee7 a6bd 9285 e4bc
00000020: 982b 963d f96b 6a3e d56b 0bbd d162 9d3d
00000030: c544 843e 1517 863e a863 c53d 8deb 46be
00000040: 9075 20be 1692 0cbe 1baa edbc bf02 b23d
00000050: 96c8 423e bdec 72bd ced9 0ebe 20f8 8ebe
00000060: 109d 423e 664a 2e3e f514 03be 8dcb 98bd
00000070: a210 81bd a9f9 433b 2305 95bd faa8 803e
-0.25566182 -0.23190863 0.18383814 0.15238036 -0.2921086 0.17678112 -0.08149694 -0.027895723
0.073325336 0.22892751 -0.034038384 0.07684863 0.25833717 0.26189485 0.096381485 -0.19425793
-0.15669847 -0.13727602 -0.029011777 0.0869193 0.1902183 -0.059307802 -0.13950273 -0.2792368
0.19005227 0.17020568 -0.12800963 -0.07460699 -0.063020006 0.0029903448 -0.072763704 0.2512892
